epoch_30.pth (torch, 384277 bytes, 10 tensors)

net.0.weight f4 [64, 3, 3, 3]
0	0x3dfeb768	0.12437326
1	0xbe37e2e2	-0.17957643
2	0xbd371a1b	-0.04470263
3	0x3e0c43c7	0.1369773
4	0x3d7ed5d0	0.062215626
5	0xbe011fa7	-0.1260973
6	0xbe26c50f	-0.1628611
7	0xbda44424	-0.08020809
8	0x3b122bfa	0.0022304044
9	0x3e3585da	0.17726842
10	0xbdb1295e	-0.08650468
11	0x3d215fd2	0.039398022
12	0xbe3026ce	-0.17202303
13	0xbd1dae40	-0.038496256
14	0xbdd13733	-0.102156065
15	0x3e0f0892	0.13968113
16	0x3c3b8d39	0.011447244
17	0xbdac95b2	-0.084269896
18	0xbd8c926e	-0.06863867
19	0xbe0a73e7	-0.13520776
20	0xbcaeba31	-0.021329017
21	0x3e0edf32	0.1395233
22	0xbc214e76	-0.009845367
23	0xbd7c18d2	-0.061547108
24	0x3e286c11	0.16447474
25	0x3da4a498	0.08039206
26	0xbcdac32a	-0.02670439
27	0x3d36e284	0.044649616
28	0x3b9259b3	0.0044662594
29	0x3d39d5fa	0.04537008
30	0x3de75bcf	0.11296808
31	0xbdf8986b	-0.121384464
32	0xbe097e34	-0.13427049
33	0xbe147de5	-0.1450115
34	0xbc2d130b	-0.010563622
35	0xbe1f79c4	-0.15573794
36	0x3e478ad9	0.1948656
37	0x3c321fb1	0.010871814
38	0x3d94d6da	0.07267542
39	0x3e388266	0.18018493
40	0xbdef8813	-0.11695876
41	0x3c33f551	0.010983781
42	0x3b3194fe	0.0027096863
43	0x3e24581e	0.16049239
44	0xbdc790b3	-0.09744396
45	0xbe0c1925	-0.13681467
46	0x3de66e91	0.112515576
47	0x3d903f37	0.07043307
48	0xbca85d60	-0.020552337
49	0xbcd123ef	-0.02552983
50	0x3db265b2	0.08710803
51	0xbca1a05f	-0.019729791
52	0xbd012329	-0.031527672
53	0x3de70937	0.112810545
54	0x3d78f09a	0.06077633
55	0x3e454e16	0.19268069
56	0x3cc221d9	0.02369778
57	0xbdc1c4b5	-0.09461347
58	0xbe161a1f	-0.14658402
59	0xbe2e96c4	-0.170497
60	0x3d95e150	0.073183656
61	0x3dd1779b	0.10227891
62	0xbd754ea2	-0.059889443
63	0xbdb80ed1	-0.08987201
64	0x3e3cffbb	0.18456928
65	0xbd89e7fc	-0.06733701
66	0x3de7632a	0.11298211
67	0xbdd2f77d	-0.10301111
68	0xbe1d58cc	-0.15365905
69	0xbd96c073	-0.073609255
70	0xbd487930	-0.0489437
71	0x3df63def	0.12023532
72	0x3e16c2cd	0.14722748
73	0x3e1ab4fe	0.15108106
74	0xbd98bba1	-0.074576624
75	0x3d52961c	0.051412687
76	0xbe04e900	-0.12979507
77	0xbdc6fa25	-0.0971568
78	0x3db93cb3	0.090447806
79	0xbe230532	-0.1591995
80	0xbcaa642d	-0.02079972
81	0x3e38ac95	0.18034585
82	0x3cb99730	0.0226551
83	0x3ddfdc42	0.10930683
84	0x3e338852	0.17532471
85	0xbd7d50d0	-0.061844647
86	0x3e0f7da2	0.14012769
87	0x3e33b14d	0.17548104
88	0x3bdd86cf	0.006760455
89	0x3d8361ac	0.06415114
90	0x3db90398	0.090338886
91	0x3ddb5267	0.107090764
92	0xba8f2121	-0.0010919907
93	0xbe488307	-0.19581233
94	0xbe3ee615	-0.18642457
95	0x3d1460b7	0.036225047
96	0x3e0efb83	0.13963132
97	0x3d16c0c5	0.036804933
98	0x3bf3f315	0.007444749
99	0x3dc881d0	0.09790385
100	0x3d670ab2	0.056406684
101	0xbe349874	-0.17636281
102	0x3d10d9b3	0.035363864
103	0x3d0ecb60	0.034861922
104	0x3db0999c	0.08623049
105	0xbd9dd7ed	-0.077072
106	0x3da7121c	0.08157751
107	0x3dff893a	0.12477346
108	0x3dc57289	0.096409865
109	0x3db70436	0.0893635
110	0xbdc54528	-0.09632331
111	0xbcd62f80	-0.026145697
112	0xbe00cb8f	-0.12577651
113	0xbe2f7246	-0.17133436
114	0xbdcba2d5	-0.09943167
115	0x3e5768f0	0.21036124
116	0xbe1af08e	-0.15130827
117	0x3d947418	0.072487056
118	0x3dd58e33	0.10427513
119	0xbcb78da8	-0.022406414
120	0x3e102ec6	0.14080343
121	0xbbf58342	-0.007492454
122	0x3e0a5701	0.13509752
123	0x3e28fb2e	0.16502067
124	0x3d49eeb1	0.0492999
125	0xbc6c8bbc	-0.014437612
126	0x3e039716	0.12850603
127	0x3db34868	0.08754045
128	0xbe2e1013	-0.1699832
129	0xbd35076d	-0.044196535
130	0x3e0ddbd3	0.13853388
131	0xbe120751	-0.14260603
132	0xbd309338	-0.04310915
133	0xbd10d6dc	-0.035361156
134	0xbe33c173	-0.17554264
135	0x3dda557c	0.10660836
136	0x3e280741	0.16409017
137	0xbdcbe262	-0.099552885
138	0x3e418691	0.1889899
139	0xbe0f678e	-0.14004347
140	0xbd410465	-0.04712333
141	0xbc04ebd5	-0.008112867
142	0x3e38060b	0.17971055
143	0xbe3163ea	-0.1732327
144	0xbdd42265	-0.10358123
145	0xbc5dca8d	-0.013537061
146	0x3d178ce7	0.03699961
147	0x3ce09ad9	0.027417587
148	0x3e29931f	0.16560028
149	0xbe1819c3	-0.14853577
150	0xbda65f4a	-0.08123644
151	0xbd3adcb9	-0.045620654
152	0xbe1a7479	-0.15083493
153	0x3de32aea	0.110921696
154	0x3c72b147	0.014812774
155	0x3e1daed8	0.15398729
156	0xbe0bc0dc	-0.13647789
157	0x3ddfe08f	0.10931503
158	0x3e07fb2c	0.13279408
159	0xbe10e170	-0.14148498
160	0x3d5eea2e	0.05442255
161	0x3de26271	0.110539325
162	0xbdceca22	-0.100971475
163	0xbe201827	-0.15634213
164	0xbe20c627	-0.15700589
165	0xbdc46e63	-0.09591367
166	0xbd807ce3	-0.0627382
167	0x3cca5274	0.02469752
168	0xbd92d47a	-0.07169433
169	0xbe1badb6	-0.15202984
170	0xbd934bb3	-0.07192173
171	0xbe337195	-0.17523797
172	0xbc7760f1	-0.015098796
173	0xbd4b3cc9	-0.049618516
174	0x3e18d071	0.14923264
175	0x3c8dead4	0.017323889
176	0xbd694aa4	-0.05695595
177	0x3e3273db	0.17427008
178	0xbdc15453	-0.09439912
179	0x3e52317d	0.20526691
180	0xbd90853f	-0.07056665
181	0xbcaf4d90	-0.02139929
182	0x3cd72aa6	0.026265454
183	0x3dc6e0e3	0.097108625
184	0xbd41d4d0	-0.047322094
185	0x3e5f24e0	0.2179141
186	0xbcd2deee	-0.025741067
187	0xbdf3e00a	-0.119079664
188	0x3e0a718f	0.13519882
189	0x3e240b6e	0.16019985
190	0xbd366c3e	-0.04453682
191	0xbcc0f763	-0.023555463
192	0xbd89a896	-0.06721608
193	0xbd13bd6e	-0.036069326
194	0xbd42f2b7	-0.047594752
195	0x3e0c85e7	0.13722955
196	0xbd9fa832	-0.077957526
197	0xbe13187f	-0.14364813
198	0x3cf0ddb8	0.029402599
199	0x3de6afa5	0.1126397
200	0x3dcef78f	0.10105812
201	0xbd5545ec	-0.052068636
202	0xbdd1c249	-0.10242135
203	0x3e1f74ee	0.15571949
204	0xbdaa64a6	-0.083199784
205	0xbe1920ed	-0.14953966
206	0x3e426f86	0.18987855
207	0xbdc0b851	-0.094101556
208	0x3c3d7963	0.011564585
209	0x39ae4620	0.00033240113
210	0x3e174d81	0.14775659
211	0xbdb071de	-0.086154684
212	0xbd78fae0	-0.060786128
213	0x3da61566	0.0810955
214	0xbdee40f8	-0.116334856
215	0xbe03fb00	-0.12888718
216	0x3d46c848	0.048530847
217	0xbdca951a	-0.0989172
218	0xbdda88f1	-0.10670651
219	0xbe0125ec	-0.12612122
220	0xbe434c49	-0.19072069
221	0x3df93f7e	0.12170313
222	0xbc438d40	-0.011935532
223	0xbc586260	-0.013207048
224	0xbcd18030	-0.02557382
225	0x3e2a8517	0.16652332
226	0x3d67ad7c	0.056561932
227	0x3d96c35e	0.07361482
228	0x3dbcd112	0.092195645
229	0xbdeafdf6	-0.114742205
230	0xbdc07dbf	-0.09398984
231	0xbdd56b79	-0.104208894
232	0x3de53e42	0.11193515
233	0xbddabfef	-0.1068114
234	0xbc53e190	-0.012932196
235	0xbcfa3a60	-0.030545413
236	0xbc427e90	-0.011870995
237	0xbe0b62de	-0.13611934
238	0x3d367e94	0.044554308
239	0xbdca2eac	-0.09872183
240	0xbe0448d0	-0.12918401
241	0xbd85fb14	-0.0654203
242	0x3c4e8e30	0.012607142
243	0xbd9d0095	-0.07666127
244	0xbdb753bd	-0.08951519
245	0x3e0dea6a	0.13858953
246	0xbd446cce	-0.047955327
247	0x3de0e34a	0.10980852
248	0xbe0f2ef0	-0.13982749
249	0x3e032587	0.12807284
250	0x3d965c47	0.07341819
251	0x3e1ce5ce	0.15322039
252	0x3d01aa3f	0.0316565
253	0x3df19a00	0.11796951
254	0x3e222e9d	0.15838094
255	0xbd4b46e9	-0.049628172

net.0.bias f4 [64]
0	0x3e1514ee	0.14558765
1	0x3ca155ed	0.019694293
2	0x3dffeca6	0.12496309
3	0x3d8795c9	0.06620366
4	0xbd9f5fa5	-0.077819146
5	0xbdd716a7	-0.105023675
6	0x3db6f0e3	0.08932664
7	0x3e04534a	0.12922397
8	0xbdb2999b	-0.08720704
9	0xbe22f8fc	-0.15915293
10	0xbe18bf24	-0.14916664
11	0xbd0016f6	-0.031271897
12	0x3dbf1350	0.093298554
13	0x3e0fae0d	0.14031239
14	0x3ddcd8ff	0.10783576
15	0xbdbdd7c0	-0.09269667
16	0xbd8efeca	-0.06982191
17	0xbe0db0c1	-0.13836958
18	0xbdcd6799	-0.10029525
19	0x3dced49d	0.100991465
20	0xbe1e1b90	-0.15440202
21	0xbdf6c643	-0.12049534
22	0x3de8df05	0.113706626
23	0xbd873c34	-0.0660328
24	0x3e1d0c65	0.1533676
25	0x3c9be0dc	0.01902812
26	0xbd0c57ce	-0.034263425
27	0x3de0debb	0.109799825
28	0xbbad447e	-0.005287706
29	0x3e1cf320	0.1532712
30	0x3dc43e26	0.095821664
31	0x3e093764	0.13400036
32	0x3c045996	0.008078
33	0xbe03a74d	-0.12856789
34	0xbc5857b5	-0.013204505
35	0x3d8b1282	0.067906395
36	0xbd8d7d54	-0.0690867
37	0x3b6352d8	0.003468683
38	0x3de3b6d9	0.1111886
39	0xbde25e5f	-0.11053156
40	0x3e0b4cf9	0.13603581
41	0xbe0562c3	-0.13025956
42	0x3bd413ff	0.0064721103
43	0x3d79a8fc	0.06095217
44	0xbc37e62c	-0.011224311
45	0x3e1873fe	0.14887998
46	0x3dd48ab3	0.10378017
47	0xbc9cb0bb	-0.01912724
48	0xbcdd4f60	-0.027015388
49	0x3e3a98db	0.18222372
50	0x3e299bda	0.16563359
51	0xbdda1a1c	-0.10649511
52	0xbc40bf26	-0.011764323
53	0x3d01a650	0.03165275
54	0x3dc4a18c	0.09601125
55	0x3e083347	0.13300811
56	0xbe0ec740	-0.13943195
57	0xbe1d8bac	-0.15385312
58	0x3c343e35	0.011001159
59	0xbd928953	-0.07155099
60	0xbc22eec1	-0.009944619
61	0x3d6a5440	0.057209253
62	0x3c9618f5	0.018322447
63	0xbde5913e	-0.112093434

net.2.weight f4 [64, 64, 3, 3]
0	0x3c7b0a44	0.015322272
1	0x3c2e5271	0.010639773
2	0xbcc12500	-0.023577213
3	0xbd287753	-0.04112942
4	0xbb0c6ded	-0.0021427826
5	0x3c43cccb	0.011950682
6	0x3bb7173d	0.005587487
7	0x3c7093bb	0.014683659
8	0xbc83d8e3	-0.01609463
9	0xbc865e0f	-0.016402273
10	0xbd21d11f	-0.039506074
11	0xbd14f318	-0.036364645
12	0xbc82a95e	-0.015949901
13	0xbc8e9bb4	-0.01740823
14	0xbc0ec8eb	-0.008714895
15	0xbc5f6951	-0.013635949
16	0xbd273e1a	-0.04083071
17	0x3d21f357	0.039538708
18	0xbddc0ce3	-0.107446454
19	0xbc97bd3b	-0.01852285
20	0xbd7bb549	-0.061452184
21	0xbd8a5bc0	-0.06755781
22	0x3b0567ee	0.0020356136
23	0xbbbc184f	-0.0057402025
24	0xbc991bed	-0.018690074
25	0x3cb9b088	0.022667184
26	0x3cfc410d	0.030792737
27	0xbd270f81	-0.04078627
28	0x3c9c6a9d	0.019093806
29	0x3af7291f	0.001885686
30	0x3cdef015	0.02721409
31	0xbd2189c5	-0.039438028
32	0x3c7cdcee	0.015433533
33	0x3cc5c309	0.024140852
34	0x3ba9577d	0.0051679
35	0x3c7aea80	0.015314698
36	0xbbc120c0	-0.0058937967
37	0x3d94e713	0.072706364
38	0xbc41894d	-0.01181252
39	0x3d6f9819	0.05849466
40	0x3ce30cff	0.027716158
41	0x3b6350a0	0.0034685507
42	0x3c575c6a	0.013144592
43	0x3d40f065	0.047104258
44	0xbcfcf9d3	-0.030880844
45	0xbb86ed33	-0.004117632
46	0xbcf7857a	-0.030215014
47	0xbd07d2e8	-0.03316012
48	0xbc8c2a28	-0.017109945
49	0xbcba0d76	-0.022711497
50	0xbccd754d	-0.025080347
51	0x3d1f78b0	0.038933456
52	0x3d858dc8	0.06521183
53	0x3d13ce59	0.03608546
54	0x3d9308cb	0.071794115
55	0xbc33a24d	-0.0109639885
56	0xbc2b8861	-0.010469527
57	0x3d68b585	0.056813736
58	0x3d395bf0	0.045253694
59	0x3cf1cfeb	0.029518088
60	0x3d9fc256	0.078007385
61	0x3d7108a6	0.05884614
62	0x3ad6be0d	0.0016383544
63	0xbd423069	-0.04740945
64	0xbc7aec35	-0.015315105
65	0xbb9ae060	-0.0047264546
66	0xbc53c8a3	-0.0129262535
67	0xbd9b053c	-0.07569358
68	0xbc214feb	-0.009845714
69	0x3c54fdbc	0.012999948
70	0x3c1891d8	0.009312116
71	0x3c9a5c43	0.018842822
72	0xba390040	-0.0007057227
73	0xbd16326b	-0.036669176
74	0xbca435c6	-0.020045172
75	0xbca85606	-0.020548832
76	0xbbc83920	-0.0061103255
77	0x3d1494d9	0.036274765
78	0x3d297b83	0.041377556
79	0xbc021574	-0.007939685
80	0x3ab78ee0	0.0014004372
81	0x3c858537	0.016298873
82	0xbbb9b1d7	-0.005666952
83	0xbd74c9dc	-0.05976282
84	0xbcd9f040	-0.026603818
85	0xbd09de58	-0.03365931
86	0xbca50b25	-0.020146916
87	0xbd1f81d5	-0.038942177
88	0xbd17f2bf	-0.037096735
89	0x3bfb4ff8	0.007669445
90	0xbc562879	-0.013071173
91	0x3bcea7a6	0.0063066063
92	0xbd0a09c1	-0.03370071
93	0x3cb1d383	0.021707302
94	0x3d212768	0.03934422
95	0xbd0fb31b	-0.035082918
96	0x3ccf154e	0.025278714
97	0x3d2a783d	0.041618574
98	0x3cce8644	0.025210507
99	0xbc45a163	-0.012062403
100	0xbc4b3aa9	-0.012404122
101	0x3c3ad23f	0.011402666
102	0x3d4d0955	0.050057728
103	0x3caabbff	0.020841597
104	0x3c8f6fc1	0.017509343
105	0x3d53a3c8	0.051669866
106	0x3d02d56a	0.03194181
107	0xbca26baf	-0.019826738
108	0x3b785568	0.0037892703
109	0x3ce8dd7e	0.028425928
110	0xbcc298bb	-0.023754468
111	0xbd029c9f	-0.031887647
112	0xbd214c97	-0.039379682
113	0xbcd686ed	-0.026187385
114	0x3d03d7bf	0.032188173
115	0x3d1f741c	0.03892909
116	0xbb2d7cd6	-0.0026472113
117	0xbce5b31a	-0.028039504
118	0xbca39c70	-0.019972056
119	0x3c0c8810	0.008577362
120	0x3c4407a5	0.011964713
121	0x3bdd224b	0.006748473
122	0x3afa0f25	0.0019078
123	0xbd222d1f	-0.039593812
124	0x3c5bba93	0.013411182
125	0xbcadb0ee	-0.02120253
126	0x3c9f31ef	0.01943299
127	0xbd661468	-0.056171805
128	0xbc739bcb	-0.014868687
129	0xbd619079	-0.05506942
130	0xbcf6a1c6	-0.030106436
131	0xbca6264d	-0.020281935
132	0xbc6a0d49	-0.014285394
133	0xbcec8d0b	-0.028875848
134	0x3b9beb29	0.004758258
135	0x3c95bc40	0.018278241
136	0xbd0d2f79	-0.0344691
137	0xbcf0364d	-0.029322768
138	0xbc72c589	-0.014817604
139	0x3d183542	0.037160166
140	0xbcda9818	-0.026683852
141	0x3cfcd71d	0.030864293
142	0xba8bfc78	-0.00106801
143	0x3b587a85	0.0033032012
144	0x3c9edf71	0.019393655
145	0xbd43115c	-0.047623977
146	0xbd1e6117	-0.03866681
147	0xbd084d14	-0.033276632
148	0x3bede421	0.007259861
149	0xbc7e0655	-0.015504439
150	0xbc06e048	-0.008232184
151	0xbbe58183	-0.0070039644
152	0x3d2153c5	0.03938653
153	0x3c61d420	0.013783485
154	0x3cddd1a6	0.027077507
155	0x3ceb10b2	0.028694484
156	0xbd04c12b	-0.03241078
157	0xbad76960	-0.0016434602
158	0xbd0ae07c	-0.03390549
159	0xbcc586f3	-0.0241122
160	0x39a23180	0.00030935928
161	0x3cc9f6aa	0.024653751
162	0x3c9b164c	0.01893153
163	0x3d19ed94	0.037580088
164	0xbc2714cd	-0.01019783
165	0x3c6e4c97	0.014544628
166	0x3c2dbc08	0.010603912
167	0x3d166248	0.036714822
168	0x3c5aa075	0.01334392
169	0x3d0365da	0.032079555
170	0xbc9bba14	-0.019009627
171	0xbbc474d8	-0.005995374
172	0xbb923fe5	-0.004463183
173	0xbd2649f6	-0.04059788
174	0xbcc0f0f0	-0.023552388
175	0xbd048c3c	-0.0323603
176	0xbd401082	-0.046890743
177	0x3d198779	0.037482712
178	0xbd0f79f7	-0.035028424
179	0x3c868a8c	0.016423486
180	0xbd074b82	-0.033030994
181	0xbd58a1ee	-0.052888803
182	0xbd4894db	-0.048970085
183	0xbcd32bad	-0.025777662
184	0x3c7448d7	0.0149099445
185	0xbbd6c195	-0.0065538385
186	0x3ca3021f	0.019898472
187	0xbaccb415	-0.0015617633
188	0x3c093be6	0.008376097
189	0x3d4119ad	0.047143627
190	0xbb16d9dc	-0.0023018038
191	0x3d4e3790	0.050345957
192	0xbc6a3660	-0.014295191
193	0x3d7bd7d3	0.061485123
194	0xbccf3303	-0.025292879
195	0x3c0da4a0	0.008645207
196	0xbc6720ea	-0.014106968
197	0x3c16e2ab	0.009209315
198	0x3d17903b	0.037002783
199	0xbbabfac7	-0.005248401
200	0x3b68e2bb	0.0035535533
201	0x3b7d7cf5	0.0038679217
202	0xbca806ab	-0.020510992
203	0xbc326886	-0.010889178
204	0xbbab3cd7	-0.0052257585
205	0x3c25b6d2	0.010114389
206	0xbce33c62	-0.027738754
207	0xbce42290	-0.027848512
208	0x3cdd1d63	0.026991552
209	0x3c48a26f	0.012245758
210	0x3bb997ca	0.0056638466
211	0xbc442f48	-0.011974163
212	0xbcc51b83	-0.02406097
213	0x3ce06052	0.02738968
214	0x3ce898fb	0.02839326
215	0x3ca60b3a	0.020269025
216	0xbd086685	-0.033300895
217	0xbd141a6f	-0.03615802
218	0xbc2f04dc	-0.010682311
219	0xbd0592d7	-0.03261074
220	0x3c145f94	0.009055991
221	0x3c0b9708	0.008519895
222	0xbd10003e	-0.03515648
223	0xbcae0767	-0.021243764
224	0xbd0101d4	-0.031495884
225	0x3c3fc279	0.011704081
226	0xbd1148de	-0.035469882
227	0x3d0b6fc1	0.034042124
228	0x3c6d6d81	0.01449144
229	0xbc89e17b	-0.01683115
230	0xbad47c81	-0.0016211421
231	0x3c0fc634	0.008775283
232	0xbd1ca834	-0.03824635
233	0xbc707936	-0.014677336
234	0x3c38a472	0.011269676
235	0xbcb241c1	-0.02175987
236	0x3cc5c6ea	0.024142701
237	0x3cbad5ab	0.022806963
238	0x3b74bab3	0.0037342727
239	0xbc1a34a4	-0.009411965
240	0xbc5a4673	-0.01332246
241	0x3d36d05e	0.04463231
242	0x3d5d9ed4	0.05410655
243	0x3c86aaf2	0.016438935
244	0x3b357aa9	0.002769152
245	0x3cee05fe	0.029055592
246	0x3d6cce8c	0.057814166
247	0x3d16592b	0.03670613
248	0xbbade98e	-0.005307383
249	0x3b421727	0.002961585
250	0x3cf72d45	0.030172953
251	0xbd1bc9ee	-0.038034372
252	0x3d018793	0.031623434
253	0xbcdcb7ff	-0.026943205
254	0xbc846cbf	-0.016165135
255	0xbc368979	-0.0111411745

net.2.bias f4 [64]
0	0xbceb643a	-0.028734315
1	0xbd3d84ad	-0.046269108
2	0xbce27daa	-0.027647812
3	0xbcd9372a	-0.026515562
4	0x3c20db19	0.009817862
5	0x3d00b6cd	0.031424332
6	0x3cef7390	0.02922991
7	0xbce8611d	-0.02836662
8	0x3ba5f34d	0.005064404
9	0x3bad5c4f	0.005290545
10	0x3b97df23	0.0046347543
11	0x3b2e5de8	0.0026606265
12	0x3d01f173	0.031724405
13	0xbd0e8806	-0.03479769
14	0x3ba4eeb9	0.005033341
15	0xbc7ce8fc	-0.015436407
16	0x3a10c355	0.0005522271
17	0x3ccdbca2	0.025114361
18	0xbcd07b75	-0.025449494
19	0xbd0cff9e	-0.034423463
20	0x3ae7d629	0.0017687726
21	0x3ca5785f	0.020198999
22	0xbd1d610e	-0.038422637
23	0x3d1a1541	0.037617926
24	0xbc35ec9f	-0.011103778
25	0xbc8efe3b	-0.01745521
26	0x3c82397c	0.015896551
27	0x3caef6e7	0.021357967
28	0x3d122b6f	0.035685953
29	0xbcaa7aad	-0.02081045
30	0x3d1167c6	0.035499357
31	0xbc91bd64	-0.017790504
32	0xbc532540	-0.012887299
33	0xbb4e055e	-0.0031436305
34	0x3b2a1486	0.0025952174
35	0x3bce4b1f	0.006295576
36	0xbcec3fff	-0.02883911
37	0xbb9ce9f7	-0.004788633
38	0x3d0b5035	0.03401204
39	0x3c133501	0.008984805
40	0x3cefe2ae	0.029282894
41	0x3d193d7f	0.037412163
42	0xbd1d0216	-0.038332067
43	0xba8e2e8d	-0.0010847613
44	0xbceb4018	-0.028717086
45	0x3d0bb59d	0.034108747
46	0x3d14981d	0.03627788
47	0xbd052cb4	-0.032513335
48	0x3d0902eb	0.03345005
49	0xbccbdc5b	-0.024885347
50	0x3c8eddc5	0.017439732
51	0xbc91364f	-0.017726092
52	0x3ce73c01	0.028226854
53	0xbc7cc068	-0.015426733
54	0x3bdc53fd	0.0067238794
55	0x3d240858	0.04004702
56	0xbccdd63d	-0.02512657
57	0x3ca33f86	0.019927751
58	0x3d16e615	0.036840517
59	0x3d04a684	0.032385364
60	0xbb1b338b	-0.0023681845
61	0x3cd134d7	0.025537891
62	0xbd1f8e10	-0.03895384
63	0xbc269e7b	-0.010169621

net.4.weight f4 [64, 64, 3, 3]
0	0x3b6625df	0.0035117788
1	0x3d14a36e	0.03628867
2	0x3c5c001a	0.013427759
3	0x3c31fe57	0.010863862
4	0x3c842bf3	0.016134238
5	0xbced7dbb	-0.028990617
6	0x3d0b3546	0.033986352
7	0x3d34a256	0.044100128
8	0xbcf6a7a9	-0.030109243
9	0xbb9f16ca	-0.0048550116
10	0xbcacdf64	-0.021102615
11	0xbc7e792e	-0.015531821
12	0x3aa05e27	0.0012235091
13	0x3cdd2587	0.026995433
14	0x3cdc6fd3	0.02690879
15	0xbb8ce502	-0.004299761
16	0xbcc55b1f	-0.024091301
17	0xbcb572af	-0.022149412
18	0x3ceeb97f	0.029141186
19	0x3ce6b886	0.02816416
20	0xbcb4a9ef	-0.022053687
21	0x3cf4e11f	0.029892502
22	0xbc74af3b	-0.014934356
23	0xbbd83a2c	-0.0065987315
24	0x3c8bd48e	0.017069127
25	0x3c008c22	0.00784591
26	0xbc97ad06	-0.018515121
27	0x3cf53946	0.029934537
28	0xbca9f6ac	-0.020747505
29	0xbc31abcb	-0.010844181
30	0xbcbac02e	-0.022796717
31	0x3cb77c46	0.022398125
32	0xbd0a8fff	-0.03382873
33	0xbc5a26e6	-0.013314938
34	0x3be48988	0.006974403
35	0x3a595b40	0.00082914904
36	0x3ce573b3	0.028009271
37	0x3bd840df	0.00659953
38	0x3b738817	0.0037159973
39	0x3d0e54d1	0.034748856
40	0xbd247f99	-0.04016075
41	0xbc4fc919	-0.012682223
42	0x3abd4508	0.0014440129
43	0x3d0dde80	0.03463602
44	0xbc3a5d0c	-0.011374723
45	0x3c5984ed	0.013276321
46	0xbc8f2d92	-0.017477784
47	0x3d7c992b	0.06166951
48	0xbd045463	-0.03230704
49	0x3b96e728	0.0046051927
50	0x3c8654a0	0.016397774
51	0xbcacfdf2	-0.021117184
52	0xbc0cc26b	-0.008591275
53	0x3cfb6130	0.030685991
54	0xbb6f9b5b	-0.0036561105
55	0x3ca7d478	0.020487055
56	0xbcaa511f	-0.020790635
57	0x3d0bd140	0.034135103
58	0x3d1e0a63	0.038584124
59	0x3d849232	0.06473197
60	0xbb3a8c28	-0.0028464887
61	0x3b40c2ea	0.0029413053
62	0x3d526e49	0.051374707
63	0x3d0c3553	0.03423054
64	0x3d73d90c	0.059533164
65	0x3d1c6626	0.038183354
66	0x3cb95be1	0.02262682
67	0x3daabe7e	0.08337115
68	0x3cd941dc	0.026520662
69	0x3d96342d	0.073341705
70	0x3d68883e	0.056770556
71	0x3d5bf8fd	0.05370425
72	0x3a6fa769	0.00091420725
73	0x3c543f36	0.012954524
74	0xbc1ab8e5	-0.009443496
75	0xbd3be059	-0.04586825
76	0x3c967e48	0.018370762
77	0x3ce3c73d	0.027804965
78	0x3cb9682d	0.022632683
79	0x3cc31e06	0.023818027
80	0xbc820d24	-0.015875407
81	0x3d1e319a	0.038621522
82	0x3d2e8a06	0.0426121
83	0x3c87a460	0.016557872
84	0xbb846aff	-0.0040410752
85	0x3d246a09	0.040140186
86	0x3d494a5c	0.04914318
87	0xbc181030	-0.009281203
88	0xbcfa72f2	-0.030572388
89	0x3cc54139	0.024078952
90	0x3d4f4ee2	0.050612338
91	0x3d1b0e63	0.037855517
92	0x3bfdef32	0.0077494616
93	0xbc8dd65e	-0.017314132
94	0x3cb3d98b	0.021954319
95	0xbc05c56f	-0.008164748
96	0x3c49d409	0.0123186195
97	0xbb962124	-0.0045815874
98	0x3cae527a	0.021279562
99	0x3b8e18e8	0.004336465
100	0x3ca3c1f9	0.019989954
101	0xbc57f207	-0.013180262
102	0xbce37d4f	-0.027769713
103	0x3b8df6d6	0.0043324037
104	0x3d0b64c9	0.034031663
105	0xbcb08f08	-0.021552578
106	0xbc8d88bf	-0.01727712
107	0xbd6ef268	-0.058336645
108	0x3cc6c17e	0.024262186
109	0xbccf0c9a	-0.025274564
110	0x3cd95e5e	0.026534256
111	0x3ccbc3a9	0.024873571
112	0xbbfa2aa6	-0.0076344786
113	0xbcf764a1	-0.03019935
114	0x3cd8fff9	0.026489245
115	0xbcac11a8	-0.021004513
116	0x3bb60797	0.005555104
117	0x3c9917c8	0.018688098
118	0xbcaf8453	-0.021425402
119	0xbc99e8f0	-0.018787831
120	0xbbd02178	-0.006351646
121	0xbcb8f623	-0.022578305
122	0xbd1d3d97	-0.038388815
123	0xbc65e62b	-0.014031927
124	0x3cad54a2	0.02115852
125	0x3bd5901b	0.006517423
126	0xbcb1059b	-0.021609118
127	0xbd0288eb	-0.031868856
128	0xbb8910c6	-0.0041829078
129	0x3ca800b3	0.020508146
130	0x3cdc3a58	0.02688329
131	0xbcd5308c	-0.026024126
132	0xbc1351c6	-0.008991664
133	0xbb986d28	-0.0046516843
134	0xbca946df	-0.020663677
135	0x3bdb9092	0.0067005837
136	0x3c3b61a0	0.01143685
137	0xbba76c01	-0.0051093106
138	0xbc4166a0	-0.011804253
139	0x3aed433e	0.0018101705
140	0x3cc4e5e3	0.0240354
141	0xbcd42d9d	-0.025900656
142	0x3c7a4978	0.015276305
143	0x3d24c79f	0.040229436
144	0x3d62bb5c	0.05535446
145	0x3d563f15	0.052306253
146	0x3d3b7f70	0.04577583
147	0x3dad14c8	0.08451229
148	0x3adb9884	0.0016753827
149	0x3d9d6c28	0.07686645
150	0x3c55915c	0.013035145
151	0x3d2551c8	0.040361196
152	0x3d8493c4	0.064734966
153	0x3d050d67	0.032483485
154	0x3cf0977e	0.029369112
155	0x3d0d8374	0.03454919
156	0x3c48d625	0.012258087
157	0x3cca7ecd	0.024718666
158	0x3d413d0f	0.04717737
159	0x3c4afdc1	0.012389601
160	0xbc43bb45	-0.011946504
161	0x3cdbbe8c	0.026824258
162	0xbce397a2	-0.027782265
163	0x3c3ce942	0.011530222
164	0xbcaefbda	-0.021360327
165	0x3bcf6b13	0.006329903
166	0x3b52bb85	0.0032155227
167	0xbb99ea6c	-0.0046971347
168	0xbbfcbbd3	-0.00771282
169	0xbc6c5a8d	-0.014425886
170	0xbcb2b579	-0.021815049
171	0xbcc35edc	-0.023848943
172	0x3cd87c33	0.02642641
173	0xbd0d6614	-0.034521177
174	0x3d046aad	0.032328296
175	0xbd10d14d	-0.035355855
176	0xbccd2048	-0.025039807
177	0xbae23758	-0.0017258925
178	0xbce1b359	-0.02755134
179	0x3ce5dacb	0.02805843
180	0xbd1ca640	-0.038244486
181	0x3cd84e21	0.026404442
182	0xbd2929b6	-0.041299544
183	0x3d492d93	0.04911573
184	0x3db786e2	0.08961274
185	0x3c919136	0.017769437
186	0x3cbe42fc	0.0232253
187	0x3da4ede8	0.080531895
188	0x3d2ba465	0.041904826
189	0x3b98f0c2	0.0046673724
190	0x3d1a4e75	0.03767248
191	0x3d653b74	0.055964902
192	0xbd020215	-0.031740267
193	0xbd01b72b	-0.031668823
194	0x3d50b90d	0.05095773
195	0xbcf32d06	-0.029684555
196	0x3cff0615	0.03113083
197	0x3ce05e5b	0.027388742
198	0x3d0f0fdb	0.03492723
199	0xbc8a8804	-0.01691056
200	0xbdbd25a3	-0.09235694
201	0xbcc90f2a	-0.024543364
202	0x3c0faa50	0.008768633
203	0xbc91b92a	-0.017788488
204	0xbbb55a13	-0.0055344193
205	0x3ca9c105	0.020721922
206	0xbbc0b0e7	-0.0058804634
207	0x3cd067b6	0.025440078
208	0x3cc776ce	0.024348643
209	0x3cdce40d	0.026964212
210	0x3cceb5f0	0.025233239
211	0x3cc25c43	0.023725634
212	0x3b86d4b5	0.004114712
213	0xbbbca1bd	-0.0057565854
214	0x3c4ca017	0.01248934
215	0xbc911c38	-0.017713651
216	0xbcdc9ac6	-0.02692927
217	0x3c6c1d3b	0.014411266
218	0x3d323247	0.04350498
219	0xbca383c4	-0.019960292
220	0x3d1ee992	0.03879697
221	0x3ce803e6	0.028322171
222	0x3ce8e3d0	0.028428942
223	0x3c799af6	0.0152346995
224	0x3ca25b69	0.019818978
225	0xbd252ef6	-0.04032799
226	0x3ce375e7	0.027766181
227	0x3c111ea6	0.008857405
228	0xbd1c2800	-0.038124084
229	0xbcc9235a	-0.02455299
230	0xbc29a3f6	-0.010354033
231	0xbc09d328	-0.00841216
232	0xbba79615	-0.0051143267
233	0xbc4e79c3	-0.012602272
234	0xbcfac515	-0.030611554
235	0xbd148a25	-0.036264557
236	0xbb44c6f7	-0.003002582
237	0x3cb462fa	0.022019852
238	0x3ca8ea13	0.020619428
239	0xbcb09134	-0.021553613
240	0xbcb11243	-0.021615153
241	0xbc398552	-0.01132329
242	0x3cd9d214	0.02658943
243	0x3b0712cb	0.0020610567
244	0x3d97a841	0.07405139
245	0x3d78911a	0.060685255
246	0xbb4fcbc7	-0.0031707154
247	0x3d5e0578	0.054204434
248	0x3d546a47	0.051859166
249	0xbd02488e	-0.031807475
250	0x3d18cec0	0.037306547
251	0x3c90f02b	0.017692646
252	0xba87e8a6	-0.0010369017
253	0x3c7c2d65	0.015391682
254	0xbcafe63f	-0.021472095
255	0xbd00a2e8	-0.03140536

net.4.bias f4 [64]
0	0xbc539410	-0.012913719
1	0xbc9c4c87	-0.01907946
2	0xbcf14fbe	-0.02945697
3	0xbc83158d	-0.016001487
4	0x3c97ae09	0.018515604
5	0xbc93cb94	-0.01804141
6	0xbc61ef62	-0.0137899835
7	0x3d2f937f	0.042865273
8	0x3cbb360e	0.022852924
9	0xbd134695	-0.035955984
10	0xbd12d805	-0.035850544
11	0xbbb3c05a	-0.0054855766
12	0xbc467eb3	-0.012115168
13	0xbcf28710	-0.029605418
14	0x3c901fcf	0.017593293
15	0x3d0e3159	0.03471503
16	0x3ce5aa0c	0.028035186
17	0xbcd79f4c	-0.026321076
18	0x3d098fa9	0.03358427
19	0x3d1a86ec	0.037726328
20	0x3c956579	0.018236862
21	0xbce7c974	-0.028294303
22	0x3d0f3faa	0.034972824
23	0x3cec3d6b	0.02883788
24	0xbd0847ca	-0.03327159
25	0xbcd7e473	-0.02635405
26	0xbd294537	-0.041325774
27	0xbd0bd94b	-0.034142774
28	0x3b3cfca1	0.0028837102
29	0x3bc27acc	0.0059350487
30	0x3b6efe90	0.003646765
31	0xbd1d3d55	-0.03838857
32	0x3c4c07cb	0.01245303
33	0xbd256e46	-0.040388368
34	0x3ce8d146	0.028420102
35	0x3bb58d54	0.0055405293
36	0xbcbbe087	-0.022934211
37	0x3cc1e839	0.023670303
38	0xbc44f611	-0.012021557
39	0x3d15052d	0.03638189
40	0xbcc394c6	-0.023874652
41	0xbcac0313	-0.02099756
42	0xbb95de66	-0.004573631
43	0xbcd99a0d	-0.026562715
44	0xbbc20d6a	-0.0059220092
45	0x3ca989fb	0.020695677
46	0xbd32d029	-0.04365555
47	0xbd39d4f7	-0.045369115
48	0x3c5b1714	0.0133722015
49	0x3ccd7fa0	0.02508527
50	0x3cfaf02d	0.030632103
51	0xbc653c90	-0.01399149
52	0xbcc0c013	-0.023529088
53	0xbd0c6e01	-0.034284595
54	0x3ca3fd01	0.020018103
55	0x3cf393d6	0.02973358
56	0xbb713fd3	-0.0036811724
57	0x3c96b0c9	0.018394845
58	0x3cd2bfc2	0.025726203
59	0x3c8af855	0.016964117
60	0x3b8aac3a	0.004231957
61	0x3d2170cb	0.03941421
62	0xbcf058fb	-0.029339304
63	0x3ca3a298	0.019974992

net.6.weight f4 [32, 64, 3, 3]
0	0x3b733819	0.0037112294
1	0xbc2ee6a6	-0.010675108
2	0x3d00aae1	0.031412963
3	0xbd151c20	-0.036403775
4	0xbcc331bb	-0.023827424
5	0x3c189da6	0.00931493
6	0xbd7ee166	-0.062226675
7	0xbcd628a7	-0.026142431
8	0xbc8d9a3b	-0.017285457
9	0xbb04b7ba	-0.002025111
10	0x3c01e191	0.007927314
11	0xbd8868c5	-0.06660608
12	0x3b709114	0.0036707567
13	0x3b6b7f40	0.0035934001
14	0xbce08ef4	-0.027411915
15	0xbc17c5fd	-0.009263513
16	0xbc00ead0	-0.007868484
17	0xbd0dcc27	-0.034618523
18	0xbc85de1d	-0.016341263
19	0xbc743b33	-0.014906692
20	0xbdaace2e	-0.08340107
21	0x3c8bd2ec	0.017068349
22	0x3d1ee7bd	0.03879522
23	0xbd81b779	-0.06333823
24	0x3b899a3a	0.0041992934
25	0xbc9752f3	-0.01847217
26	0xbdb7454f	-0.089487664
27	0xbd0152d3	-0.031573128
28	0xbc463e30	-0.012099788
29	0xbcc20c3b	-0.023687473
30	0x3c9811d7	0.018563194
31	0xbc134ad8	-0.008990012
32	0xbd2290be	-0.03968882
33	0xbc5a836a	-0.013336996
34	0xbbfcb0b5	-0.007711495
35	0x3ba97a6b	0.005172064
36	0xbbb380ce	-0.005478001
37	0x3d43122c	0.047624752
38	0x3daf2238	0.085514486
39	0x3d526769	0.05136815
40	0x3d6a2804	0.057167068
41	0x3ddafb1c	0.106924266
42	0x3d91bf84	0.07116607
43	0x3dd293af	0.10282075
44	0x3dab9ec2	0.0837989
45	0x3d50aa97	0.050943937
46	0x3ca329ab	0.01991733
47	0xbd3f7efc	-0.04675196
48	0xbb4ff5ae	-0.003173213
49	0xbc549f06	-0.012977367
50	0xbd6b161b	-0.05739413
51	0xbb3f3765	-0.0029177305
52	0x3d0b8035	0.034057815
53	0xbda27c46	-0.079338595
54	0xbc12094f	-0.008913352
55	0x3ba0e682	0.004910291
56	0x3d5fc9d9	0.054635856
57	0xbc63fe9b	-0.013915683
58	0x3d2f9601	0.042867664
59	0x3d7f06d9	0.06226239
60	0xbd1c0bbf	-0.03809714
61	0x3cb5df92	0.022201333
62	0x3ce79311	0.028268369
63	0x3bd7438b	0.006569331
64	0x3c5627a6	0.013070976
65	0xbd1a1eb4	-0.037626937
66	0x3ccc92bc	0.024972312
67	0xbb3d3234	-0.0028869035
68	0xbd17371e	-0.0369178
69	0x3cad8b7b	0.021184674
70	0xbce00af8	-0.02734898
71	0xbd12369b	-0.035696607
72	0x3d1dd9c8	0.03853777
73	0xbc11cea5	-0.008899366
74	0xbd37a6cc	-0.044836804
75	0x3c67f965	0.014158581
76	0xbafa900f	-0.0019116419
77	0xbaf0346b	-0.0018326169
78	0x3da90161	0.08252216
79	0x3a7a3f07	0.0009546135
80	0xbc8575e4	-0.016291566
81	0x3d74b78e	0.059745364
82	0x3d8e77f1	0.06956471
83	0xbac2974b	-0.0014846114
84	0x3d38103d	0.04493736
85	0x3d4e2dac	0.050336525
86	0xbcc57822	-0.024105135
87	0x3c2c34ff	0.010510682
88	0x3ca0d0a0	0.01963073
89	0xbcfbbaf1	-0.030728789
90	0x3d6ce494	0.057835177
91	0x3d43cdb0	0.04780358
92	0xbd30ef6a	-0.043197073
93	0x3c4abb3e	0.012373744
94	0x3d90274a	0.07038744
95	0xbd4b61ce	-0.04965382
96	0x3d9e9f93	0.0774528
97	0x3d8aa39c	0.06769487
98	0xbc9afb89	-0.01891877
99	0x3d52506b	0.051346224
100	0x3c4e8d9d	0.012607005
101	0xbc9c5683	-0.01908422
102	0x3c25339a	0.010083104
103	0xbb8a33bd	-0.0042175935
104	0xbd099601	-0.03359032
105	0x3ca961c4	0.020676501
106	0xbc258a7e	-0.01010382
107	0xbdae565c	-0.085125655
108	0x3d192abf	0.03739428
109	0x3d727808	0.059196502
110	0xbcb599a1	-0.022167983
111	0x3d92f690	0.07175934
112	0x3d51e5e9	0.05124465
113	0xbd0835ad	-0.033254314
114	0x3c4d2116	0.012520095
115	0x3d2dcd73	0.04243226
116	0x3c99bd49	0.018767016
117	0x3d943649	0.072369166
118	0xbcf81457	-0.030283136
119	0xbd18a31b	-0.037264924
120	0xbb4f3317	-0.0031616145
121	0x3ca86254	0.020554699
122	0xbdab7852	-0.08372559
123	0x3d846b0a	0.064657286
124	0x3b17867e	0.0023120935
125	0xbd983182	-0.07431318
126	0x3d6698e0	0.056298137
127	0x3d1ad550	0.037801087
128	0xbca791d8	-0.020455286
129	0x3d68b43c	0.05681251
130	0x3d2e7ee5	0.042601485
131	0xbc1884de	-0.009309022
132	0x3cf22b78	0.029561743
133	0xbbc59394	-0.0060295556
134	0xbbbc3fd9	-0.005744916
135	0xbc1d1755	-0.009588082
136	0x3cbaa9a8	0.022785977
137	0xbd4f854f	-0.050664242
138	0x3d1821f1	0.037141744
139	0x3bca1a89	0.006167714
140	0xbcc7a128	-0.024368837
141	0xbc8c9912	-0.017162833
142	0xbc9e93a5	-0.019357512
143	0xbc9e4e18	-0.019324347
144	0x3bba2fa3	0.0056819483
145	0xbcd8fa02	-0.0264864
146	0xbd6e1bd5	-0.05813201
147	0xbcaec4d1	-0.021334084
148	0xbc8228b6	-0.015888553
149	0xbdb85c7c	-0.09002015
150	0x3cee0e11	0.029059442
151	0x3d23902e	0.039932422
152	0xbdaa2bb7	-0.08309119
153	0x3d0fe059	0.035126064
154	0xbcb653fd	-0.022256846
155	0xbcfe7911	-0.031063588
156	0xba0eff3e	-0.0005454904
157	0xbc92e862	-0.017933074
158	0xbdc48633	-0.09595909
159	0x3c61946c	0.013768297
160	0xbd81cedf	-0.06338286
161	0xbd934554	-0.07190958
162	0x3d655e82	0.055998333
163	0xbc240465	-0.010010813
164	0xbc22288b	-0.0098973615
165	0xbc1e8128	-0.009674348
166	0xbc732a48	-0.014841624
167	0xbda1767e	-0.07883929
168	0x3d14a645	0.03629138
169	0x3d49fd8d	0.04931407
170	0xbd6f871a	-0.058478452
171	0x3d0d2cb3	0.034466457
172	0xbc8f46ad	-0.017489756
173	0xbd8a6dd8	-0.06759232
174	0xbce4dbc1	-0.027936818
175	0xbcdd05c7	-0.026980294
176	0xbd504c48	-0.050853997
177	0x3d50f366	0.051013373
178	0x3cf89315	0.030343572
179	0xbd9bdb67	-0.07610207
180	0x3cd12660	0.025530994
181	0xbc6fefb7	-0.014644555
182	0xbda21a12	-0.07915129
183	0xbb7f8868	-0.0038991217
184	0xbc094f82	-0.008380773
185	0xbd1417ba	-0.03615544
186	0x3c80d0b3	0.015724516
187	0x3d34ae80	0.04411173
188	0xbc7c9be7	-0.015418029
189	0xbd1e20b5	-0.03860541
190	0xbc16ba5c	-0.009199705
191	0x3bc37c16	0.00596572
192	0x3d46ef0e	0.048567824
193	0x3d060eba	0.032728888
194	0x3d5a4cfd	0.053296078
195	0x3c885e92	0.016646657
196	0x3b09ed14	0.002104585
197	0x3cc7d6e1	0.024394454
198	0x3ca7ecf1	0.020498725
199	0x3c962b5b	0.01833122
200	0xba836e81	-0.001002744
201	0x3d25f4bd	0.040516604
202	0x3c4b9807	0.012426383
203	0xbb635fa9	-0.003469447
204	0x3d536285	0.051607627
205	0x3a0071f2	0.00048997917
206	0xbd6115b7	-0.05495235
207	0x3cc20247	0.023682727
208	0x3d928d1b	0.0715582
209	0xbd70c48b	-0.058781188
210	0x3cabc114	0.02096609
211	0x3d72b510	0.059254706
212	0xbc7de583	-0.015496614
213	0x3d8f9202	0.07010271
214	0x3d3d4612	0.046209402
215	0xbd06db37	-0.032923903
216	0xbb262eca	-0.0025357478
217	0x3dc59136	0.096468374
218	0x3ca1daec	0.01975771
219	0x3d84d90c	0.06486711
220	0x3d7108e1	0.05884636
221	0x3c09327e	0.008373855
222	0x3d31113c	0.043229327
223	0x3d25f820	0.040519834
224	0x3c8d8918	0.017277285
225	0x3d370061	0.044678096
226	0xbb23c492	-0.0024988991
227	0xbc9bfdad	-0.01904186
228	0x3d27f7f9	0.04100797
229	0x3d2d53e0	0.042316318
230	0xbd8f3a00	-0.069934845
231	0xbce07550	-0.027399689
232	0x3d1025cf	0.035192307
233	0xbd93b22d	-0.07211719
234	0x3c83ef1e	0.01610523
235	0x3d1afad3	0.03783686
236	0xbd7d0471	-0.061771814
237	0x3d799000	0.060928345
238	0xbcac78d7	-0.021053715
239	0xbd4dff64	-0.050292388
240	0xbb5b076c	-0.0033421172
241	0x3bc11bf9	0.005893227
242	0xbd73ed43	-0.059552442
243	0x3ce240d0	0.027618796
244	0x3be1b291	0.006887742
245	0xbd8d3e06	-0.06896596
246	0x3b83fcf5	0.0040279576
247	0x3c0e9185	0.008701687
248	0xbd1ffd33	-0.03905983
249	0x3d57af99	0.052657697
250	0x3bde4ba9	0.0067839217
251	0xbc892cf9	-0.016745077
252	0xbc83c8a6	-0.016086888
253	0xbc53af8c	-0.012920272
254	0xbd8664d1	-0.06562198
255	0xbcbf4a61	-0.023350896

net.6.bias f4 [32]
0	0xba1d6adc	-0.0006004998
1	0x3c31ad99	0.010844612
2	0x3cba4114	0.02273611
3	0xbcc87efe	-0.024474617
4	0xbb1ab28c	-0.0023604957
5	0xbca88f94	-0.020576276
6	0xbcc3e2d2	-0.023911867
7	0x3cee7c87	0.029112114
8	0x3cc1e440	0.023668408
9	0x3cfe2aac	0.031026207
10	0xbcc94c2f	-0.02457246
11	0x3ce6be3e	0.028166886
12	0x3cee8f30	0.029121011
13	0x3cf89f06	0.030349266
14	0x3d130a2b	0.03589837
15	0xba633f5a	-0.0008668803
16	0xbc191aba	-0.009344751
17	0x3b35d25a	0.0027743788
18	0x3c85b580	0.016321898
19	0x3d281a06	0.041040443
20	0xbc3ddb7d	-0.011587975
21	0x3ba6340b	0.005072122
22	0xbbc63fe3	-0.0060500964
23	0x3c02f43a	0.007992798
24	0x3ca9a294	0.020707406
25	0xbceb083d	-0.028690452
26	0x3d0964fb	0.033543568
27	0x3cf8cd3f	0.030371306
28	0x3d07e614	0.033178404
29	0xbd09853e	-0.033574335
30	0x3d259460	0.040424705
31	0xbd12fa5d	-0.035883296

net.8.weight f4 [3, 32, 3, 3]
0	0xbdb05e05	-0.08611683
1	0xbb840c22	-0.0040297667
2	0xbd88eebc	-0.0668616
3	0xbd8d081f	-0.068863146
4	0x3d55f0f7	0.052231755
5	0xbd7fbc1f	-0.062435266
6	0xbdfbff60	-0.12304568
7	0x3d379100	0.044816017
8	0xbd58895b	-0.052865367
9	0xbd6f3ee1	-0.058409575
10	0xbc94b667	-0.018153382
11	0xbd648091	-0.055786673
12	0x3bfc0132	0.007690572
13	0x3d233a9b	0.039850812
14	0xbcaf4615	-0.021395722
15	0x3d3d9f27	0.046294358
16	0x3da0e70a	0.07856567
17	0xbc03bbac	-0.00804035
18	0xbc30b010	-0.010784164
19	0x3cd93793	0.026515758
20	0xbc4c2f8c	-0.012462508
21	0x3d228d6f	0.039685663
22	0x3d7dd8d6	0.06197437
23	0xbd2429f2	-0.040079065
24	0x3cf62486	0.030046713
25	0x3cb146a9	0.021640139
26	0xbd3d5307	-0.04622176
27	0xbd6eca2f	-0.058298286
28	0xbc964437	-0.018343074
29	0xbd1ad741	-0.03780294
30	0xbdcd313f	-0.100191586
31	0x3bfd51b0	0.007730685
32	0x3c223cca	0.009902189
33	0xbdbe37d3	-0.092879914
34	0xbce1cea1	-0.027564349
35	0x3d69ffd7	0.057128754
36	0x3cf80ae4	0.03027863
37	0x3d7303b4	0.059329703
38	0xbd7afec3	-0.061278116
39	0x3d6f7500	0.05846119
40	0x3a862efd	0.0010237392
41	0xbcf67795	-0.030086318
42	0x3c827b16	0.015927833
43	0xbd365575	-0.044515092
44	0xbd935821	-0.07194544
45	0xbd50f5ed	-0.051015783
46	0xbd3f1583	-0.046651375
47	0x3d0f7b9a	0.035029985
48	0xbc94f86e	-0.018184867
49	0xbd1dfd63	-0.038571727
50	0x3ca74540	0.020418763
51	0xbbff8cc5	-0.0077987635
52	0x3cfb0af1	0.030644866
53	0xbae0200c	-0.0017099394
54	0xbd23f10b	-0.0400248
55	0x3ca7aa9f	0.0204671
56	0x3bf16fcc	0.0073680636
57	0xbb3ed27b	-0.0029117155
58	0xbd2a24a4	-0.04153885
59	0xbd2ab6f1	-0.041678373
60	0x3d5d3c43	0.05401255
61	0x3d18a15f	0.03726327
62	0x3c973cb6	0.018461566
63	0x3cf2c53c	0.029635064
64	0x3c56be7f	0.013106941
65	0x3c9b7de5	0.01898093
66	0xbcfe218c	-0.031021856
67	0x3c972886	0.01845194
68	0xbd4d7741	-0.050162558
69	0xbd511f82	-0.05105544
70	0xbd4ad2e6	-0.049517535
71	0xbc1e32de	-0.009655682
72	0x3d0ae5fa	0.03391073
73	0x3c750f54	0.014957268
74	0xbcc5d9e1	-0.024151744
75	0xbb498c8f	-0.0030753945
76	0x3cf15415	0.029459039
77	0x3d0dc4f4	0.034611657
78	0xbce21157	-0.027596159
79	0xbd31b58c	-0.043386027
80	0xbd5a6cae	-0.0533263
81	0xbd8e2b4b	-0.06941851
82	0xbd6f4dd8	-0.058423847
83	0xbd66470a	-0.056220092
84	0xbcdde330	-0.02708587
85	0x3d27eda6	0.040998124
86	0xbc0dedcf	-0.008662655
87	0xbd2ccfd2	-0.04219038
88	0xbc8fc604	-0.017550476
89	0x393ef563	0.00018211226
90	0x3c836bef	0.016042678
91	0x3d5aa657	0.05338129
92	0xbc945839	-0.018108474
93	0x3d92c857	0.07167118
94	0x3d93377b	0.071883164
95	0xbca3fa4a	-0.020016808
96	0x3d33a27b	0.043856125
97	0x3bd7b4e0	0.0065828413
98	0x3c9597c0	0.018260837
99	0x3c5b6c48	0.0133925155
100	0x3cedeeab	0.02904447
101	0x3974982d	0.00023326343
102	0x3cf8399f	0.030300913
103	0x3c05837e	0.008149026
104	0x3cef15ed	0.02918526
105	0xbd3b8699	-0.04578266
106	0x3d74332d	0.059619118
107	0x3cbbf7eb	0.022945365
108	0xbd74d38b	-0.059772056
109	0xbce5dc8e	-0.02805927
110	0x3d9a8824	0.07545498
111	0xbcda5eb1	-0.02665648
112	0xbc05c5dc	-0.008164849
113	0xbc2ae457	-0.010430417
114	0x3d083bfb	0.033260327
115	0x3d93b5c6	0.07212405
116	0x3d47bb5a	0.048762657
117	0x3d6c2aa6	0.05765786
118	0xbcbab6ad	-0.022792185
119	0xbcaa5f66	-0.020797443
120	0x3d9326a2	0.07185103
121	0xbd09a159	-0.03360114
122	0x3ccb8a59	0.024846243
123	0xbc5befa7	-0.013423837
124	0xbc3e8469	-0.011628249
125	0x3d45a9d5	0.048257668
126	0x3cafe248	0.021470204
127	0xbd4eca64	-0.050485983
128	0x3c8fda66	0.017560195
129	0xbc103e58	-0.008803926
130	0x3d2e6ad3	0.042582344
131	0x3c711474	0.014714349
132	0xbcdc234f	-0.026872305
133	0xbd488783	-0.04895736
134	0x3d4725bd	0.048619974
135	0x3cae5090	0.02127865
136	0xbd0e8b75	-0.034800965
137	0x3d2425fb	0.040075283
138	0x3d168416	0.03674706
139	0x3c94b173	0.01815102
140	0x3d049339	0.032366965
141	0x3bd000b8	0.006347742
142	0x3c886c13	0.016653096
143	0xbace8e96	-0.0015759047
144	0x3cecdecc	0.028914832
145	0xbc158629	-0.009126225
146	0x3d8b4910	0.06801045
147	0xbd508d67	-0.0509161
148	0xbd226aa4	-0.03965248
149	0x3cdde993	0.027088916
150	0x3c85ad2e	0.01631793
151	0xbd30b404	-0.043140426
152	0x3d2ec3e5	0.04266729
153	0xbd70902b	-0.05873124
154	0xbd61fa39	-0.05517027
155	0xbc91c161	-0.017792406
156	0x3d0c8d17	0.03431424
157	0xbc805e68	-0.015670016
158	0x3d252925	0.04032244
159	0x38c53fd5	9.405582e-05
160	0xbbaf07a7	-0.0053414884
161	0x3d872d40	0.06600428
162	0x3d6740ed	0.056458402
163	0x3ccf187c	0.02528023
164	0xbc60d96e	-0.013723714
165	0x3d0e2d72	0.03471131
166	0xbb53dc30	-0.0032327287
167	0x3c6b30de	0.014354913
168	0x3ceef5a0	0.029169858
169	0x3d889091	0.06668199
170	0x3d7f8c06	0.062389396
171	0xbd2d05b0	-0.042241752
172	0x3d1fd142	0.039017923
173	0xbd542094	-0.05178888
174	0xbc92ceed	-0.017920936
175	0x3b266b11	0.0025393406
176	0x3c1e4f65	0.009662484
177	0x3cf45af6	0.02982853
178	0x3d3bb514	0.045826986
179	0xbc98ca93	-0.018651282
180	0x3caed58f	0.021342067
181	0x3a99f3aa	0.0011745591
182	0x3cf14c0a	0.029455204
183	0x3d4cf0d2	0.05003435
184	0x3bdc292d	0.0067187757
185	0xbd837bb7	-0.06420081
186	0x3caba733	0.02095375
187	0x3d88b1df	0.06674551
188	0xbd7f1bcb	-0.062282365
189	0x3d656c96	0.05601176
190	0x3d102f20	0.035201192
191	0x3c69fb29	0.014281073
192	0xba6b8512	-0.00089843676
193	0xbcb4df63	-0.022079175
194	0x3c183347	0.009289569
195	0x3c131ac4	0.008978549
196	0x3d336180	0.043794155
197	0x3cc37981	0.023861649
198	0xbd9eee78	-0.07760328
199	0xbd30c093	-0.043152403
200	0xbc553c77	-0.013014904
201	0x3cc603b0	0.02417168
202	0x3c50ae38	0.0127368495
203	0xbd235f37	-0.039885726
204	0xbd691fa3	-0.056914937
205	0x3bc054c8	0.0058694817
206	0xbd06f089	-0.032944236
207	0xbc94ea34	-0.018178083
208	0x3d25f565	0.04051723
209	0xbcec6c96	-0.028860372
210	0x3c3a0bb5	0.01135533
211	0xbd22fb53	-0.039790463
212	0xbd76c5e0	-0.060247302
213	0x3d2cceb0	0.0421893
214	0x3d18f8cb	0.037346642
215	0xbc012679	-0.007882708
216	0xbcef7e71	-0.029235097
217	0x3ae95e47	0.0017804586
218	0x3da69b67	0.081351094
219	0xbd1e8ac2	-0.03870655
220	0xbc501c6e	-0.012702091
221	0x3d0061af	0.03134316
222	0xbc2c6f97	-0.010524652
223	0xbd81c9d6	-0.06337325
224	0x3c0c0fc1	0.008548678
225	0x3d623b25	0.055232186
226	0x3d677aba	0.056513526
227	0x3b75216a	0.003740395
228	0xbce41317	-0.027841134
229	0xbcb7ee82	-0.022452597
230	0xbc1aa548	-0.00943882
231	0xbbe17521	-0.006880418
232	0xbd251677	-0.040304627
233	0xbd362d3a	-0.044476725
234	0xbd095999	-0.033532713
235	0xbd4d3f4e	-0.0501092
236	0x3d567328	0.052355915
237	0xbc0ced30	-0.008601472
238	0x3d7128cc	0.058876798
239	0x3d4bcbf2	0.049755044
240	0x3c6ffa6c	0.014647108
241	0x3d2ed61a	0.042684652
242	0x3d89bda8	0.06725627
243	0xbd8548d2	-0.0650803
244	0x3cca1991	0.024670394
245	0xbd327bfd	-0.043575276
246	0xbcfe1b99	-0.031019019
247	0xbd01f90d	-0.031731654
248	0xbcad807e	-0.021179434
249	0xbd0a11a2	-0.033708222
250	0xbd1913f4	-0.037372544
251	0x3c9fa55c	0.01948803
252	0xbc42e1d5	-0.011894663
253	0x3d9e0841	0.07716418
254	0xbb813e83	-0.0039442196
255	0xbcacd844	-0.021099217

net.8.bias f4 [3]
0	0x3c0effc9	0.008727976
1	0x3d079366	0.033099554
2	0x3d0f0aa5	0.03492226
