epoch_40.pth (torch, 384277 bytes, 10 tensors)

net.0.weight f4 [64, 3, 3, 3]
000000 d4 f2 fd 3d 8b 40 39 be 40 6c 41 bd 95 ba 0c 3e
       0.123998314 -0.18091027 -0.047222376 0.1374305
000010 ef d0 7b 3d 33 49 03 be b9 97 25 be 0a 10 a4 bd
       0.06147855 -0.12820892 -0.16171159 -0.08010872
000020 d3 ad 85 3a 07 41 36 3e cd 89 b0 bd 4b a5 1e 3d
       0.0010198898 0.17798243 -0.086200334 0.038731854
000030 38 ff 2e be ad 68 1b bd 6d 4f d2 bd 0e 30 10 3e
       -0.17089546 -0.037941623 -0.102690555 0.14080831
000040 36 18 47 3c 3f 25 ad bd ba b8 88 bd 30 aa 08 be
       0.012151768 -0.0845437 -0.06675859 -0.13346171
000050 13 02 a9 bc 21 9e 10 3e c0 87 0a bc 6b e7 7a bd
       -0.020630872 0.14122821 -0.008455217 -0.061255854
000060 11 73 29 3e dd 49 a6 3d 7a d5 db bc 5c 4c 3e 3d
       0.165478 0.08119557 -0.026835192 0.04645954
000070 fc aa c2 3b 1f 71 3c 3d 45 88 e8 3d a4 d0 f9 bd
       0.005940793 0.04600632 0.11354116 -0.12197998
000080 52 3c 0b be bc 02 15 be dc 9e 4a bc 9e 26 22 be
       -0.13597229 -0.14551824 -0.012366977 -0.15835044
000090 16 42 49 3e 8e 30 4d 3c f8 aa 96 3d ad 51 39 3e
       0.19654116 0.012523783 0.073568285 0.18097563
0000a0 91 72 ef bd e4 b2 25 3c 97 21 1d 3b 7d 4a 23 3e
       -0.11691774 0.010113452 0.002397632 0.15946384
0000b0 65 a6 ca bd 0e 84 0d be 66 b5 e3 3d e2 1b 8c 3d
       -0.098950185 -0.13819906 0.111185834 0.06841256
0000c0 73 3a b4 bc af 2b e2 bc b0 6b ac 3d e3 6e af bc
       -0.022000527 -0.02760872 0.08418977 -0.02141518
0000d0 53 6b 0a bd e8 85 e1 3d 0b 2c 82 3d be 3a 47 3e
       -0.03379376 0.11011869 0.06356057 0.19456002
0000e0 8e 43 c9 3c de ba bd bd 16 84 15 be a1 3c 2f be
       0.024568345 -0.09264158 -0.14601168 -0.17112972
0000f0 43 32 99 3d ef 67 d2 3d 28 12 77 bd 5b 2a b6 bd
       0.0748029 0.1027373 -0.06032005 -0.088947974
000100 f9 06 3d 3e dd cf 8b bd db 63 e7 3d bd b5 d5 bd
       0.18459691 -0.06826756 0.11298343 -0.104350545
000110 98 d7 1f be c6 ba 97 bd 74 9b 4e bd 2b bb f1 3d
       -0.15609586 -0.07408671 -0.05044122 0.118032776
000120 88 97 16 3e ae eb 19 3e 6e 2a 9c bd f7 66 50 3d
       0.14706242 0.15031311 -0.0762528 0.050879445
000130 6e 7b 06 be 47 2a cc bd b3 0c b8 3d 0c 58 24 be
       -0.13133022 -0.09969001 0.08986797 -0.16049212
000140 36 0f ba bc 1c 7e 36 3e 4f 2e a3 3c 5f 32 d9 3d
       -0.022712331 0.17821544 0.019919543 0.10605311
000150 9c df 31 3e 6e 85 81 bd 9b db 0d 3e 26 aa 30 3e
       0.17370456 -0.06324278 0.13853304 0.17252406
000160 db ab 94 3b 00 64 7e 3d b7 53 af 3d 77 5b d1 3d
       0.0045370883 0.062107086 0.08560889 0.10222524
000170 67 0a b2 bb fb b0 4c be 6e 5d 42 be df c2 09 3d
       -0.005433369 -0.19989388 -0.18980953 0.03363311
000180 38 17 0a 3e 34 ed 07 3d e5 a0 a0 3b 04 aa bf 3d
       0.1348542 0.0331852 0.0049019926 0.093586
000190 ea 0c 56 3d 0a 3c 38 be b9 fa 00 3d 7c d2 02 3d
       0.05225841 -0.17991653 0.031489108 0.031939015
0001a0 d6 5c ac 3d 3e 65 a7 bd a8 48 a0 3d 57 02 fb 3d
       0.084161445 -0.08173607 0.07826358 0.12256306
0001b0 c0 1b c7 3d a6 d5 b7 3d 6c 98 c7 bd 27 de ca bc
       0.0972209 0.08976297 -0.09745869 -0.024764134
0001c0 d6 cc ff bd 39 5b 30 be bf dd c7 bd 51 89 58 3e
       -0.12490241 -0.17222299 -0.097590916 0.21146132
0001d0 fd cb 1b be 81 69 95 3d f7 b6 d4 3d a0 c8 ca bc
       -0.15214534 0.07295514 0.1038646 -0.024753869
0001e0 5d 4f 11 3e 08 ea f1 bb 26 41 08 3e 5b e2 2a 3e
       0.14190431 -0.007382635 0.13306102 0.1668791
0001f0 15 a7 4c 3d d2 9a 83 bc 5b c4 04 3e b8 f0 b3 3d
       0.04996403 -0.016065035 0.12965529 0.08786148
000200 86 3c 2f be e7 ff 2f bd eb 25 0e 3e a9 6c 13 be
       -0.17112932 -0.042968657 0.13881652 -0.1439692
000210 45 7f 29 bd 79 7f 0e bd 09 f8 34 be f7 73 dc 3d
       -0.04138114 -0.034789536 -0.17672743 0.10764306
000220 12 88 28 3e 28 a1 cd bd 2d d4 42 3e a6 4b 0e be
       0.16458157 -0.10040504 0.19026251 -0.13896045
000230 af 53 41 bd b7 e8 f0 bb 35 af 38 3e 87 af 31 be
       -0.047198948 -0.0073519605 0.18035586 -0.17352115
000240 e0 93 d5 bd 67 4f 67 bc 36 91 12 3d fd 71 db 3c
       -0.104285955 -0.014118052 0.035783015 0.026787752
000250 03 7c 29 3e 93 a6 18 be 2d d9 a8 bd e4 6d 3d bd
       0.16551213 -0.14907293 -0.08244548 -0.046247378
000260 df 5a 1b be d0 23 e2 3d df d9 76 3c 66 f3 1d 3e
       -0.15171383 0.11041987 0.015066593 0.1542488
000270 0e 4b 0c be c1 49 e1 3d fc f1 08 3e e3 19 12 be
       -0.13700506 0.110003956 0.1337356 -0.14267687
000280 a4 26 5f 3d 68 64 e3 3d 37 63 d7 bd f1 74 23 be
       0.05448021 0.11103135 -0.105169706 -0.15962578
000290 11 a3 22 be 0e 49 cd bd 9b 7b 87 bd a0 a9 ba 3c
       -0.15882517 -0.100237 -0.06615373 0.022785962
0002a0 27 33 9b bd 6b 12 1f be 67 30 97 bd 96 fc 34 be
       -0.07578116 -0.1553437 -0.07382279 -0.17674479
0002b0 b4 1f 79 bc a1 5c 46 bd 9c d9 17 3e 09 5c 91 3c
       -0.0152053125 -0.04842818 0.14829105 0.017744081
0002c0 fc 4e 62 bd bc f8 31 3e 3c db bf bd fb 17 54 3e
       -0.055251107 0.17380041 -0.093679875 0.20712273
0002d0 9f 19 8f bd 37 92 9d bc 52 52 f1 3c ec 03 ca 3d
       -0.06987309 -0.01923476 0.029458199 0.09864029
0002e0 f5 96 35 bd c5 3d 63 3e 9f f5 c2 bc 18 33 ed bd
       -0.044333417 0.22191532 -0.023798762 -0.11582011
0002f0 ec b3 0e 3e 74 00 25 3e 33 1f 35 bd 47 49 ba bc
       0.13935822 0.16113454 -0.044219207 -0.02274002
000300 27 14 89 bd 61 e6 18 bd 12 42 47 bd eb 74 0c 3e
       -0.06693297 -0.03732908 -0.048646994 0.13716476
000310 9b 8f a3 bd 07 0e 15 be c3 07 00 3d 5f 85 e9 3d
       -0.07986375 -0.14556132 0.031257402 0.11402392
000320 68 ab d2 3d c2 75 50 bd c8 24 d2 bd 1a 70 1f 3e
       0.102865994 -0.050893553 -0.10260922 0.15570107
000330 8c 3c a9 bd 68 2a 1a be 4a 6e 41 3e d8 fb c0 bd
       -0.082635015 -0.15055239 0.18889728 -0.094230354
000340 81 07 38 3c f0 bd 06 3a d8 cb 16 3e 8e 81 b3 bd
       0.011232258 0.0005139997 0.14726198 -0.08764945
000350 a4 bc 7d bd 6a b2 a4 3d 73 fc f1 bd 1c 99 05 be
       -0.06194748 0.08041842 -0.11815729 -0.13046688
000360 48 c8 46 3d 1a 95 ca bd f1 88 da bd ec 25 01 be
       0.048530847 -0.0989172 -0.10670651 -0.12612122
000370 49 4c 43 be 7e 3f f9 3d 40 8d 43 bc 60 62 58 bc
       -0.19072069 0.12170313 -0.011935532 -0.013207048
000380 30 80 d1 bc 17 85 2a 3e 7c ad 67 3d 5e c3 96 3d
       -0.02557382 0.16652332 0.056561932 0.07361482
000390 12 d1 bc 3d f6 fd ea bd bf 7d c0 bd 79 6b d5 bd
       0.092195645 -0.114742205 -0.09398984 -0.104208894
0003a0 42 3e e5 3d ef bf da bd 90 e1 53 bc 60 3a fa bc
       0.11193515 -0.1068114 -0.012932196 -0.030545413
0003b0 90 7e 42 bc de 62 0b be 94 7e 36 3d ac 2e ca bd
       -0.011870995 -0.13611934 0.044554308 -0.09872183
0003c0 d0 48 04 be 14 fb 85 bd 30 8e 4e 3c 67 54 9a bd
       -0.12918401 -0.0654203 0.012607142 -0.0753563
0003d0 a7 1b b5 bd 49 eb 0e 3e 11 3e 3f bd 80 12 e3 3d
       -0.08843165 0.13956942 -0.04669005 0.11087513
0003e0 08 30 0e be ce 67 04 3e 2d 91 98 3d 4d f1 1d 3e
       -0.1388551 0.12930223 0.07449565 0.1542408
0003f0 64 fd 03 3d 95 32 f2 3d 80 6f 22 3e 5f 88 48 bd
       0.032224074 0.11826054 0.15862846 -0.04895818

net.0.bias f4 [64]
000000 3e 42 14 3e fa 3e 94 3c c4 91 ff 3d 32 fa 7b 3d
       0.14478394 0.018096436 0.124789745 0.0615179
000010 9f 53 9d bd 3f 87 d6 bd 82 07 b5 3d b1 8c 03 3e
       -0.07681965 -0.10475015 0.088393226 0.12846638
000020 9b 99 b2 bd c5 95 23 be d1 ec 1a be f3 33 ef bc
       -0.08720704 -0.15975101 -0.15129401 -0.029199576
000030 d2 61 bc 3d e0 1d 0c 3e ff d8 d7 3d e0 79 c1 bd
       0.09198345 0.13683271 0.105394356 -0.09447074
000040 5c e4 88 bd c1 b0 0d be b5 88 cf bd 95 72 ce 3d
       -0.06684181 -0.13836958 -0.10133497 0.100804485
000050 64 2c 20 be d0 72 fa bd 86 3b eb 3d f7 ad 80 bd
       -0.15641934 -0.1222893 0.114859626 -0.06283181
000060 e4 d8 15 3e 66 9e 9e 3c 28 23 05 bd 50 9a e5 3d
       0.14633518 0.01936264 -0.03250423 0.112110734
000070 ee 5e d5 bb d4 06 1c 3e b6 d6 be 3d 1c 12 05 3e
       -0.0065115606 0.1523698 0.093182966 0.1299519
000080 ea b9 11 3c d6 df 03 be 96 4c 5c bc e7 ba 8d 3d
       0.008894423 -0.12878355 -0.013445994 0.069204144
000090 e1 79 8c bd b3 79 8b ba b6 41 e5 3d a0 4d e0 bd
       -0.06859184 -0.0010641128 0.11194174 -0.10952306
0000a0 40 0e 0c 3e cf 03 07 be 28 63 df 3b 89 66 67 3d
       0.13677311 -0.13185047 0.0068172403 0.05649427
0000b0 75 d5 17 bc d2 ec 18 3e a2 32 cc 3d b8 a7 9d bc
       -0.009267201 0.1493409 0.09970595 -0.019245014
0000c0 ec e8 c9 bc 41 eb 3a 3e 5c cb 24 3e 4b 0b e3 bd
       -0.024647199 0.18253805 0.160932 -0.11086138
0000d0 51 26 06 bc 3a 4c f7 3c 82 46 bc 3d c2 79 05 3e
       -0.008187846 0.030187715 0.09193136 0.13034728
0000e0 4a 08 11 be 64 d9 1d be 9a 8f 2b 3c d9 09 94 bd
       -0.14163318 -0.15414959 0.010471249 -0.07228441
0000f0 fd 1d 09 bc f3 c1 5a 3d b0 70 6a 3c 30 b3 e9 bd
       -0.008368966 0.05340762 0.014309093 -0.114111304

net.2.weight f4 [64, 64, 3, 3]
000000 0d 68 c6 3c 95 98 8e 3c 1f 9b ad bc c4 25 0e bd
       0.024219537 0.017406741 -0.021192132 -0.034703985
000010 39 13 38 3b 3b c8 52 3c f7 6a 4e 3c 73 7c a2 3c
       0.002808763 0.0128651215 0.012598745 0.019834733
000020 16 fe 7c bc 65 3a 98 bc 89 f2 2b bd 0b 65 1f bd
       -0.015441438 -0.018582532 -0.041979346 -0.03891472
000030 0d 28 89 bc 95 5f 95 bc b4 ab 23 bc ee eb 55 bc
       -0.01674273 -0.018234054 -0.009989668 -0.013056738
000040 5f c4 25 bd f9 a7 1e 3d 05 b5 f3 bd 26 88 df bc
       -0.040470477 0.03873441 -0.11899761 -0.0272866
000050 b3 5f 86 bd af 0c 9f bd ad 86 2d bb 0b 78 ab bb
       -0.06561222 -0.07766091 -0.0026477978 -0.005232816
000060 eb 06 b2 bc 4a 88 c4 3c a9 b2 0a 3d a5 82 29 bd
       -0.021731814 0.023990769 0.03386179 -0.041384358
000070 9f 5b 94 3c 0a ed 8f 3a 24 75 da 3c aa b2 24 bd
       0.018110095 0.0010980677 0.026667185 -0.04020945
000080 3f 42 74 3c d5 34 c2 3c 4d 74 97 3b 13 bd 78 3c
       0.014908372 0.023706833 0.0046220184 0.015181798
000090 86 fa d3 bb d3 20 92 3d 7a 91 80 bc 09 60 81 3d
       -0.0064690737 0.07135167 -0.015694369 0.063171454
0000a0 3b b8 f3 3c 34 c8 fe 39 19 cc b5 3c 41 04 50 3d
       0.029750934 0.00048595818 0.022192048 0.050785307
0000b0 c5 db 0a bd d4 55 25 bb 45 41 e6 bc 88 43 07 bd
       -0.033900995 -0.002522816 -0.028107295 -0.033023387
0000c0 cf f0 65 bc 5b 06 9c bc ea cd c9 bc 53 de 2d 3d
       -0.014034464 -0.019046 -0.02463432 0.042448353
0000d0 90 00 8e 3d 14 45 15 3d 1a 07 9d 3d 6c 08 df bb
       0.06933701 0.03644283 0.0766737 -0.006806424
0000e0 fc 96 cc bb 29 5a 78 3d 04 d8 46 3d ef 9a 06 3d
       -0.0062435847 0.06063286 0.048545852 0.0328626
0000f0 5f b6 a6 3d f8 21 7b 3d fd 4a 7b 3b c4 3f 67 bd
       0.08140253 0.061311692 0.0038344257 -0.056457296
000100 37 71 cc bc 8c e8 29 bc 12 ce a2 bc 6b 1f aa bd
       -0.024956329 -0.010370385 -0.019873653 -0.08306774
000110 59 c8 67 bc c3 0b 2e 3c 48 60 c4 3b 4c 28 84 3c
       -0.014146888 0.010622921 0.005992923 0.016132496
000120 40 00 39 ba 6b 32 16 bd c6 35 a4 bc 06 56 a8 bc
       -0.0007057227 -0.036669176 -0.020045172 -0.020548832
000130 20 39 c8 bb d9 94 14 3d 83 7b 29 3d 74 15 02 bc
       -0.0061103255 0.036274765 0.041377556 -0.007939685
000140 e0 8e b7 3a d1 84 9a 3c 68 54 90 bb db 94 72 bd
       0.0014004372 0.01886216 -0.0044045933 -0.05922399
000150 8a 6f c3 bc d4 49 04 bd ea a3 a1 bc 15 d6 16 bd
       -0.023856897 -0.03229697 -0.01973148 -0.03682526
000160 5d 60 16 bd ae 99 e4 3b 8f 73 63 bc a2 dc a2 3b
       -0.036712993 0.006976328 -0.013882532 0.004970149
000170 ae 83 11 bd cd 41 af 3c bf ba 1d 3d 94 cf 15 bd
       -0.03552597 0.021393681 0.038508173 -0.036574915
000180 38 4a ce 3c e3 00 29 3d a8 94 c8 3c 74 9a 59 bc
       0.025181875 0.04126061 0.024484947 -0.013281453
000190 37 1f 61 bc be e1 18 3c 17 ed 4c 3d 24 89 a9 3c
       -0.013740352 0.009331165 0.050030794 0.020695277
0001a0 66 c5 84 3c 7a e7 54 3d a7 ae 05 3d 19 61 a4 bc
       0.016207408 0.051978566 0.032637265 -0.020065831
0001b0 02 61 1a 3b 61 ba d7 3c 21 4c d0 bc e0 c8 08 bd
       0.0023556356 0.02633399 -0.025426926 -0.033394694
0001c0 4e 35 27 bd 92 90 da bc de 7e ff 3c 89 03 1c 3d
       -0.04082232 -0.026680265 0.031188425 0.03808931
0001d0 28 a3 22 bb 99 de ee bc 79 12 b7 bc 19 9d ce 3b
       -0.0024816487 -0.029158877 -0.022347676 0.0063053486
0001e0 bc c2 37 3c 32 b7 9b 3b f6 bc a5 b8 77 3b 22 bd
       0.011215862 0.004752063 -7.90301e-05 -0.03960749
0001f0 6d 31 47 3c 38 fa b8 bc 03 42 9a 3c 1e 49 62 bd
       0.01215778 -0.022580251 0.018830305 -0.05524551
000200 ea f9 47 bc 50 f0 69 bd b7 bc f7 bc 0e 9d 95 bc
       -0.01220558 -0.057113945 -0.030241353 -0.018263366
000210 11 4b 89 bc 3b 27 e3 bc dd 63 14 3c 4b f3 87 3c
       -0.016759427 -0.027728667 0.009057012 0.016595503
000220 04 a0 14 bd 24 7a fe bc cf 80 7e bc e0 fe 14 3d
       -0.036285415 -0.0310641 -0.01553364 0.03637588
000230 86 0d e3 bc e9 a2 fa 3c 80 d3 ab ba 6a 62 36 3b
       -0.02771641 0.03059526 -0.0013109297 0.0027829655
000240 60 65 80 3c 9f 82 50 bd 88 7c 25 bd 3b a5 11 bd
       0.01567334 -0.05090582 -0.040401965 -0.035557967
000250 1e a1 b0 3b a0 67 87 bc 5c 4b 15 bc 1b 97 fd bb
       0.0053903004 -0.016528904 -0.009112205 -0.0077389604
000260 63 ce 1e 3d 20 d4 61 3c a6 d1 dd 3c b2 10 eb 3c
       0.038771044 0.013783485 0.027077507 0.028694484
000270 2b c1 04 bd 60 69 d7 ba 7c e0 0a bd f3 86 c5 bc
       -0.03241078 -0.0016434602 -0.03390549 -0.0241122
000280 80 31 a2 39 aa f6 c9 3c 6d 5c 88 3c 49 5c 15 3d
       0.00030935928 0.024653751 0.016645635 0.036464963
000290 ff ff 1d bc 81 b7 5a 3c 5c 3e 23 3c e8 4c 18 3d
       -0.009643554 0.013349415 0.009963598 0.03718272
0002a0 a3 9e 52 3c 31 a3 fe 3c 81 eb 9f bc 7a 18 be bb
       0.012855205 0.031083675 -0.019521477 -0.0058012577
0002b0 10 21 77 bb dd e0 25 bd 98 b3 b8 bc de 5e fe bc
       -0.0037708916 -0.04049765 -0.022546574 -0.031051096
0002c0 69 8d 3e bd 59 dc 1d 3d 50 90 0a bd 0d 16 89 3c
       -0.046521578 0.038540218 -0.033829033 0.016734147
0002d0 54 a7 60 bd 9d ef 91 bd 89 b8 86 bd e0 69 37 bd
       -0.054847077 -0.07125781 -0.06578166 -0.044778705
0002e0 94 9d 5f 3b 5c aa 14 bc 04 9a a2 3c 0a bc 01 3c
       0.0034121023 -0.00907382 0.019848831 0.007918367
0002f0 47 f5 ab 3c 1a 29 41 3d f8 18 0e bb e7 45 4d 3d
       0.02099098 0.047158338 -0.0021682363 0.050115492
000300 5b 01 74 bc 29 c0 7b 3d f4 11 cc bc 2a a5 fb 3b
       -0.014892901 0.061462555 -0.024910904 0.007679601
000310 a6 fd 6d bc 7f f8 27 3c 57 ed 16 3d 66 2f 82 3b
       -0.0145258065 0.010252117 0.03684744 0.0039729355
000320 69 03 d8 ba b4 f9 99 3b 26 9a 2a bc 91 b6 84 bc
       -0.0016480508 0.0046989564 -0.010412728 -0.016200336
000330 b0 92 35 bc c4 ca 7e 3c 74 e4 26 bd a1 d2 ae bc
       -0.011082336 0.015551273 -0.040745214 -0.02134067
000340 3a 95 13 3d aa 49 aa 3c 4e 86 7f 3c ce ad 75 ba
       0.036030985 0.020787079 0.015595986 -0.0009371907
000350 12 16 78 bc d6 9e 55 3d aa a5 5d 3d 88 d4 2e 3d
       -0.015141981 0.05215343 0.054113068 0.042683154
000360 42 67 0e bd 5b 35 19 bd e4 a2 3e bc a6 0b 0b bd
       -0.034766443 -0.0374044 -0.011635516 -0.033946656
000370 6a 66 03 3c b6 b3 f9 3b 4b f8 13 bd 11 01 b4 bc
       0.008020023 0.0076203 -0.036125463 -0.021973165
000380 1c 28 04 bd df 46 54 3c 1b 36 10 bd ac c1 0a 3d
       -0.032264814 0.01295635 -0.03520785 0.033876106
000390 1a c9 7b 3c 51 c4 7c bc 96 3f 3c 3a 76 7e 14 3c
       0.015367771 -0.015427665 0.0007181106 0.009063354
0003a0 bb db 15 bd 85 ed 36 bc 85 04 66 3c c3 cd 88 bc
       -0.036586504 -0.0111650275 0.0140391635 -0.016699677
0003b0 d7 f9 08 3d 1c e7 c9 3c 7e 5b 09 3c d7 80 e2 ba
       0.03344139 0.024646334 0.00838363 -0.0017280829
0003c0 ff d2 54 bc 9c 71 45 3d ff 3a 73 3d 3d b5 00 3d
       -0.0129897585 0.04820405 0.059382435 0.031422842
0003d0 9d 0e 8f 3c ba 56 32 3d 9b e5 9b 3d 8b aa 5f 3d
       0.017463023 0.04353974 0.07612153 0.054606
0003e0 6c 69 46 3c 52 fb ab 3c 3f a9 49 3d a1 97 a2 bc
       0.0121100955 0.020993862 0.04923367 -0.019847693
0003f0 27 46 ef 3c c2 0d ef bc 1f f8 93 bc 8e 90 45 bc
       0.029208256 -0.029181365 -0.01806265 -0.01205839

net.2.bias f4 [64]
000000 a3 17 eb bc 9b da 43 bd 43 20 dd bc 2a 37 d9 bc
       -0.028697794 -0.0478159 -0.026992923 -0.026515562
000010 8f 7e 24 3c e5 b7 01 3d b1 08 f1 3c 9e d5 e7 bc
       0.01003994 0.031669516 0.02942309 -0.028300103
000020 12 c7 ac 3b 5b 1e c2 3b 85 16 9b 3b b7 a1 06 3b
       0.0052727545 0.005924029 0.004732909 0.0020543167
000030 36 9f 04 3d 00 12 10 bd 14 d5 ae 3b 9b cb 7f bc
       0.032378398 -0.035173416 0.0053354595 -0.015612508
000040 55 fb 96 3a fa b6 c9 3c c7 a9 d5 bc fa e7 0d bd
       0.0011518995 0.024623383 -0.026081933 -0.03464506
000050 af ac 38 3b 26 4e a6 3c 70 19 1b bd ac d2 19 3d
       0.00281791 0.020300936 -0.037866056 0.037554428
000060 09 58 2e bc ca 63 90 bc 23 d9 83 3c 12 5d b4 3c
       -0.010641106 -0.017625708 0.01609475 0.022017036
000070 3f 48 11 3d ad 7a aa bc a2 c6 10 3d 66 82 8f bc
       0.03546929 -0.02081045 0.03534568 -0.017518234
000080 dc 93 4f bc 02 b2 64 bb 27 bc 51 3b 3a 73 cf 3b
       -0.01266953 -0.003489614 0.0032003017 0.0063308747
000090 b6 de f1 bc e4 96 a2 bb 9d c2 0c 3d 82 80 36 3c
       -0.029525142 -0.004961835 0.034365285 0.011139037
0000a0 ce 4f fd 3c c5 4b 19 3d 8a 2d 21 bd 8d 2e 8e ba
       0.030921843 0.037425775 -0.03935007 -0.0010847613
0000b0 fa cf ed bc 22 b0 0e 3d 5a c3 16 3d a0 69 05 bd
       -0.029029835 0.034835942 0.036807396 -0.032571435
0000c0 a9 6e 09 3d 87 56 c8 bc a0 42 90 3c 67 17 8d bc
       0.0335528 -0.024455322 0.017609894 -0.017223073
0000d0 de 74 dc 3c 4c fe 76 bc 17 99 cf 3b da a5 21 3d
       0.026911195 -0.015075278 0.0063353884 0.03946481
0000e0 fe cc d2 bc 0c ef a7 3c 1c 21 16 3d 88 9b 04 3d
       -0.025732514 0.020499729 0.03665267 0.03237489
0000f0 82 26 b0 ba 94 6a d7 3c ad 84 1c bd a8 64 1c bc
       -0.0013439211 0.026295938 -0.038212467 -0.009545483

net.4.weight f4 [64, 64, 3, 3]
000000 cc 51 3d 3a fb 90 0c 3d 3f e7 5f 3c 2c ed 10 3c
       0.00072219665 0.03431795 0.013665973 0.008845609
000010 1e a5 76 3c ce b4 dd bc 2a ee 09 3d fd b6 34 3d
       0.015054015 -0.027063753 0.033674397 0.044119824
000020 95 84 e4 bc c1 15 80 bb e1 25 9f bc 2b dc 64 bc
       -0.027895251 -0.0039088433 -0.019427242 -0.013968508
000030 d1 ba e2 3a 5f f9 e3 3c eb 8b e4 3c 7f 32 5a bb
       0.0017298107 0.02782887 0.02789875 -0.0033294258
000040 d8 2a c1 bc 4a 0c b4 bc 9e 7b f2 3c 58 3d f0 3c
       -0.02358 -0.021978516 0.02959996 0.029326126
000050 00 be ad bc ca ec f4 3c f0 d3 5e bc 79 38 8c bb
       -0.021208763 0.029898066 -0.0136003345 -0.004279193
000060 36 65 8d 3c f8 67 17 3c cb 6e 7f bc 46 39 f5 3c
       0.017260175 0.009241097 -0.01559038 0.029934537
000070 ac f6 a9 bc cb ab 31 bc 2e c0 ba bc 46 7c b7 3c
       -0.020747505 -0.010844181 -0.022796717 0.022398125
000080 ff 8f 0a bd e6 26 5a bc 88 89 e4 3b 40 5b 59 3a
       -0.03382873 -0.013314938 0.006974403 0.00082914904
000090 03 d9 ed 3c 33 e6 e8 3b 28 8d 8c 3b 38 d4 13 3d
       0.029034143 0.00710752 0.004289288 0.03609106
0000a0 fa ac 21 bd dc 98 46 bc d4 34 e4 3a 86 46 0b 3d
       -0.039471604 -0.012121405 0.0017410764 0.034002803
0000b0 f2 44 4a bc e8 7f 35 3c 72 01 93 bc eb df 81 3d
       -0.012345539 0.0110778585 -0.017945025 0.06341537
0000c0 bb 76 12 bd 26 57 66 3b d9 7e a2 3c 1a 18 c0 bc
       -0.03575776 0.003514716 0.019835876 -0.023448993
0000d0 41 78 1f bc 74 64 0b 3d bb 51 31 b9 a0 85 a8 3c
       -0.009733261 0.034031346 -0.00016910482 0.02057153
0000e0 47 e4 c8 bc c0 bb 11 3d e3 ce 20 3d fa 5a 84 3d
       -0.024522914 0.035579443 0.039259803 0.06462665
0000f0 15 5e 43 bb fe 74 1d 3b a3 fb 54 3d ab 9c 0b 3d
       -0.0029810716 0.0024026032 0.051997792 0.034084957
000100 12 72 65 3d de 63 f6 3c 4a b9 b5 3c e4 70 a9 3d
       0.05601699 0.030076917 0.02218308 0.08273485
000110 b8 7a c5 3c 50 1f 94 3d 44 bd 65 3d 84 37 58 3d
       0.024106368 0.07232535 0.0560887 0.05278732
000120 94 37 59 b9 50 90 41 3c b2 bb 36 bc 3e aa 3f bd
       -0.00020715437 0.011814192 -0.0111531485 -0.046793215
000130 58 e3 92 3c 40 ea dd 3c 6c 03 b7 3c bb a6 c4 3c
       0.017930672 0.027089238 0.022340499 0.024005285
000140 7f 94 81 bc 19 ed 1d 3d f0 0c 31 3d 51 fe 98 3c
       -0.015817879 0.038556192 0.04322523 0.018675955
000150 00 29 7e bb c6 f3 27 3d 2f 67 55 3d cd 16 f8 bb
       -0.0038781762 0.041003965 0.052100357 -0.0075710774
000160 13 bf ea bc b6 e0 e2 3c b4 64 4e 3d 53 21 0c 3d
       -0.028655564 0.027695041 0.050389007 0.034211468
000170 0e 48 4a 3a aa 32 93 bc cc 67 a6 3c ea 07 35 bc
       0.00077164255 -0.017968494 0.020313166 -0.01104925
000180 af 5b 31 3c 93 55 c9 bb ae f3 a3 3c a0 c3 bd 3b
       0.010825082 -0.0061442344 0.020013656 0.0057911426
000190 82 47 a8 3c c7 05 78 bc 14 29 f5 bc 4f c5 2f 3b
       0.02054191 -0.015138096 -0.029926814 0.0026820486
0001a0 b2 fd 01 3d 09 b2 c9 bc 00 a2 9d bc 3f a6 71 bd
       0.031736083 -0.024621027 -0.019242287 -0.058996435
0001b0 8d 60 bd 3c ba 1f d8 bc 76 46 bc 3c 62 b6 cb 3c
       0.023117328 -0.026382316 0.022982817 0.02486724
0001c0 78 df f5 bb e2 3e 05 bd 03 28 e7 3c b4 49 9f bc
       -0.007503446 -0.032530673 0.028217321 -0.019444324
0001d0 0c 33 93 3b 14 9c 91 3c db 05 b5 bc 25 b0 a1 bc
       0.0044921692 0.01777462 -0.022097519 -0.019737313
0001e0 f9 36 01 bc 1d e3 c3 bc bc 13 23 bd a7 26 7b bc
       -0.007886642 -0.023912007 -0.039813742 -0.01532904
0001f0 22 24 a4 3c 60 be ae 3b 13 1d b1 bc 09 85 02 bd
       0.02003676 0.005332753 -0.021620309 -0.031865153
000200 66 dc 88 bb 03 88 a6 3c 9f 71 da 3c b0 70 d7 bc
       -0.004176664 0.020328527 0.026665507 -0.02629885
000210 54 61 10 bc 47 d9 8f bb cf 67 a7 bc 92 90 db 3b
       -0.008812267 -0.004389915 -0.020435242 0.0067005837
000220 a0 61 3b 3c 01 6c a7 bb 9c 66 41 bc 3e 43 ed 3a
       0.01143685 -0.0051093106 -0.011804249 0.0018101705
000230 e3 e5 c4 3c 9d 2d d4 bc 78 49 7a 3c 9f c7 24 3d
       0.0240354 -0.025900656 0.015276305 0.040229436
000240 65 97 78 3d 9c 36 5b 3d d4 66 3a 3d e2 82 b6 3d
       0.060691256 0.053518876 0.04550822 0.08911683
000250 d3 63 93 3b a3 73 a3 3d ec 1d 8e 3c a3 82 35 3d
       0.004497984 0.0798104 0.017348252 0.044314038
000260 f0 a5 90 3d 6a 9b 04 3d 44 83 e9 3c 9b e8 05 3d
       0.070629 0.032374777 0.028504975 0.032692533
000270 e0 2c 3d 3c 9a 23 c7 3c 69 a3 3f 3d 45 f0 2b 3c
       0.011546344 0.024308968 0.0467867 0.010494296
000280 f3 21 5d bc ad d0 d3 3c bf 03 e7 bc 90 ea 33 3c
       -0.013496864 0.02585634 -0.028200028 0.010981217
000290 fa aa b1 bc 12 2e a7 3b 39 9e 05 3b 4a cb a3 bb
       -0.021687973 0.0051019276 0.0020388498 -0.004998599
0002a0 75 a3 14 bc e4 69 82 bc 64 70 b6 bc d4 1b bf bc
       -0.009072174 -0.015919633 -0.022270389 -0.0233287
0002b0 f1 32 db 3c c3 52 14 bd 3e 56 01 3d 94 55 13 bd
       0.02675769 -0.03621174 0.031576388 -0.035970286
0002c0 d7 12 e0 bc 38 7b 66 bb 9c 64 ee bc f6 9a ce 3c
       -0.027352734 -0.003516866 -0.029100709 0.025220376
0002d0 56 ab 26 bd 41 b5 a5 3c 2d c1 22 bd fd a2 30 3d
       -0.040690742 0.02022803 -0.039735008 0.043124188
0002e0 42 f8 a5 3d 50 50 8d 3c ed 89 8a 3b 31 eb 8b 3d
       0.08103992 0.01725021 0.004227868 0.068319686
0002f0 1e 68 2f 3d 4f 3b 73 3b 85 63 1d 3d 38 b5 6e 3d
       0.042823903 0.0037114208 0.038424987 0.058278292
000300 60 fe 08 bd d6 e7 00 bd e1 6a 5e 3d c6 ad fe bc
       -0.033445716 -0.031471096 0.054301146 -0.031088721
000310 84 c7 fd 3c 49 2b fa 3c 2e 69 32 3d a1 02 54 bc
       0.030978926 0.030538218 0.04355734 -0.01294008
000320 2d 6b c0 bd 20 ae 78 bc 34 48 5f 3c 67 ac 9b bc
       -0.09395442 -0.015178233 0.013628054 -0.019003106
000330 17 ee b2 3b 00 7d e4 3c 36 c2 d7 bb e0 f7 d6 3c
       0.0054605114 0.027891636 -0.006584431 0.026241243
000340 7f f9 c4 3c 9c 97 cf 3c bc 1b c3 3c 25 08 c1 3c
       0.02404475 0.025340848 0.023816936 0.023563454
000350 57 89 bb 3b 7b f8 0b bc 2f 92 2f 3c d3 01 88 bc
       0.0057231593 -0.008543129 0.010716005 -0.016602432
000360 4b b4 f1 bc 5f 50 85 3c 03 8c 50 3d 01 c5 bc bc
       -0.029504916 0.016273675 0.050914776 -0.023043158
000370 8c 43 23 3d 72 d4 16 3d e1 3f df 3c c5 d4 84 3c
       0.03985934 0.036823697 0.02725214 0.016214738
000380 0a 1c e0 3c 77 08 27 bd af 15 e6 3c a6 0d 27 3c
       0.02735712 -0.040779557 0.028086511 0.010196125
000390 24 4f 22 bd d8 ec cf bc 9b 45 1b bc 5a 28 1a bc
       -0.039626256 -0.02538149 -0.009477044 -0.009409035
0003a0 53 6c b2 bb 46 cb 3b bc 38 9c fc bc dc 4f 16 bd
       -0.005445042 -0.011462038 -0.03083621 -0.036697254
0003b0 05 ef 8f bb 9a 0a b1 3c ba b2 a4 3c 6a f4 bb bc
       -0.004392507 0.0216115 0.020104755 -0.022943694
0003c0 d8 f2 b5 bc 1b 8e 43 bc ec f6 cd 3c 4a 1e 11 bb
       -0.022210523 -0.011935736 0.025142156 -0.0022143298
0003d0 4d 7f 92 3d d2 70 82 3d b9 93 b3 bb e3 b6 5b 3d
       0.07153187 0.06369175 -0.0054802564 0.05364121
0003e0 12 d0 6a 3d 94 0f fe bc fb 09 1f 3d 07 c4 c1 3c
       0.057327338 -0.031013288 0.038827877 0.023653043
0003f0 e1 ff f6 ba f1 8a 63 3c fb 22 c9 bc da b9 02 bd
       -0.0018844568 0.013888107 -0.024552813 -0.031915523

net.4.bias f4 [64]
000000 0e 73 63 bc 4a b9 95 bc 7e 3a e8 bc 8d 15 83 bc
       -0.013882412 -0.01827683 -0.028348204 -0.016001487
000010 54 20 a1 3c d2 c5 9d bc 23 bf 65 bc cd 68 2f 3d
       0.019668736 -0.019259367 -0.014022621 0.042824555
000020 17 88 d1 3c da 6a 0f bd 1c 07 15 bd 1e b4 c3 bb
       0.025577588 -0.03501401 -0.036383733 -0.0059723994
000030 5d c6 4a bc 84 ff ee bc b6 e0 94 3c 21 cd 06 3d
       -0.012376395 -0.029174574 0.018173557 0.03291047
000040 da 6f d0 3c 2b 00 d7 bc bc a3 0b 3d 58 07 16 3d
       0.02544396 -0.026245197 0.034091696 0.036628097
000050 e1 a3 91 3c 98 d6 eb bc 6e bf 0e 3d fa a6 e9 3c
       0.017778339 -0.02878885 0.03485053 0.028522003
000060 8f 8e 03 bd b5 ca d2 bc 16 09 28 bd 53 b7 0a bd
       -0.032118376 -0.025731424 -0.04102429 -0.033866238
000070 2f d0 58 3b 6e fd c1 3b ca 07 1f 3b 55 3d 1d bd
       0.0033083071 0.0059201038 0.0024266117 -0.03838857
000080 8d 1f 49 3c 0a c5 2f bd a9 e0 ec 3c 67 64 ad 3b
       0.012275589 -0.04291252 0.02891572 0.00529151
000090 41 5d b7 bc 9e ae bd 3c 7b 2a 30 bc 76 23 17 3d
       -0.022383334 0.023154553 -0.010752316 0.036899053
0000a0 fc 3a bd bc 86 ee 9b bc 79 f6 99 bb 12 4c cb bc
       -0.023099415 -0.019034635 -0.0046985713 -0.024816547
0000b0 d8 4b d2 bb 6d db 9a 3c 3f 7d 33 bd c0 40 48 bd
       -0.0064177327 0.018903458 -0.043820616 -0.048889875
0000c0 6e 56 75 3c dc 0f d4 3c a2 e2 07 3d 1f 2f 79 bc
       0.01497422 0.025886469 0.03317512 -0.015208988
0000d0 6d a1 c7 bc b7 05 10 bd da 55 9d 3c 09 71 e7 3c
       -0.024368966 -0.0351617 0.019205976 0.028252142
0000e0 65 e0 65 bb c7 ce 93 3c ec 3a ce 3c 6f b1 8c 3c
       -0.0035076377 0.018042935 0.02517458 0.01717445
0000f0 f8 98 f6 3a 8d b6 28 3d fb 58 f0 bc d8 b4 9f 3c
       0.0018813899 0.04118972 -0.029339304 0.019495413

net.6.weight f4 [32, 64, 3, 3]
000000 a2 bc 68 39 5e 7f c6 bb ba b3 2e 3d 9d b0 23 bd
       0.00022195515 -0.006057664 0.04265187 -0.039963353
000010 ea 36 96 bc ca 01 b1 3c 86 95 82 bd 4d a8 91 bc
       -0.018336732 0.021607298 -0.063761756 -0.017780447
000020 38 c0 73 bb 50 6c ca ba 8b d3 25 3c 10 bd 7c bd
       -0.0037193429 -0.0015443657 0.010121237 -0.06170374
000030 e2 c4 ad 3a 2f be 42 3b 02 3f ce bc f8 b9 50 bc
       0.0013257528 0.002971541 -0.025176529 -0.012739651
000040 c0 de 0f bc ab 98 04 bd 3b 64 79 bc 79 2c 6a bc
       -0.008781135 -0.032372158 -0.015221651 -0.01429283
000050 1c cb ab bd 64 ad a5 3c 08 9a 24 3d 95 91 84 bd
       -0.083883494 0.02022428 0.04018596 -0.0647308
000060 27 b6 0c 3c 1b ce 83 bc 34 56 b8 bd d3 52 01 bd
       0.00858835 -0.01608949 -0.09000817 -0.031573128
000070 30 3e 46 bc 3b 0c c2 bc d7 11 98 3c d8 4a 13 bc
       -0.012099788 -0.023687473 0.018563194 -0.008990012
000080 be 90 22 bd 6a 83 5a bc b5 b0 fc bb 6b 7a a9 3b
       -0.03968882 -0.013336996 -0.007711495 0.005172064
000090 a8 16 a4 bb 10 94 42 3d 5a f2 b1 3d dc f5 4e 3d
       -0.0050075836 0.047504485 0.08688803 0.05052744
0000a0 58 c0 64 3d 60 4f db 3d 30 15 8c 3d 89 96 cb 3d
       0.055847496 0.10708499 0.06839979 0.09940822
0000b0 a2 62 a7 3d b5 3e 56 3d ca fb a6 3c ef cf 3b bd
       0.081731096 0.052305896 0.020383734 -0.045852598
0000c0 6c a6 1f ba 30 ea 44 bc 12 49 6a bd ec fe 8e ba
       -0.00060901674 -0.012018725 -0.05719859 -0.0010909713
0000d0 05 68 0d 3d d1 b9 a3 bd 21 c2 25 bc 0d 81 61 3b
       0.03452303 -0.07994426 -0.010117085 0.0034409196
0000e0 31 0b 54 3d 44 58 4f bc 94 a5 2c 3d 07 96 72 3d
       0.051768485 -0.0126553215 0.042150095 0.05922511
0000f0 e6 f5 1b bd 61 51 9f 3c 3d 60 be 3c eb d5 ed 3b
       -0.038076304 0.019447984 0.02323925 0.007258167
000100 71 b8 6f 3c 5f e9 0f bd d6 c8 d2 3c 1c 5f c0 ba
       0.014631377 -0.03513467 0.025730532 -0.0014676782
000110 77 1a 0f bd 64 7e ac 3c 34 c3 db bc 44 20 0e bd
       -0.03493735 0.021056361 -0.026826479 -0.03469874
000120 60 89 1d 3d cf 5e 02 bc 3d 48 2c bd bf f3 59 3c
       0.03846109 -0.007957174 -0.04206108 0.0133027425
000130 c3 95 f0 ba 1a 03 89 b7 e1 59 a7 3d 6e ce 3b 3a
       -0.0018355179 -1.6333117e-05 0.0817144 0.00071642443
000140 0b f7 77 bc c5 18 6c 3d dc 1d 8b 3d a3 f3 6f bb
       -0.015134583 0.05764081 0.067928046 -0.0036613725
000150 7d f8 37 3d c7 85 4e 3d eb cc cc bc a8 7d 31 3c
       0.04491471 0.05042055 -0.025000056 0.010833181
000160 48 e7 a0 3c b4 1f 02 bd cb a8 60 3d 33 64 36 3d
       0.019641533 -0.031768516 0.054848474 0.04452915
000170 ed fa 4e bd 42 2c 36 3c ac 55 8c 3d 9b 45 66 bd
       -0.05053227 0.01111895 0.06852278 -0.056218725
000180 5f b1 9c 3d b0 34 88 3d 93 6c c4 bc 70 d3 5d 3d
       0.07651018 0.06650674 -0.023977553 0.05415672
000190 15 de 7a 3c a5 80 90 bc d5 7f 45 3c 59 0d 2f bb
       0.015311738 -0.017639467 0.012054403 -0.0026710837
0001a0 bf a5 09 bd 10 7c ac 3c b5 25 27 bc b3 96 b1 bd
       -0.033605333 0.021055251 -0.010201861 -0.08671322
0001b0 f6 f2 17 3d 77 88 6a 3d a1 d7 e9 bc 54 8a 94 3d
       0.03709694 0.05725905 -0.028545203 0.072529465
0001c0 94 53 4b 3d 37 2b 25 bd cc 32 43 3c 4c 8e 21 3d
       0.049640253 -0.040324416 0.011913966 0.039442345
0001d0 b6 22 2c 3c db 04 94 3d 77 8e ee bc 75 93 0e bd
       0.010506323 0.072274886 -0.029120667 -0.034808595
0001e0 43 32 65 bb 85 c7 ad 3c 0f 07 a8 bd c4 f5 83 3d
       -0.0034972585 0.021213302 -0.08204471 0.064433604
0001f0 b8 82 41 3b da 05 95 bd 7a 99 5f 3d 63 42 12 3d
       0.0029527377 -0.07276507 0.054589726 0.035707843
000200 41 54 c4 bc 0b 79 68 3d 2a f4 2b 3d 52 fa 40 bc
       -0.023965957 0.05675606 0.0419809 -0.011778431
000210 4b 7c f3 3c b9 5c b8 bb b7 8b cb bb ba d0 4c bc
       0.029722353 -0.005626288 -0.0062117237 -0.012500936
000220 cd 4b ae 3c 29 21 54 bd 11 5f 06 3d af 17 46 3b
       0.021276379 -0.051789436 0.032805506 0.003022652
000230 3b 71 e2 bc e7 eb b8 bc 72 00 ba bc df 59 b8 bc
       -0.027641883 -0.022573425 -0.02270529 -0.022503791
000240 0c 1d d9 ba 10 95 10 bd 2a 1e 95 bd 2d a3 fe bc
       -0.0016564443 -0.035298407 -0.07281144 -0.031083668
000250 d4 6d e9 bc 31 f7 e1 bd 19 b0 a1 3c b4 d7 ee 3c
       -0.028494753 -0.11033476 0.01973729 0.02915559
000260 75 ec cd bd 40 6c 0e 3d b5 b6 bc bc a9 04 03 bd
       -0.10054866 0.034771204 -0.02303634 -0.031986866
000270 8e 1d bc 3a de 78 8c bc 23 e5 c4 bd fc 08 8d 3c
       0.001435207 -0.017147478 -0.09614017 0.017216198
000280 da 9a 7b bd 80 20 91 bd 78 6b 6a 3d 9b 0e 1e bc
       -0.061426975 -0.07086277 0.057231396 -0.009647037
000290 03 f1 39 bc b3 b8 12 bc 9a c7 78 bc 0a e9 a6 bd
       -0.011348966 -0.008955169 -0.0151843075 -0.081499174
0002a0 95 11 11 3d 9b e9 41 3d 19 8f 80 bd d6 74 f3 3c
       0.03541716 0.047341924 -0.06277294 0.029718798
0002b0 e9 c1 b3 bc a5 52 92 bd f2 93 f9 bc f8 b6 f0 bc
       -0.02194305 -0.071446694 -0.030466054 -0.029384121
0002c0 cf 0d 5b bd 34 b9 4a 3d 86 db f3 3c 34 6f 9d bd
       -0.053479966 0.04949303 0.029767763 -0.07687226
0002d0 54 a9 c4 3c 82 f0 82 bc e1 31 ab bd 82 e0 6a bb
       0.024006523 -0.015983824 -0.08359123 -0.0035839383
0002e0 57 7c 0a bc ed 82 24 bd 74 3b 85 3c ec 76 36 3d
       -0.0084524965 -0.040163923 0.016263701 0.044547006
0002f0 3d b6 95 bc 79 67 3f bd 4f 34 a4 bc 23 9c 35 bb
       -0.018275375 -0.04672954 -0.020044474 -0.0027711473
000300 22 0b 4a 3d 79 84 02 3d 13 60 5b 3d d9 74 cf 3c
       0.049327023 0.031864617 0.05355842 0.025324272
000310 fa af dc 3b 6e ae 07 3d f3 4a b8 3c 40 59 a5 3c
       0.006734845 0.033125333 0.022496676 0.02018416
000320 89 54 4a 3a 29 da 2f 3d 40 4b 6b 3c f8 4f 08 bb
       0.0007718285 0.042932663 0.014361203 -0.0020799618
000330 20 f1 57 3d 24 9e 43 3a 0a d9 63 bd 12 56 c5 3c
       0.05272019 0.00074622245 -0.055626906 0.024088893
000340 50 52 94 3d 9a cf 63 bd da 84 a5 3c 42 78 73 3d
       0.07242262 -0.055617906 0.02020495 0.05944086
000350 e7 9d 4e bc 97 92 90 3d 00 c3 45 3d be 39 e4 bc
       -0.012610889 0.0705921 0.04828167 -0.027859565
000360 08 6e dc bb a5 68 b6 3d 93 c0 0d 3c d9 47 85 3d
       -0.006726984 0.08906678 0.00865187 0.065078445
000370 88 79 66 3d bc 24 7c 3b 6f ee 35 3d 07 df 24 3d
       0.056268245 0.0038474044 0.04441684 0.040251758
000380 c6 3d 8e 3c d0 9f 3a 3d 1b 37 9c b9 5b 64 7e bc
       0.01736344 0.045562565 -0.00029795695 -0.015526856
000390 b2 3b 22 3d e9 6d 2a 3d 70 e1 8e bd 54 6b f6 bc
       0.03960771 0.041608725 -0.069765925 -0.030080475
0003a0 6e 4a 09 3d 80 45 95 bd fe 1b 69 3c 3d 06 10 3d
       0.033518247 -0.07288647 0.014227865 0.0351622
0003b0 48 ce 8b bd 9a 4e 7b 3d da 0c bc bc d5 60 69 bd
       -0.068264544 0.061354257 -0.022955347 -0.05697711
0003c0 1d 85 30 bb 8b ba 79 3b 35 f2 86 bd a3 d0 e2 3c
       -0.002693481 0.0038105573 -0.06589166 0.027687376
0003d0 7b f6 c6 3b 02 12 94 bd 6f 2a f4 3b a4 9f 26 3c
       0.006071863 -0.07229997 0.0074513475 0.010169897
0003e0 bd 4a 27 bd 6b 7e 6b 3d 7b 3e 1b 3c 81 87 8c bc
       -0.04084276 0.05749361 0.009475346 -0.017154457
0003f0 76 fe 8b bc 32 de 53 bc e1 e2 88 bd 4f 7c ab bc
       -0.01708911 -0.012931393 -0.06683899 -0.020933298

net.6.bias f4 [32]
000000 e6 c6 97 39 1c 02 6e 3c 3e 30 be 3c 3b 4b c9 bc
       0.00028949155 0.01452687 0.023216363 -0.024572005
000010 4a e8 b6 ba 94 8f a8 bc d2 e2 c3 bc b4 cf c3 3c
       -0.0013954726 -0.020576276 -0.023911867 0.023902752
000020 63 3b ce 3c 32 28 01 3d c6 6d ab bc 4d 0c fb 3c
       0.025174802 0.031532474 -0.020926367 0.030645514
000030 53 d9 e2 3c 1c fc 02 3d 81 0a 04 3d a1 06 58 39
       0.027691519 0.03197871 0.03223658 0.00020601835
000040 65 fe 23 bc 53 a8 00 3b 3f 6b 84 3c e0 6d 23 3d
       -0.010009383 0.001963158 0.01616442 0.039899707
000050 b7 26 1b bc aa f4 74 3b 63 b3 15 bc 69 c2 10 3c
       -0.00946968 0.0037377276 -0.009137007 0.0088354135
000060 68 9c a2 3c b3 be e4 bc a9 fe 07 3d 17 c0 fd 3c
       0.019849971 -0.027922964 0.033201847 0.030975385
000070 99 11 07 3d b3 ef 05 bd ec 9e 1a 3d a8 6a 16 bd
       0.032975767 -0.032699298 0.037749216 -0.03672281

net.8.weight f4 [3, 32, 3, 3]
000000 2b 1e 98 bd 4e ca b2 ba 51 aa 89 bd 90 94 7a bd
       -0.07427629 -0.0013640614 -0.067219384 -0.061176836
000010 4f cd 54 3d ae b2 80 bd c4 db ec bd c3 ae 40 3d
       0.05195361 -0.062840804 -0.115653545 0.047041666
000020 27 d3 43 bd df 71 74 bd ce 98 9c bc 0d d1 6b bd
       -0.047808792 -0.05967891 -0.019115832 -0.057572413
000030 a1 5d 2d 3c cd c6 34 3d a9 b6 9b bc 46 af 56 3d
       0.010581405 0.044134904 -0.019007998 0.052413248
000040 08 bc b0 3d 69 2c 54 bb 12 5e 46 bc bb f0 d5 3c
       0.08629614 -0.0032375103 -0.012107389 0.026115766
000050 4d 66 58 bc f4 b3 1f 3d df fb 7c 3d 28 a5 25 bd
       -0.013207984 0.038989976 0.06176364 -0.04044071
000060 9e 9b eb 3c 44 85 a0 3c e4 03 46 bd b1 67 74 bd
       0.028760727 0.019594796 -0.048343554 -0.0596692
000070 2c de a8 bc 81 99 1a bd 94 b1 d3 bd 1e 30 42 3b
       -0.020613752 -0.03774405 -0.10336605 0.002963073
000080 88 6c 02 3c 40 d8 be bd de 54 fa bc 1e 57 61 3d
       0.007960446 -0.0931859 -0.030558046 0.055014722
000090 ea 37 f7 3c d9 62 76 3d df bd 7d bd 02 21 6e 3d
       0.03017803 0.060152862 -0.061948653 0.058136947
0000a0 2d 3d 6e 3a f8 3e 05 bd 2f db 50 3c 71 e8 44 bd
       0.00090880954 -0.032530755 0.01274757 -0.048073236
0000b0 44 b0 9d bd ed f5 50 bd 83 15 3f bd 9a 7b 0f 3d
       -0.076996356 -0.051015783 -0.046651375 0.035029985
0000c0 6e f8 94 bc 63 fd 1d bd 40 45 a7 3c c5 8c ff bb
       -0.018184867 -0.038571727 0.020418763 -0.0077987635
0000d0 f1 0a fb 3c 0c 20 e0 ba 0b f1 23 bd 9f aa a7 3c
       0.030644866 -0.0017099394 -0.0400248 0.0204671
0000e0 cc 6f f1 3b 7b d2 3e bb a4 24 2a bd f1 b6 2a bd
       0.0073680636 -0.0029117155 -0.04153885 -0.041678373
0000f0 43 3c 5d 3d 5f a1 18 3d b6 3c 97 3c e3 2d 02 3d
       0.05401255 0.03726327 0.018461566 0.031782042
000100 7a d1 6b 3c a5 64 a2 3c 69 ac 03 bd 5a f7 88 3c
       0.014393205 0.019823382 -0.032146845 0.016719509
000110 4a a2 51 bd f8 65 59 bd 40 04 57 bd ef 32 3a bc
       -0.05118016 -0.05307576 -0.052494287 -0.011364683
000120 36 20 06 3d 44 89 3a 3c 7d 41 c5 bc d1 8b d2 bb
       0.032745562 0.011385266 -0.024079079 -0.006425359
000130 92 68 c3 3c 9e ba 05 3d 66 65 03 bd 46 79 4c bd
       0.023853574 0.032648675 -0.032079123 -0.049920343
000140 4b b5 65 bd 97 13 8e bd b2 77 74 bd e9 1d 6a bd
       -0.056081098 -0.0693733 -0.059684463 -0.05715743
000150 ea 6d e0 bc dc e4 25 3d 74 da 21 bc 8d 2b 27 bd
       -0.027396161 0.04050146 -0.009878743 -0.040813018
000160 4f a9 73 bc c6 4e 06 3b 4c f2 7b 3c 93 d4 5b 3d
       -0.014871909 0.002049373 0.015377592 0.053669523
000170 f9 c5 96 bc a5 e9 93 3d 8c 7d 96 3d ee 19 9d bc
       -0.018404948 0.072222985 0.07348165 -0.019177403
000180 be ed 32 3d 01 b6 f1 3b e8 9c 98 3c cd d2 5b 3c
       0.04368376 0.007376433 0.018629506 0.013416958
000190 73 10 f7 3c 7f fa 12 3a 14 27 f5 3c 2b 36 1c 3c
       0.03015921 0.0005606785 0.02992586 0.009534399
0001a0 b9 28 f5 3c f8 01 41 bd 27 13 78 3d 47 51 c3 3c
       0.029926645 -0.04712102 0.06056514 0.023842467
0001b0 9f de 6d bd 1d ec c0 bc 92 04 a3 3d 42 7e e9 bc
       -0.058073636 -0.023550088 0.07959856 -0.028502587
0001c0 65 49 d0 bb 54 b5 0a bc fc 7e fa 3c e4 20 94 3d
       -0.0063564056 -0.008466084 0.030578129 0.07232836
0001d0 af 67 47 3d 83 93 6d 3d 98 f6 b2 bc fb db a6 bc
       0.048682865 0.058002006 -0.0218461 -0.020368567
0001e0 75 7d 93 3d a7 34 06 bd 07 c0 ce 3c 89 65 71 bc
       0.072016634 -0.032765057 0.02523805 -0.0147336805
0001f0 2c 27 4a bc 90 06 44 3d 17 fb a4 3c d7 67 53 bd
       -0.012338441 0.04785782 0.02013926 -0.0516127
000200 89 97 89 3c 0d c9 2f bc ef 5e 2a 3d 92 aa 6d 3c
       0.01679589 -0.010729087 0.041594442 0.014505999
000210 ea aa ed bc 1c 3d 4c bd 9a 17 49 3d 2b 41 a5 3c
       -0.029012162 -0.049862966 0.049094774 0.020172676
000220 87 66 0f bd 13 05 25 3d fe 21 15 3d 93 a9 a9 3c
       -0.035009887 0.040288042 0.03640937 0.020710742
000230 e3 79 12 3d 25 22 99 3b ed b4 8d 3c 5c 54 b0 b8
       0.03576077 0.00467326 0.017298186 -8.408047e-05
000240 38 74 f9 3c 52 fb 06 bc 8e 36 8f 3d 24 e7 53 bd
       0.030450925 -0.00823863 0.06992827 -0.051734105
000250 9f 52 25 bd 5a a8 e9 3c 9f 9e 72 3c 1a 6b 3a bd
       -0.040361997 0.02852266 0.014808326 -0.045512296
000260 cf 1e 2c 3d 52 43 6b bd bb 7f 65 bd 11 50 96 bc
       0.04202157 -0.05743725 -0.056030016 -0.018348726
000270 92 33 10 3d a1 80 86 bc dd df 27 3d d9 c7 4c 3b
       0.03520543 -0.016418757 0.040984977 0.0031247048
000280 cc 71 9e bb 45 ec 88 3d 30 9f 6b 3d 25 5a e3 3c
       -0.004835343 0.0668569 0.05752486 0.027752945
000290 f8 36 59 bc b5 94 13 3d 44 e3 16 38 f8 e0 7f 3c
       -0.0132577345 0.03603049 3.5974444e-05 0.015617602
0002a0 d9 cc e8 3c 9b ee 8d 3d 6e 8a 83 3d 4e b2 2e bd
       0.028417991 0.06930276 0.06422888 -0.042650513
0002b0 25 10 1f 3d ab c5 52 bd 59 ff 9b bc 9b 87 0d 3b
       0.038833756 -0.051458042 -0.019042658 0.002159572
0002c0 75 1c 28 3c 97 3b e8 3c 35 cd 37 3d 0e 80 96 bc
       0.010260691 0.028348727 0.044873435 -0.018371608
0002d0 41 d3 1c 3d 8e 8e 31 3c 90 5a cd 3c ff 2d 89 3d
       0.038287405 0.01083721 0.025067598 0.06698226
0002e0 18 79 87 3c 59 50 8a bd 16 1a 10 3d a3 12 99 3d
       0.016537234 -0.06753606 0.035181127 0.07474258
0002f0 64 44 87 bd 2c 7d 5f 3d 06 6b 0e 3d 0d be 80 3c
       -0.06604841 0.054562733 0.034770034 0.015715623
000300 91 33 57 bb 1e 36 b5 bc 45 1f 47 3c 2e 54 bd 3b
       -0.0032837132 -0.022120532 0.012153451 0.0057778573
000310 40 24 2c 3d 01 c8 c9 3c 98 1b ca bd df f2 90 bd
       0.04202676 0.024631502 -0.09868544 -0.07077574
000320 76 d9 f7 bc 1c 44 a3 3b 67 8b 39 bc 3c 42 57 bd
       -0.03025506 0.0049824845 -0.01132474 -0.0525534
000330 33 a6 9a bd cf cc 8d bc 34 dd 31 bd 8b 0b a8 bc
       -0.07551231 -0.017309574 -0.043423846 -0.020513317
000340 d5 17 1f 3d 38 02 00 bd 9f d9 29 3c 33 c6 22 bd
       0.038841087 -0.031252116 0.010366826 -0.0397398
000350 90 67 7e bd 5d 1b 24 3d 05 e3 17 3d 03 ef 18 bc
       -0.062110484 0.04006516 0.037081737 -0.009334329
000360 4f 5d 14 bd cc 54 76 38 57 9e b1 3d 49 f6 2c bd
       -0.0362218 5.8729944e-05 0.08672779 -0.042227063
000370 18 88 56 bc dc 5f 17 3d 8f 16 40 bc 18 ed 7f bd
       -0.013093971 0.036956653 -0.011724128 -0.06248197
000380 92 49 5c 3c dc 81 61 3d 71 75 6c 3d 8c de b6 3b
       0.013445275 0.055055484 0.05772919 0.005580729
000390 47 49 ec bc 46 64 b7 bc 0f 2e 0a bc fb b4 10 bc
       -0.028843535 -0.022386681 -0.008433833 -0.008832212
0003a0 97 f2 2b bd f3 91 37 bd de 54 14 bd 28 0f 53 bd
       -0.0419794 -0.044816922 -0.03621375 -0.051528126
0003b0 48 1a 55 3d 7a 02 33 bc 82 65 74 3d 9b 7a 57 3d
       0.052027017 -0.010925883 0.059667118 0.05260716
0003c0 53 06 45 3c d8 4d 2e 3d 0e 8d 8d 3d 35 1c 84 bd
       0.012025434 0.042554706 0.0691167 -0.064506926
0003d0 70 48 c2 3c 4f 02 37 bd 60 bb 05 bd 59 69 11 bd
       0.023716182 -0.044679936 -0.032649398 -0.035500858
0003e0 61 38 c8 bc af 53 07 bd f8 e5 20 bd df 6d 8c 3c
       -0.024440946 -0.03303879 -0.039281815 0.017142234
0003f0 db db 4d bc 5c 5c a2 3d 6e d4 9e ba d9 6f a7 bc
       -0.012564625 0.079277724 -0.0012117752 -0.020439075

net.8.bias f4 [3]
000000 86 09 35 3c 5d e6 10 3d 9c 69 fa 3c
       0.011049634 0.03537594 0.030567937
