epoch_50.pth (torch, 384277 bytes, 10 tensors)

net.0.weight f4 [64, 3, 3, 3]
0.122757554 -0.18287982 -0.050165232 0.13727728 0.06042623 -0.13031223 -0.16081913 -0.08008238
5.507071e-05 0.17839144 -0.08603089 0.03807781 -0.16997485 -0.03735941 -0.10290674 0.14199618
0.0130374 -0.084328696 -0.06613085 -0.13292192 -0.021025946 0.14194939 -0.00790082 -0.06154019
0.16586834 0.08146682 -0.027201872 0.049022064 0.0086375745 0.048163366 0.11480252 -0.12130722
-0.13606553 -0.14505444 -0.01273718 -0.15931074 0.1983369 0.014935383 0.07561784 0.1818328
-0.11606299 0.010518432 0.0023835723 0.15936711 -0.099127814 -0.13953058 0.11072326 0.067648
-0.023562778 -0.02890786 0.08249835 -0.023087157 -0.035281792 0.10855145 0.0670449 0.19747435
0.026656903 -0.0897371 -0.1440651 -0.17013057 0.07772067 0.104890294 -0.058810536 -0.08802371
0.18501592 -0.06855248 0.11310643 -0.10509185 -0.15757371 -0.07409215 -0.051049143 0.11708701
0.14614354 0.14908104 -0.07823316 0.049557675 -0.13323978 -0.10230755 0.08870087 -0.16197692
-0.0244895 0.17658195 0.017708044 0.1033244 0.17258763 -0.06429262 0.13723376 0.17029648
0.0027753217 0.060420904 0.080974475 0.09736891 -0.009803642 -0.20391327 -0.19346446 0.030601753
0.13034055 0.029358337 0.0018575678 0.089299455 0.048043694 -0.183545 0.027474817 0.028569901
0.08152669 -0.086543374 0.0743532 0.119522326 0.09721484 0.08948195 -0.098695256 -0.024509374
-0.12501295 -0.17348678 -0.097189225 0.21133383 -0.15357132 0.07329906 0.1035272 -0.026332535
0.1427172 -0.0073212343 0.13169467 0.16819279 0.050414987 -0.017135257 0.13037215 0.08802834
-0.1716945 -0.042207498 0.13893937 -0.1447466 -0.040302616 -0.034482397 -0.17740062 0.1096547
0.16599596 -0.10027098 0.19240232 -0.13717355 -0.046527598 -0.005598864 0.18168244 -0.17317697
-0.104164615 -0.013889012 0.03546769 0.026969204 0.16613925 -0.14884727 -0.08258887 -0.04598939
-0.15177234 0.11024114 0.015680488 0.15502845 -0.13723816 0.1109557 0.13507926 -0.14333159
0.054952536 0.11199688 -0.10603286 -0.16055314 -0.15910923 -0.10114258 -0.06716915 0.022407262
-0.07687541 -0.15662992 -0.07449585 -0.17689042 -0.014514728 -0.046809845 0.14875601 0.018962493
-0.05318583 0.17436151 -0.09251896 0.20900875 -0.07019245 -0.018442335 0.031160843 0.09919478
-0.042723194 0.22435178 -0.023117786 -0.11422049 0.14167571 0.16276225 -0.04304278 -0.021506432
-0.06577272 -0.037273023 -0.048752114 0.13822202 -0.08010388 -0.1460783 0.032591794 0.115314916
0.10426094 -0.050180636 -0.102525026 0.15577333 -0.08234233 -0.15100083 0.18844898 -0.095156856
0.010294803 -0.00038839097 0.14585458 -0.08957145 -0.06388676 0.078922085 -0.12017108 -0.13244815
0.048530847 -0.0989172 -0.10670651 -0.12612122 -0.19072069 0.12170313 -0.011935532 -0.013207048
-0.02557382 0.16652332 0.056561932 0.07361482 0.092195645 -0.114742205 -0.09398984 -0.104208894
0.11193515 -0.1068114 -0.012932196 -0.030545413 -0.011870995 -0.13611934 0.044554308 -0.09872183
-0.12918401 -0.0654203 0.012607142 -0.075141475 -0.08846555 0.13931535 -0.046546545 0.110768646
-0.1392038 0.12937686 0.07434709 0.1538623 0.033387065 0.11925556 0.1596288 -0.04782011
00000000: 5068 fb3d d944 3bbe 0f7a 4dbd 6a92 0c3e
00000010: 7f81 773d 9270 05be c5ad 24be 3b02 a4bd
00000020: b9fb 6638 3fac 363e f730 b0bd 7af7 1b3d
00000030: e30d 2ebe 2e06 19bd c5c0 d2bd 7267 113e
00000040: d29a 553c 86b4 acbd 9c6f 87bd af1c 08be
00000050: 9b3e acbc 2e5b 113e 7172 01bc 9111 7cbd
00000060: 64d9 293e 13d8 a63d 76d6 debc 5ccb 483d
00000070: 9d84 0d3c f346 453d 951d eb3d eb6f f8bd
00000080: c354 0bbe 2789 14be 9baf 50bc 5b22 23be
00000090: d418 4b3e 89b3 743c 87dd 9a3d 6132 3a3e
000000a0: 6fb2 edbd 8055 2c3c b535 1c3b 2231 233e
000000b0: 8603 cbbd 1be1 0ebe e0c2 e23d 098b 8a3d
000000c0: ba06 c1bc 2dd0 ecbc e5f4 a83d 4721 bdbc
000000d0: a483 10bd 3950 de3d d64e 893d b736 4a3e
000000e0: 945f da3c 16c8 b7bd cd85 13be b536 2ebe
000000f0: 042c 9f3d b9d0 d63d 51e3 70bd c645 b4bd
00000100: d074 3d3e 3e65 8cbd 58a4 e73d 653a d7bd
00000110: 015b 21be a0bd 97bd e818 51bd 50cb ef3d
00000120: a7a6 153e b3a8 183e b538 a0bd fdfc 4a3d
00000130: 0270 08be 9f86 d1bd cda8 b53d 47dd 25be
00000140: 349e c8bc e6d1 343e 7610 913c be9b d33d
00000150: d0ba 303e d9ab 83bd 0287 0c3e 3362 2e3e
00000160: 2ce2 353b e97b 773d f2d5 a53d 5a69 c73d
00000170: 749f 20bc a4ce 50be 8c1b 46be 87b0 fa3c
00000180: fe77 053e e580 f03c a279 f33a a2e2 b63d
00000190: 77c9 443d 38f3 3bbe de12 e13c 6d0b ea3c
000001a0: 77f7 a63d a73d b1bd 7e46 983d 1fc8 f43d
000001b0: 9318 c73d 5042 b73d bd20 cabd e2c7 c8bc
000001c0: 6503 00be 85a6 31be 250b c7bd e567 583e
000001d0: cd41 1dbe d11d 963d 1206 d43d 54b7 d7bc
000001e0: 7524 123e f7e6 efbb f8da 063e bb3a 2c3e
000001f0: f27f 4e3d 3d5f 8cbc 4780 053e 3448 b43d
00000200: afd0 2fbe c5e1 2cbd 1f46 0e3e 7438 14be
00000210: 5b14 25bd 6a3d 0dbd 82a8 35be a592 e03d
00000220: d8fa 293e df5a cdbd 1d05 453e 3977 0cbe
00000230: b993 3ebd ad76 b7bb f60a 3a3e 4e55 31be
00000240: 4254 d5bd bd8e 63bc 9246 113d 85ee dc3c
00000250: 6820 2a3e 6b6b 18be 5a24 a9bd 5f5f 3cbd
00000260: 356a 1bbe 1bc6 e13d 5e74 803c c7bf 1e3e
00000270: 2988 0cbe be3c e33d 3852 0a3e 84c5 12be
00000280: e915 613d 9f5e e53d c227 d9bd 0b68 24be
00000290: 88ed 22be d723 cfbd fb8f 89bd 6f8f b73c
000002a0: db70 9dbd 9863 20be 4891 98bd c322 35be
000002b0: 2fcf 6dbc aebb 3fbd 7f53 183e 3b57 9b3c
000002c0: 63d9 59bd d38b 323e 957a bdbd 6406 563e
000002d0: 0fc1 8fbd 6114 97bc 0645 ff3c a226 cb3d
000002e0: 84fe 2ebd 79bc 653e 8361 bdbc 6fec e9bd
000002f0: 7013 113e 26ab 263e a04d 30bd 422e b0bc
00000300: d9b3 86bd 99ab 18bd 4cb0 47bd 138a 0d3e
00000310: 810d a4bd 8d95 15be f97e 053d 3a2a ec3d
00000320: c286 d53d 368a 4dbd a4f8 d1bd 0b83 1f3e
00000330: 18a3 a8bd f69f 1abe c5f8 403e 99e1 c2bd
00000340: 89ab 283c f4a0 cbb9 e75a 153e 3d71 b7bd
00000350: 10d7 82bd e7a1 a13d 411c f6bd 7da0 07be
00000360: 48c8 463d 1a95 cabd f188 dabd ec25 01be
00000370: 494c 43be 7e3f f93d 408d 43bc 6062 58bc
00000380: 3080 d1bc 1785 2a3e 7cad 673d 5ec3 963d
00000390: 12d1 bc3d f6fd eabd bf7d c0bd 796b d5bd
000003a0: 423e e53d efbf dabd 90e1 53bc 603a fabc
000003b0: 907e 42bc de62 0bbe 947e 363d ac2e cabd
000003c0: d048 04be 14fb 85bd 308e 4e3c c6e3 99bd
000003d0: 6d2d b5bd afa8 0e3e 97a7 3ebd acda e23d
000003e0: 718b 0ebe 5e7b 043e 4a43 983d 148e 1d3e
000003f0: e0c0 083d 423c f43d bb75 233e 05df 43bd

net.0.bias f4 [64]
0.14405048 0.017793331 0.124969676 0.057442073 -0.07534153 -0.10524415 0.089208044 0.12847877
-0.08720704 -0.16227382 -0.15208317 -0.026061079 0.08988372 0.13382721 0.10417902 -0.096206635
-0.06510936 -0.13836958 -0.10118386 0.100045055 -0.16010159 -0.12341876 0.11741327 -0.056512266
0.14216308 0.018866468 -0.032095376 0.11182568 -0.0066907653 0.14992046 0.090741545 0.1252723
0.012249286 -0.1285528 -0.014229877 0.0700842 -0.06674949 -0.0040774248 0.11286689 -0.11535673
0.13809603 -0.1354035 0.006038994 0.051562965 -0.008358699 0.15056862 0.096063845 -0.018391406
-0.023498029 0.18223457 0.15688278 -0.1113074 -0.004801319 0.029188113 0.08848178 0.12770477
-0.1448806 -0.15392299 0.009789098 -0.07559028 -0.006454686 0.05039645 0.011209255 -0.116855115
00000000: f881 133e 52c3 913c 1af0 ff3d 6148 6b3d
00000010: a94c 9abd 3f8a d7bd b5b2 b63d f08f 033e
00000020: 9b99 b2bd 1c2b 26be b1bb 1bbe 0b7e d5bc
00000030: f514 b83d 000a 093e cf5b d53d fc07 c5bd
00000040: 0e58 85bd c1b0 0dbe 7c39 cfbd 6ce4 cc3d
00000050: acf1 23be fac2 fcbd 5e76 f03d 6879 67bd
00000060: 3393 113e da8d 9a3c 7176 03bd dd04 e53d
00000070: 353e dbbb c084 193e b4d6 b93d 6247 003e
00000080: 3bb1 483c 58a3 03be 6e24 69bc 4e88 8f3d
00000090: f5b3 88bd eb9b 85bb c226 e73d 2640 ecbd
000000a0: 0c69 0d3e 37a7 0abe c1e2 c53b b033 533d
000000b0: edf2 08bc a92e 1a3e 1fbd c43d 93a9 96bc
000000c0: f07e c0bc b39b 3a3e e1a5 203e 22f5 e3bd
000000d0: 6254 9dbb e91b ef3c ef35 b53d 0ac5 023e
000000e0: 945b 14be fd9d 1dbe 7462 203c 14cf 9abd
000000f0: d581 d3bb 826c 4e3d 06a7 373c bc51 efbd

net.2.weight f4 [64, 64, 3, 3]
0.036413882 0.02755932 -0.01413717 -0.026534213 0.009308069 0.016231125 0.020122647 0.025337465
-0.01346129 -0.020892926 -0.04511721 -0.042789016 -0.017951393 -0.020031622 -0.012821034 -0.012949349
-0.04105111 0.03651547 -0.12784635 -0.034549017 -0.06762778 -0.0853065 -0.0059699165 -0.0028565396
-0.022755543 0.026512818 0.038631916 -0.041246146 0.017971488 0.0010852916 0.027175926 -0.039803654
0.015543698 0.02460842 0.0055412375 0.016495515 -0.007847471 0.06843377 -0.017099777 0.065492325
0.028988352 -0.0010716438 0.028203035 0.051418576 -0.035579156 -0.0027721087 -0.030061036 -0.035870787
-0.012812593 -0.019448008 -0.026743403 0.04417579 0.069561064 0.034606118 0.08205347 -0.002963769
-0.0029227377 0.06272774 0.049318243 0.033081528 0.08220906 0.060350772 0.0019891928 -0.06529264
-0.034158874 -0.016945433 -0.027007055 -0.09038293 -0.019609204 0.007659447 0.0025353006 0.012353764
-0.0007057227 -0.036669176 -0.020045172 -0.020548832 -0.0061103255 0.036274765 0.041377556 -0.007939685
0.0014004372 0.017850421 -0.006658841 -0.061736614 -0.026054403 -0.034816366 -0.022288965 -0.0374873
-0.03651644 0.007252605 -0.014896755 0.0038060867 -0.037421193 0.021424046 0.03847289 -0.03736172
0.02592549 0.04224697 0.02502093 -0.013718868 -0.01477592 0.007638305 0.051026072 0.02113968
0.015754072 0.053519044 0.03406005 -0.01929649 0.0015528965 0.024929937 -0.02632154 -0.034057196
-0.041391894 -0.02624144 0.030994246 0.03810502 -0.0014242774 -0.03016568 -0.024186365 0.004286405
0.010851351 0.0035709569 -0.0015296744 -0.039172143 0.011852248 -0.02326802 0.021110399 -0.054796156
-0.0111295795 -0.055856127 -0.030751772 -0.017977774 -0.015940579 -0.027329564 0.011211526 0.015213781
-0.03802041 -0.032781955 -0.015716929 0.035937905 -0.028335055 0.031107202 -0.00094248686 0.0029748778
0.01242649 -0.053943172 -0.04246471 -0.03738614 0.003884447 -0.017451525 -0.0093999505 -0.007817868
0.038800366 0.013783485 0.027077507 0.028694484 -0.03241078 -0.0016434602 -0.03390549 -0.0241122
0.00030935928 0.024653751 0.01466378 0.035575368 -0.009750005 0.012771401 0.009986294 0.03751947
0.013310821 0.031212185 -0.01965932 -0.0041940496 -0.0025540814 -0.03963071 -0.020222163 -0.029260121
-0.045399703 0.040835764 -0.0322563 0.017616345 -0.07074798 -0.08553284 -0.08075187 -0.059213717
-0.0078850025 -0.017493397 0.020993434 0.0153582115 0.033127606 0.047701858 -0.0014710946 0.0509597
-0.014667169 0.062220257 -0.023405649 0.0080167055 -0.013813404 0.012456113 0.037786987 0.009900342
-0.015432367 0.011007235 -0.001565229 -0.023505345 -0.014772558 0.017748736 -0.05645804 -0.021394478
0.03429312 0.018482557 0.018359907 0.00050080667 -0.01409603 0.07152716 0.07406731 0.062553205
-0.035043295 -0.037930675 -0.011465296 -0.033860482 0.007977671 0.008204016 -0.03543878 -0.021427684
-0.031206127 0.015867569 -0.033820264 0.033947486 0.017809592 -0.013272043 0.0026221706 0.010812131
-0.03441659 -0.008536867 0.012332695 -0.01737984 0.035391364 0.020633874 0.0061573177 -0.0020126938
-0.018896006 0.04476481 0.056989305 0.04447028 0.030168086 0.05639892 0.09223701 0.06999419
0.027623065 0.03623094 0.06439374 -0.0045887334 0.026740437 -0.031641178 -0.020289447 -0.012802158
00000000: b926 153d 15c4 e13c 979f 67bc 475e d9bc
00000010: df80 183c 23f7 843c 40d8 a43c 8490 cf3c
00000020: be8c 5cbc a427 abbc d3cc 38bd 8943 2fbd
00000030: cd0e 93bc 5b19 a4bc 500f 52bc 8229 54bc
00000040: 3525 28bd 3f91 153d 27ea 02be 4583 0dbd
00000050: 6f80 8abd 2db5 aebd 4a9f c3bb c834 3bbb
00000060: d569 babc 6931 d93c 803c 1e3d b8f1 28bd
00000070: f138 933c 5840 8e3a 0ca0 de3c 2809 23bd
00000080: ffaa 7e3c 9997 c93c 4593 b53b 9a21 873c
00000090: ae92 00bc 0127 8c3d d514 8cbc d720 863d
000000a0: fb78 ed3c 6676 8cba 0d0a e73c 499c 523d
000000b0: 73bb 11bd 44ac 35bb 9042 f6bc 3fed 12bd
000000c0: e9eb 51bc 6e51 9fbc fb14 dbbc acf1 343d
000000d0: 0876 8e3d 25bf 0d3d a60b a83d cb3b 42bb
000000e0: 678b 3fbb 6777 803d ed01 4a3d 7f80 073d
000000f0: 395d a83d 5f32 773d 1e5d 023b 26b8 85bd
00000100: 2dea 0bbd 26d1 8abc e63d ddbc b01a b9bd
00000110: 7ba3 a0bc 19fc fa3b 4927 263b 7167 4a3c
00000120: 4000 39ba 6b32 16bd c635 a4bc 0656 a8bc
00000130: 2039 c8bb d994 143d 837b 293d 7415 02bc
00000140: e08e b73a 0c3b 923c 6832 dabb 88df 7cbd
00000150: 0b70 d5bc 9b9b 0ebd 5997 b6bc 488c 19bd
00000160: 4392 15bd 43a7 ed3b 8511 74bc 8a6f 793b
00000170: f746 19bd 7b81 af3c c095 1d3d 9a08 19bd
00000180: b161 d43c 290b 2d3d b2f8 cc3c 1ac5 60bc
00000190: b316 72bc bf4a fa3b b700 513d 1f2d ad3c
000001a0: af0e 813c c936 5b3d 8d82 0b3d ac13 9ebc
000001b0: 8f8a cb3a de39 cc3c 45a0 d7bc 8f7f 0bbd
000001c0: 8c8a 29bd 4af8 d6bc a5e7 fd3c 0214 1c3d
000001d0: d2ae baba 041e f7bc 7c22 c6bc f974 8c3b
000001e0: ddc9 313c b706 6a3b 5b7f c8ba f872 20bd
000001f0: ee2f 423c 939c bebc b7ef ac3c ef71 60bd
00000200: d758 36bc 65c9 64bd 24eb fbbc 2046 93bc
00000210: d195 82bc 40e2 dfbc 8cb0 373c 3943 793c
00000220: 4abb 1bbd 5f46 06bd cac0 80bc a033 133d
00000230: eb1e e8bc 88d4 fe3c 3911 77ba 2bf6 423b
00000240: 7a98 4b3c 84f3 5cbd 7aef 2dbd 3622 19bd
00000250: 3592 7e3b 80f6 8ebc 4002 1abc 8416 00bc
00000260: 22ed 1e3d 20d4 613c a6d1 dd3c b210 eb3c
00000270: 2bc1 04bd 6069 d7ba 7ce0 0abd f386 c5bc
00000280: 8031 a239 aaf6 c93c 5a40 703c 7ab7 113d
00000290: 7cbe 1fbc 233f 513c 8e9d 233c 04ae 193d
000002a0: a115 5a3c b2b0 ff3c 950c a1bc 3d6e 89bb
000002b0: 6062 27bb d053 22bd f3a8 a5bc ecb2 efbc
000002c0: 0af5 39bd 6743 273d 2f1f 04bd 2750 903c
000002d0: 51e4 90bd d72b afbd 3d61 a5bd 158a 72bd
000002e0: 1930 01bc 504e 8fbc 6cfa ab3c 02a1 7b3c
000002f0: d0b0 073d 0663 433d bed1 c0ba 1ebb 503d
00000300: 914e 70bc abda 7e3d 34bd bfbc 8058 033c
00000310: 9e51 62bc b914 4c3c 87c6 1a3d 0b35 223c
00000320: 0ad8 7cbc b157 343c 5f28 cdba 488e c0bc
00000330: 9908 72bc cc65 913c 8c40 67bd 7943 afbc
00000340: f176 0c3d bb68 973c 8467 963c 9148 033a
00000350: 09f3 66bc d57c 923d 9ab0 973d e51b 803d
00000360: 8f89 0fbd 325d 1bbd f0d8 3bbc 4ab1 0abd
00000370: c7b4 023c 236a 063c 4128 11bd 1c89 afbc
00000380: fea3 ffbc b4fc 813c 1e87 0abd 850c 0b3d
00000390: 6ce5 913c fc72 59bc b9d8 2b3b 5d25 313c
000003a0: 69f8 0cbd 37de 0bbc 120f 4a3c 2b60 8ebc
000003b0: 89f6 103d 5f08 a93c 53c3 c93b 66e7 03bb
000003c0: cccb 9abc 4e5b 373d 9e6d 693d 7826 363d
000003d0: 1023 f73c 8e02 673d c2e6 bc3d 1d59 8f3d
000003e0: c449 e23c e566 143d dde0 833d 165d 96bb
000003f0: c30e db3c 2e9a 01bd 0e36 a6bc 24c0 51bc

net.2.bias f4 [64]
-0.027122293 -0.048727874 -0.027931599 -0.027206799 0.011257545 0.032378346 0.0298131 -0.028300196
0.0048070136 0.0073047206 0.0051189163 0.0014341295 0.033695593 -0.03492589 0.0074814106 -0.015914144
0.0017413009 0.023993917 -0.026504228 -0.03440775 0.00222697 0.0199679 -0.03755544 0.03800427
-0.010558649 -0.016953146 0.015405845 0.02205837 0.035342276 -0.02081045 0.035100702 -0.01727731
-0.012928193 -0.0027160172 0.002640666 0.006111338 -0.029456526 -0.00484283 0.034658667 0.012705253
0.031505954 0.037077613 -0.03935007 -0.002234127 -0.028823378 0.033959456 0.036960885 -0.032147333
0.034878295 -0.024262609 0.016923746 -0.016752064 0.026441837 -0.013890286 0.0068711014 0.03892622
-0.025732514 0.020934522 0.037629116 0.03311401 -0.0003976523 0.02626924 -0.03833813 -0.009059299
00000000: 922f debc e196 47bd cfd0 e4bc cbe0 debc
00000010: 9171 383c 289f 043d 9a3a f43c d0d5 e7bc
00000020: 2784 9d3b 705c ef3b 95bc a73b 67f9 bb3a
00000030: 6404 0a3d 730e 0fbd 9f26 f53b 615e 82bc
00000040: 5d3c e43a e48e c43c 651f d9bc 24ef 0cbd
00000050: 5bf2 113b b993 a33c bcd3 19bd 5eaa 1b3d
00000060: 2ffe 2cbc 53e1 8abc cc68 7c3c c1b3 b43c
00000070: 10c3 103d ad7a aabc c1c5 0f3d 2589 8dbc
00000080: c6d0 53bc 35ff 31bb 060f 2d3b 9e41 c83b
00000090: d04e f1bc 9ab0 9ebb 3ff6 0d3d b229 503c
000000a0: 630c 013d b2de 173d 8a2d 21bd 6e6a 12bb
000000b0: 011f ecbc 1219 0b3d 4c64 173d ecac 03bd
000000c0: 8bdc 0e3d 61c2 c6bc aba3 8a3c a03b 89bc
000000d0: 8d9c d83c 1594 63bc fa26 e13b 1a71 1f3d
000000e0: fecc d2bc e07e ab3c fd20 1a3d 8ea2 073d
000000f0: fd7b d0b9 9732 d73c 7108 1dbd 746d 14bc

net.4.weight f4 [64, 64, 3, 3]
-0.002190102 0.032183297 0.012815183 0.006731581 0.0139124375 -0.026378267 0.033483963 0.044699427
-0.025985463 -0.0043890565 -0.01941405 -0.013536964 0.0016880708 0.027980722 0.028461553 -0.0023925023
-0.022871267 -0.021272162 0.0292897 0.030209051 -0.019780308 0.02943094 -0.012613749 -0.0020451574
0.017321493 0.010536398 -0.012895704 0.029934537 -0.020751042 -0.010847581 -0.022796717 0.022398125
-0.03383133 -0.013314938 0.006974403 0.00082914904 0.03596094 0.009634995 0.0057784645 0.04460664
-0.03586977 -0.01054916 0.008164204 0.034082696 -0.015069569 0.008918254 -0.019496767 0.062975354
-0.03901465 0.0011635793 0.01986437 -0.025868472 -0.0117989555 0.03426421 0.0027444542 0.022282213
-0.024553875 0.037307348 0.040922053 0.06606213 -0.001893863 0.0031982646 0.053205453 0.034858346
0.05564098 0.027889617 0.022271633 0.08313396 0.024092264 0.07251882 0.056405842 0.053031724
-0.00053578126 0.011993451 -0.010554851 -0.04695301 0.018535951 0.0281694 0.022799626 0.025163466
-0.01418821 0.03883737 0.04426473 0.021058982 -0.0033181694 0.04235552 0.055057872 -0.0054220255
-0.025959462 0.03166492 0.05214683 0.03475499 -0.0005112437 -0.01697226 0.021421777 -0.010596772
0.011250618 -0.0052327313 0.02098386 0.0068117534 0.022565072 -0.013208644 -0.031296015 0.0027670427
0.03239675 -0.027170746 -0.020674607 -0.059392057 0.024238732 -0.025242673 0.02264989 0.027393842
-0.0046136277 -0.031062976 0.032289427 -0.015043967 0.0074000396 0.01759177 -0.02184525 -0.019578481
-0.008477291 -0.024198283 -0.04021052 -0.015850466 0.019802513 0.0049588173 -0.020190742 -0.029760662
-0.0027196114 0.011844568 0.018202784 -0.035474703 6.748111e-05 0.004269836 -0.012380208 0.0067005837
0.01143685 -0.0051093106 -0.011804249 0.0018101705 0.0240354 -0.025900656 0.015276305 0.040229436
0.06483208 0.055587728 0.047342665 0.09262048 0.0068589747 0.08281657 0.020501949 0.04681865
0.07464711 0.034258224 0.02959031 0.032557134 0.01326817 0.025942247 0.047847286 0.011560916
-0.012542922 0.026491899 -0.028159477 0.011074019 -0.02125399 0.004792127 0.0017373418 -0.0047756927
-0.009424901 -0.01641859 -0.022290818 -0.022871992 0.027302355 -0.036331683 0.031218981 -0.036201205
-0.028204903 -0.0045999307 -0.030198311 0.023561139 -0.040607993 0.017709726 -0.035978433 0.038601592
0.07514592 0.018229086 -0.009865305 0.05986497 0.045375206 0.0023919742 0.03836392 0.05887273
-0.035491772 -0.03208901 0.055466752 -0.032580543 0.030650694 0.032192104 0.046448514 -0.008158476
-0.090743095 -0.011186308 0.018864306 -0.016241722 0.011365688 0.03523256 -0.0035096284 0.028957956
0.025666256 0.025618821 0.023939434 0.023708055 0.006422462 -0.009320302 0.009349251 -0.017135777
-0.031244518 0.017306125 0.05478419 -0.025186755 0.040082004 0.040848415 0.026733954 0.016940009
0.031193094 -0.04065548 0.028179497 0.010534039 -0.040493682 -0.026302695 -0.009606285 -0.009955719
-0.005799 -0.011109866 -0.029825537 -0.035981346 -0.00448808 0.022463972 0.020709112 -0.023118379
-0.02143871 -0.011382183 0.024915189 -0.004883933 0.069053404 0.0639471 -0.0069496576 0.052875612
0.05994818 -0.029975452 0.040407117 0.027943324 -0.0006439548 0.014681554 -0.025367964 -0.03036011
00000000: d087 0fbb a2d2 033d c6f6 513c 9894 dc3b
00000010: fef0 633c 3c17 d8bc 7b26 093d bf16 373d
00000020: 77df d4bc 13d2 8fbb 370a 9fbc 24ca 5dbc
00000030: 4242 dd3a d437 e53c 3428 e93c 87cb 1cbb
00000040: 865c bbbc f542 aebc f4f0 ef3c f978 f73c
00000050: 500a a2bc 2819 f13c e6a9 4ebc 0c08 06bb
00000060: cee5 8d3c dba0 2c3c 8148 53bc 4639 f53c
00000070: 17fe a9bc 0dba 31bc 2ec0 babc 467c b73c
00000080: b892 0abd e626 5abc 8889 e43b 405b 593a
00000090: c74b 133d 19dc 1d3c 4659 bd3b 74b5 363d
000000a0: 2eec 12bd 62d6 2cbc 27c3 053c 4c9a 0b3d
000000b0: 5be6 76bc de1d 123c afb7 9fbc 39f9 803d
000000c0: d3cd 1fbd 3e83 983a 9aba a23c 1eea d3bc
000000d0: 6850 41bc a158 0c3d 4ddc 333b 3089 b63c
000000e0: 3525 c9bc 97cf 183d e29d 273d 954b 873d
000000f0: 7f3b f8ba fa99 513b f6ed 593d a0c7 0e3d
00000100: cce7 633d c478 e43c 0073 b63c 2342 aa3d
00000110: 245d c53c bf84 943d d009 673d cb37 593d
00000120: ac73 0cba 2e80 443c 41ee 2cbc cd51 40bd
00000130: b5d8 973c 83c3 e63c 48c6 ba3c 9d23 ce3c
00000140: aa75 68bc ef13 1f3d ef4e 353d e383 ac3c
00000150: a575 59bb fb7c 2d3d 5d84 613d 3fab b1bb
00000160: f0a8 d4bc 13b3 013d ea97 553d 405b 0e3d
00000170: fc04 06ba 6909 8bbc b97c af3c 159e 2dbc
00000180: 8354 383c 5577 abbb 58e6 ab3c 2135 df3b
00000190: 63da b83c 1269 58bc 4030 00bd 4657 353b
000001a0: 74b2 043d 2f95 debc cb5d a9bc 1645 73bd
000001b0: 4e90 c63c b9c9 cebc 438c b93c 0d69 e03c
000001c0: ea2d 97bb c877 febc eb41 043d f97a 76bc
000001d0: 087c f23b 9e1c 903c cff4 b2bc 0d63 a0bc
000001e0: 56e4 0abc 7a3b c6bc c9b3 24bd d6d8 81bc
000001f0: e138 a23c 937d a23b 0e67 a5bc a2cc f3bc
00000200: 823b 32bb b80f 423c 011e 953c ec4d 11bd
00000210: a584 8d38 fbe9 8b3b 5bd6 4abc 9290 db3b
00000220: a061 3b3c 016c a7bb 9c66 41bc 3e43 ed3a
00000230: e3e5 c43c 9d2d d4bc 7849 7a3c 9fc7 243d
00000240: aec6 843d f5af 633d 62ea 413d ceaf bd3d
00000250: 40c1 e03b bc9b a93d b4f3 a73c eac4 3f3d
00000260: 96e0 983d 5a52 0c3d 6167 f23c a15a 053d
00000270: bd62 593c d684 d43c 84fb 433d ff69 3d3c
00000280: d480 4dbc 8a05 d93c b4ae e6bc cd6f 353c
00000290: d91c aebc 4607 9d3b 84b7 e33a 6a7d 9cbb
000002a0: e66a 1abc 4780 86bc 3c9b b6bc 0b5e bbbc
000002b0: 30a9 df3c 88d0 14bd f3be ff3c b747 14bd
000002c0: f80d e7bc 04bb 96bb 7362 f7bc 4a03 c13c
000002d0: 9154 26bd fd13 913c 1f5e 13bd b41c 1e3d
000002e0: 1be6 993d 2a55 953c 17a2 21bc f934 753d
000002f0: 5adb 393d abc2 1c3b 7c23 1d3d 8824 713d
00000300: d25f 11bd c46f 03bd 1b31 633d 2d73 05bd
00000310: 2a17 fb3c dedb 033d cc40 3e3d 21ab 05bc
00000320: 84d7 b9bd c746 37bc 5189 9a3c 5c0d 85bc
00000330: 2737 3a3c 0450 103d cb01 66bb 3c39 ed3c
00000340: 0a42 d23c 90de d13c a21c c43c 6537 c23c
00000350: 8473 d23b 2eb4 18bc 9a2d 193c 5460 8cbc
00000360: 81f4 ffbc 93c5 8d3c 6365 603d 7454 cebc
00000370: 072d 243d ab50 273d 2a01 db3c c6c5 8a3c
00000380: a988 ff3c 5c86 26bd b0d8 e63c f696 2c3c
00000390: b4dc 25bd c078 d7bc ae63 1dbc 501d 23bc
000003a0: 8a05 bebb 2806 36bc af54 f4bc 2d61 13bd
000003b0: be10 93bb 5d06 b83c 28a6 a93c c162 bdbc
000003c0: 3ca0 afbc 567c 3abc f01a cc3c 6609 a0bb
000003d0: df6b 8d3d b2f6 823d f4b9 e3bb 1994 583d
000003e0: 398c 753d 148f f5bc ef81 253d 66e9 e43c
000003f0: 13cf 28ba e78a 703c 7ad0 cfbc c4b5 f8bc

net.4.bias f4 [64]
-0.013860743 -0.01728495 -0.027424173 -0.016001487 0.02065203 -0.019759636 -0.0128397 0.04311373
0.027236585 -0.034335848 -0.03599099 -0.0071076513 -0.012361156 -0.029146772 0.019490713 0.032338142
0.0248848 -0.025251178 0.03317685 0.034815345 0.017286098 -0.028124431 0.034162235 0.03032278
-0.031521797 -0.02442619 -0.04061521 -0.03314485 0.0037105277 0.0058446084 0.0029775864 -0.03838857
0.013117251 -0.04640119 0.029096266 0.0052403025 -0.021338813 0.022637874 -0.0093712965 0.036963053
-0.022131944 -0.018337077 -0.0026424702 -0.024542686 -0.007248344 0.017742708 -0.04284219 -0.05071518
0.016064774 0.026460662 0.034374893 -0.0150839435 -0.024996696 -0.036011647 0.01864832 0.027689556
-0.0046478785 0.019585434 0.024405703 0.017278492 0.00096708274 0.04170725 -0.030598355 0.018921323
00000000: 2b18 63bc 2b99 8dbc a9a8 e0bc 8d15 83bc
00000010: 722e a93c f6de a1bc 9b5d 52bc 0698 303d
00000020: 421f df3c bfa3 0cbd 4a6b 13bd 4de7 e8bb
00000030: 7286 4abc 36c5 eebc fdaa 9f3c 0075 043d
00000040: 35db cb3c 8fdb cebc 73e4 073d 899a 0e3d
00000050: 939b 8d3c 3565 e6bc b3ed 0b3d 7b67 f83c
00000060: 001d 01bd 6f19 c8bc 225c 26bd e5c2 07bd
00000070: 532c 733b 2184 bf3b 9c23 433b 553d 1dbd
00000080: bde9 563c 2d0f 3ebd 4b5b ee3c d8b6 ab3b
00000090: bcce aebc 1073 b93c 118a 19bc 9266 173d
000000a0: 0d4e b5bc a337 96bc 4b2d 2dbb be0d c9bc
000000b0: 8483 edbb 2859 913c 4b7b 2fbd b8ba 4fbd
000000c0: 469a 833c 08c4 d83c b0cc 0c3d a522 77bc
000000d0: dfc5 ccbc f380 13bd 5dc4 983c 35d5 e23c
000000e0: 3b4d 98bb a271 a03c 78ee c73c a08b 8d3c
000000f0: d383 7d3a 39d5 2a3d 67a9 fabc e400 9b3c

net.6.weight f4 [32, 64, 3, 3]
0.0011067289 0.0011784921 0.054164983 -0.03919381 -0.0096040685 0.03514475 -0.06328407 -0.0077038966
0.010908778 -0.0020821479 0.010788313 -0.059262156 -0.0015749001 0.0013863335 -0.024783785 -0.017632231
-0.0115016615 -0.03264266 -0.01275203 -0.0123735415 -0.08291894 0.024435263 0.042594712 -0.0648577
0.012900501 -0.014178191 -0.09111063 -0.031573128 -0.012099788 -0.023687473 0.018563194 -0.008990012
-0.03968882 -0.013336996 -0.007711495 0.005172064 -0.0063652475 0.04573547 0.08701086 0.04798808
0.05305915 0.10629623 0.06432161 0.09499326 0.079255335 0.05504689 0.02279863 -0.043004382
0.0036259783 -0.008762998 -0.05470008 0.0028927692 0.037745398 -0.07785801 -0.012568927 0.00021155915
0.048099756 -0.013085775 0.03946827 0.05556675 -0.038935866 0.015506238 0.018676542 0.0074077006
0.0154320635 -0.033882856 0.025838576 -0.00086232246 -0.03421003 0.01997756 -0.027352681 -0.03513552
0.03974689 -0.005701487 -0.038187604 0.014019745 -0.00012414136 0.0033006736 0.08275889 0.0025445926
-0.01196553 0.056131653 0.066869274 -0.005150031 0.04527539 0.050801467 -0.025537234 0.0116259605
0.019799056 -0.03282815 0.053900238 0.04289767 -0.056246676 0.011558682 0.06782862 -0.061690424
0.07648966 0.065645725 -0.028753368 0.055879936 0.016641356 -0.017649857 0.013090064 -0.0023194968
-0.034778025 0.02047514 -0.011515019 -0.08940195 0.038030438 0.056585904 -0.033335604 0.07461321
0.04927107 -0.046032816 0.012696748 0.03755742 0.0033551897 0.07208814 -0.02817676 -0.032619372
-0.00412285 0.021461932 -0.08080577 0.06363086 0.0028431301 -0.072039835 0.053691596 0.034698524
-0.02624937 0.05642857 0.041328013 -0.014257277 0.028063266 -0.0070445375 -0.008799729 -0.013704827
0.02190534 -0.050394796 0.030684788 0.002875093 -0.027401216 -0.02550215 -0.022535972 -0.02141525
-0.005595074 -0.04046386 -0.08245757 -0.03886242 -0.039089084 -0.12712328 0.009919829 0.017227555
-0.11813176 0.035131782 -0.02340826 -0.032927025 0.0035925154 -0.016473679 -0.096715935 0.020202791
-0.06043251 -0.07126505 0.058401547 -0.009372162 -0.012535801 -0.008537423 -0.015770428 -0.08392108
0.034265805 0.045204908 -0.06668283 0.030050823 -0.021085758 -0.069780566 -0.027813794 -0.026191235
-0.0504123 0.052765567 0.034534205 -0.07210037 0.026568057 -0.0132553615 -0.084621295 0.00025049242
-0.005303585 -0.041786022 0.01927259 0.04692097 -0.020145867 -0.055656675 -0.031868674 -0.013173895
0.05005984 0.030882265 0.05340243 0.038641136 0.016987426 0.047782462 0.024960782 0.022409018
0.0029430396 0.045818612 0.016726084 -0.0001575063 0.054969117 0.0021182082 -0.055050205 0.02811183
0.07892238 -0.045795996 0.02298597 0.06513564 -0.0034246251 0.07421611 0.05536136 -0.017173443
-0.0076289084 0.08525799 0.0022025034 0.06659207 0.05478859 0.000106047475 0.04450861 0.037732642
0.013483136 0.04502768 0.00025763406 -0.013888257 0.03728077 0.040004257 -0.07050252 -0.03400582
0.030761294 -0.074558325 0.01210705 0.033439174 -0.07190182 0.061717495 -0.023901295 -0.06101231
-0.0021426051 0.0021015767 -0.070666045 0.028311735 0.006329057 -0.07367665 0.010538259 0.011696422
-0.04151948 0.06109178 0.0109213935 -0.017947746 -0.020017115 -0.0141238775 -0.068361185 -0.02049007
00000000: a90f 913a a277 9a3a 1adc 5d3d b089 20bd
00000010: 625a 1dbc f1f3 0f3d 149b 81bd f870 fcbb
00000020: bbba 323c a574 08bb 77c1 303c e0bc 72bd
00000030: e16c ceba a2b5 b53a 5d07 cbbc 7871 90bc
00000040: 7771 3cbc 4fb4 05bd e4ed 50bc 65ba 4abc
00000050: 68d1 a9bd 762c c83c cb77 2e3d 1dd4 84bd
00000060: 9f5c 533c a54b 68bc 3698 babd d352 01bd
00000070: 303e 46bc 3b0c c2bc d711 983c d84a 13bc
00000080: be90 22bd 6a83 5abc b5b0 fcbb 6b7a a93b
00000090: 9193 d0bb 1e55 3b3d c032 b23d 268f 443d
000000a0: 8d54 593d d6b1 d93d 0cbb 833d d48b c23d
000000b0: 9f50 a23d d978 613d 31c4 ba3c 5d25 30bd
000000c0: d2a1 6d3b ad92 0fbc 310d 60bd 9d94 3d3b
000000d0: eb9a 1a3d 0574 9fbd e7ed 4dbc fad5 5d39
000000e0: 4004 453d b865 56bc 7ba9 213d f699 633d
000000f0: 377b 1fbd e00d 7e3c 8cff 983c 4cbc f23b
00000100: c4d6 7c3c c0c8 0abd 6cab d33c 7b0d 62ba
00000110: d11f 0cbd fba7 a33c bb12 e0bc 43ea 0fbd
00000120: a3cd 223d 8ad3 babb 9b6a 1cbd 13b3 653c
00000130: f12b 02b9 1d50 583b 7e7d a93d 2ec3 263b
00000140: 120b 44bc 4eea 653d c2f2 883d 97c1 a8bb
00000150: b072 393d 3315 503d 7633 d1bc d07a 3e3c
00000160: a131 a23c cf76 06bd 7fc6 5c3d 78b5 2f3d
00000170: ea62 66bd a060 3d3c bbe9 8a3d 19af 7cbd
00000180: 9ca6 9c3d 4471 863d 2f8c ebbc 5ce2 643d
00000190: 7453 883c 6f96 90bc b577 563c b302 18bb
000001a0: 6773 0ebd 7bbb a73c 7ea9 3cbc 5f18 b7bd
000001b0: cec5 1b3d 9fc6 673d ea8a 08bd d0ce 983d
000001c0: 76d0 493d e88c 3cbd 0506 503c cfd5 193d
000001d0: bee2 5b3b f2a2 933d f3d2 e6bc e49b 05bd
000001e0: f918 87bb efd0 af3c 7f7d a5bd e550 823d
000001f0: cf53 3a3b 9f89 93bd b8eb 5b3d 0a20 0e3d
00000200: eb08 d7bc a521 673d 9047 293d 5b97 69bc
00000210: efe4 e53c ddd5 e6bb bd2c 10bc 368a 60bc
00000220: d472 b33c c66a 4ebd aa5e fb3c 0e6c 3c3b
00000230: 8478 e0bc e3e9 d0bc 5c9d b8bc 096f afbc
00000240: e256 b7bb 6fbd 25bd 84df a8bd 332e 1fbd
00000250: e01b 20bd 9b2c 02be c786 223c cd20 8d3c
00000260: 10ef f1bd 58e6 0f3d aec2 bfbc 7dde 06bd
00000270: 6870 6b3b cff3 86bc 0113 c6bd 5380 a53c
00000280: 1488 77bd 69f3 91bd 7636 6f3d b28d 19bc
00000290: f662 4dbc 8ce0 0bbc fc30 81bc d1de abbd
000002a0: 4d5a 0c3d c828 393d 0291 88bd 252d f63c
000002b0: 0abc acbc 1de9 8ebd c1d9 e3bc 008f d6bc
000002c0: 217d 4ebd b520 583d bd73 0d3d 5ca9 93bd
000002d0: 41a5 d93c 042d 59bc ee4d adbd 8654 8339
000002e0: b2c9 adbb d227 2bbd 8de1 9d3c 3430 403d
000002f0: f208 a5bc 41f8 63bd ba88 02bd 52d7 57bc
00000300: 8c0b 4d3d cefc fc3c 82bc 5a3d 2b46 1e3d
00000310: 3729 8b3c 8bb7 433d 8e7a cc3c 1e93 b73c
00000320: 03e0 403b 4cac 3b3d 2405 893c 4728 25b9
00000330: 4c27 613d a3d1 0a3b 537c 61bd c84a e63c
00000340: 0fa2 a13d 9594 3bbd 134d bc3c d665 853d
00000350: ad6f 60bb 9efe 973d 98c2 623d 52af 8cbc
00000360: ecfb f9bb be9b ae3d e057 103b 6c61 883d
00000370: 006a 603d ce65 de38 a94e 363d 8b8d 1a3d
00000380: 5fe8 5c3c f26e 383d 0f13 8739 928b 63bc
00000390: b8b3 183d 81db 233d a063 90bd b049 0bbd
000003a0: 1cff fb3c 09b2 98bd a65c 463c 84f7 083d
000003b0: 4341 93bd 7ccb 7c3d a6cc c3bc 0be8 79bd
000003c0: f36a 0cbb 9bba 093b 5cb9 90bd 03ee e73c
000003d0: fa63 cf3b c9e3 96bd a9a8 2c3c 59a2 3f3c
000003e0: 5510 2abd 603b 7a3d a5ef 323c 2707 93bc
000003f0: effa a3bc d667 67bc f300 8cbd cbda a7bc

net.6.bias f4 [32]
0.0023222845 0.016646354 0.023162639 -0.02439059 -0.00023940425 -0.020576276 -0.023911867 0.019254666
0.0281357 0.031085143 -0.019044062 0.0319348 0.027003292 0.03166775 0.031136215 0.0009866563
-0.009106631 0.0013781941 0.016504873 0.039736323 -0.0074947234 0.0038103731 -0.009596937 0.01037533
0.019419746 -0.026825348 0.033430394 0.030320324 0.03304938 -0.031688064 0.035416607 -0.03778304
00000000: 7831 183b ef5d 883c 93bf bd3c c6ce c7bc
00000010: 9708 7bb9 948f a8bc d2e2 c3bc f6bb 9d3c
00000020: d77c e63c 45a6 fe3c 4b02 9cbc 11ce 023d
00000030: 0236 dd3c 0bb6 013d 6011 ff3c b152 813a
00000040: fb33 15bc 85a4 b43a 3a35 873c 8ec2 223d
00000050: 4c96 f5bb 74b7 793b 793c 1dbc 4afd 293c
00000060: 2916 9f3c d5c0 dbbc 4fee 083d 5462 f83c
00000070: c95e 073d 58cb 01bd 0111 113d 64c2 1abd

net.8.weight f4 [3, 32, 3, 3]
-0.066258915 -0.0004925821 -0.06934185 -0.0564593 0.04971701 -0.06599852 -0.112048894 0.046435542
-0.04643666 -0.06267785 -0.022217559 -0.06059913 0.0106750345 0.045347087 -0.018506061 0.055457585
0.09084286 -0.0003310665 -0.012585715 0.02582296 -0.013953635 0.039287213 0.061842173 -0.040779278
0.028719237 0.018359663 -0.050020516 -0.061860476 -0.022355644 -0.037343234 -0.1062053 -0.00044057652
0.00666974 -0.09297082 -0.032747746 0.05255874 0.0314941 0.0611883 -0.062410627 0.059113607
0.0010405317 -0.03474578 0.0120497085 -0.050258342 -0.081167564 -0.051015783 -0.046651375 0.035029985
-0.018184867 -0.038571727 0.020418763 -0.0077987635 0.030644866 -0.0017099394 -0.0400248 0.0204671
0.0073680636 -0.0029117155 -0.04153885 -0.041678373 0.05401255 0.03726327 0.018461566 0.035616208
0.015900582 0.020084279 -0.031027647 0.015627256 -0.052429065 -0.05255234 -0.05453333 -0.013013418
0.029008586 0.000818079 -0.025954323 -0.015787527 0.0086349575 0.02615335 -0.04332534 -0.06612055
-0.06325785 -0.06780576 -0.06031197 -0.057981838 -0.026993234 0.039748468 -0.011583651 -0.038346462
-0.012522098 0.003226223 0.014534125 0.053669523 -0.01869664 0.072352074 0.07448025 -0.018719107
0.04344603 0.007864558 0.018688785 0.012587463 0.030457465 0.00052295567 0.02902776 0.010273288
0.03040013 -0.048082083 0.061555214 0.024838459 -0.05753667 -0.018419502 0.08503929 -0.029543078
-0.002634202 -0.0045330757 0.029087162 0.074290834 0.05029358 0.05757845 -0.022042925 -0.021211918
0.0715841 -0.032993164 0.024302868 -0.015331089 -0.013014131 0.046835903 0.01985771 -0.05190826
0.016945973 -0.011355954 0.041431654 0.014974839 -0.029598573 -0.04999431 0.04978967 0.019338014
-0.03577763 0.040325526 0.036828447 0.02305529 0.039342236 0.0043635475 0.018504078 0.002253654
0.031879313 -0.008094032 0.07079482 -0.05196964 -0.041177183 0.029428495 0.0140927285 -0.0473459
0.04170645 -0.054672506 -0.056840226 -0.019968547 0.037216473 -0.017281372 0.040631168 0.006675114
-0.004506129 0.06700758 0.057337835 0.029302912 -0.013264894 0.036504027 0.0025110627 0.016294619
0.027520375 0.07097367 0.06466894 -0.042583533 0.03864758 -0.051029652 -0.019250909 0.002045197
0.011047938 0.02785978 0.044270784 -0.01798989 0.043558486 0.018750975 0.028013993 0.07039506
0.022834158 -0.06581886 0.037212085 0.08008187 -0.064041436 0.053533964 0.033853814 0.016491078
-0.004739448 -0.022114694 0.014853305 0.003949555 0.041005243 0.026028657 -0.111143135 -0.08662295
-0.03930252 -0.005762714 -0.02467209 -0.058680296 -0.084174775 -0.028767081 -0.04731231 -0.022277635
0.037466425 -0.03247341 0.009923283 -0.039499786 -0.06300847 0.03921544 0.0373541 -0.009933638
-0.044206847 -0.0034587986 0.087991945 -0.047315203 -0.015305693 0.038769256 -0.016516784 -0.06485375
0.014086621 0.054689214 0.05821336 0.0067084967 -0.029472895 -0.022487847 -0.007786133 -0.009901323
-0.04318612 -0.045094147 -0.038346037 -0.05297026 0.0518592 -0.012493467 0.0604544 0.055476896
0.010475844 0.042872347 0.07138647 -0.06445173 0.02298309 -0.04507026 -0.033530056 -0.037922762
-0.026386919 -0.031146226 -0.040118765 0.0152944 -0.013647164 0.080096915 0.0007958655 -0.020188963
00000000: c1b2 87bd a020 01ba 1a03 8ebd de41 67bd
00000010: 10a4 4b3d 3b2a 87bd e479 e5bd 3233 3e3d
00000020: 5e34 3ebd 3f5d 80bd 9901 b6bc cb36 78bd
00000030: 57e6 2e3c debd 393d 069a 97bc 7e27 633d
00000040: d20b ba3d fe92 adb9 5134 4ebc ac8a d33c
00000050: c99d 64bc a1eb 203d 384e 7d3d 2c08 27bd
00000060: 9b44 eb3c 0167 963c 50e2 4cbd 6961 7dbd
00000070: 2f23 b7bc 38f5 18bd 2a82 d9bd 2efd e6b9
00000080: d68d da3b 7c67 bebd 8022 06bd d547 573d
00000090: f5ff 003d 95a0 7a3d 49a2 7fbd 1c21 723d
000000a0: 7362 883a 9751 0ebd 246c 453c b1db 4dbd
000000b0: 2e3b a6bd edf5 50bd 8315 3fbd 9a7b 0f3d
000000c0: 6ef8 94bc 63fd 1dbd 4045 a73c c58c ffbb
000000d0: f10a fb3c 0c20 e0ba 0bf1 23bd 9faa a73c
000000e0: cc6f f13b 7bd2 3ebb a424 2abd f1b6 2abd
000000f0: 433c 5d3d 5fa1 183d b63c 973c 4de2 113d
00000100: f041 823c c987 a43c b12d febc bb04 803c
00000110: dcbf 56bd 1f41 57bd 575e 5fbd 3b36 55bc
00000120: 6aa3 ed3c 5a74 563a 299e d4bc d854 81bc
00000130: a379 0d3c 8d3f d63c e975 31bd 366a 87bd
00000140: 558d 81bd bfdd 8abd af09 77bd 5d7e 6dbd
00000150: ea20 ddbc 4acf 223d 5bc9 3dbc 2e11 1dbd
00000160: 7c29 4dbc 0a6f 533b 8a20 6e3c 93d4 5b3d
00000170: b229 99bc 532d 943d 1a89 983d d058 99bc
00000180: 77f4 313d 59da 003c 3919 993c a53b 4e3c
00000190: ef81 f93c f616 093a a0cb ed3c 4b51 283c
000001a0: b209 f93c b8f1 44bd 5221 7c3d 067a cb3c
000001b0: 92ab 6bbd 7fe4 96bc 1429 ae3d 5304 f2bc
000001c0: 93a2 2cbb 328a 94bb 3348 ee3c cb25 983d
000001d0: a400 4e3d 61d7 6b3d 5d93 b4bc 9ec4 adbc
000001e0: af9a 923d d723 07bd cf16 c73c 3f2f 7bbc
000001f0: 3939 55bc 01d7 3f3d a3ac a23c c19d 54bd
00000200: 48d2 8a3c 530e 3abc 3db4 293d 0759 753c
00000210: b578 f2bc d5c6 4cbd 41f0 4b3d c16a 9e3c
00000220: 908b 12bd 612c 253d 6dd9 163d 73de bc3c
00000230: 5325 213d 17fc 8e3b dd95 973c 0ab2 133b
00000240: e293 023d d59c 04bc e0fc 903d 1ede 54bd
00000250: 68a9 28bd 0714 f13c 30e5 663c c6ed 41bd
00000260: 62d4 2a3d 47f0 5fbd 4cd1 68bd 1495 a3bc
00000270: 4d70 183d aa91 8dbc de6c 263d eaba da3b
00000280: 26a8 93bb 453b 893d 14db 6a3d a90c f03c
00000290: ff54 59bc 3f85 153d a490 243b 4b7c 853c
000002a0: 6972 e13c a55a 913d 2671 843d 126c 2ebd
000002b0: ed4c 1e3d 7804 51bd 15b4 9dbc b608 063b
000002c0: 6902 353c 313a e43c 4855 353d 895f 93bc
000002d0: 626a 323d a59b 993c 9a7d e53c 492b 903d
000002e0: b30e bb3c 0acc 86bd b36b 183d f701 a43d
000002f0: 2828 83bd 6e46 5b3d 4caa 0a3d 4c18 873c
00000300: 5f4d 9bbb e029 b5bc 475b 733c 456b 813b
00000310: 1df5 273d 0d3a d53c 039f e3bd 6067 b1bd
00000320: aefb 20bd 26d5 bcbb 1f1d cabc c05a 70bd
00000330: d363 acbd f1a8 ebbc 8eca 41bd 967f b6bc
00000340: 6576 193d d702 05bd 4495 223c 87ca 21bd
00000350: 960a 81bd 5fa0 203d 9d00 193d b3c0 22bc
00000360: 3d12 35bd 03ad 62bb 1f35 b43d 96cd 41bd
00000370: bbc4 7abc 83cc 1e3d 354e 87bc 0bd2 84bd
00000380: 92cb 663c cc01 603d 2271 6e3d f3d2 db3b
00000390: 2471 f1bc 6f38 b8bc d122 ffbb 2939 22bc
000003a0: eee3 30bd a4b4 38bd bc10 1dbd 58f7 58bd
000003b0: 506a 543d 66b1 4cbc 089f 773d be3b 633d
000003c0: e0a2 2b3c ea9a 2f3d 1233 923d 45ff 83bd
000003d0: 0847 bc3c 989b 38bd d056 09bd e654 1bbd
000003e0: 6129 d8bc 5f26 ffbc 9353 24bd 5d95 7a3c
000003f0: 5b98 5fbc da09 a43d a1a1 503a 5363 a5bc

net.8.bias f4 [3]
0.012500138 0.036460217 0.028928582
00000000: 61cd 4c3c 4f57 153d a2fb ec3c
