epoch_20.pth (torch, 384277 bytes, 10 tensors)

net.0.weight f4 [64, 3, 3, 3]
0.12685248 -0.17555103 -0.03899095 0.13876887 0.06588934 -0.12041431 -0.16169155 -0.07735522
0.007034748 0.1756891 -0.08723412 0.040141523 -0.17395456 -0.03928507 -0.10117787 0.13783468
0.010540137 -0.083508775 -0.072694734 -0.13895638 -0.023763414 0.13583617 -0.012930262 -0.063089386
0.16171378 0.07807229 -0.027581006 0.04167578 0.0016610876 0.043319684 0.11106533 -0.122220166
-0.13405736 -0.14545585 -0.009934932 -0.15449566 0.1920114 0.008018162 0.07064887 0.17813203
-0.1181989 0.010796026 0.002029339 0.16049989 -0.09690259 -0.13404357 0.11515945 0.073615134
-0.017856702 -0.022223825 0.09115767 -0.01665792 -0.027998589 0.11658401 0.056902625 0.18957707
0.02166281 -0.09707338 -0.14763103 -0.17020833 0.0714615 0.10169693 -0.05947414 -0.093397476
0.1820393 -0.06860505 0.11069441 -0.103710555 -0.15286373 -0.07531627 -0.0494311 0.120824434
0.14475358 0.14939484 -0.07514749 0.04943038 -0.13043177 -0.096467294 0.08847902 -0.16015087
-0.020795487 0.18256511 0.026002292 0.11373936 0.17666008 -0.060431633 0.14218085 0.17832969
0.0089765405 0.06651583 0.09521888 0.1124624 0.004162416 -0.19194825 -0.1832044 0.03886344
0.1444225 0.040231876 0.009819125 0.101760596 0.060448423 -0.17253166 0.03861964 0.03723481
0.08794385 -0.07274512 0.08435194 0.12642935 0.09464363 0.08839922 -0.09513698 -0.02855514
-0.12735923 -0.17059518 -0.10239992 0.20850626 -0.15069708 0.07186283 0.10481308 -0.019505821
0.13953406 -0.0075546755 0.13754877 0.16300133 0.048767384 -0.012348911 0.12713246 0.087196596
-0.16856843 -0.045853987 0.13797092 -0.14127667 -0.045436647 -0.036298934 -0.17448358 0.106196806
0.16408522 -0.0985768 0.18829909 -0.14059702 -0.046698608 -0.008401263 0.1794081 -0.17272648
-0.10361768 -0.013450896 0.037662633 0.027287733 0.16530764 -0.148247 -0.08077961 -0.045457806
-0.15025897 0.11024067 0.013966214 0.15335172 -0.13724318 0.10807369 0.13175006 -0.14166157
0.053642675 0.10979037 -0.09438147 -0.15110384 -0.15380082 -0.09070053 -0.058969084 0.026359545
-0.067679286 -0.14931738 -0.07113869 -0.17273462 -0.014536276 -0.050837826 0.14959055 0.015681893
-0.060386572 0.17347464 -0.09700727 0.20110178 -0.069792815 -0.022304066 0.024216533 0.095518366
-0.05065171 0.21346247 -0.02820563 -0.12312879 0.13020557 0.15914427 -0.044781413 -0.025213612
-0.066992015 -0.03399985 -0.04662377 0.13813621 -0.074914366 -0.1415013 0.024534022 0.10860521
0.09586523 -0.055682767 -0.10414813 0.15315475 -0.085927814 -0.15013047 0.18862692 -0.09703305
0.00922488 -0.003301862 0.14576675 -0.086547 -0.062185645 0.07953039 -0.116060086 -0.12943682
0.048530847 -0.0989172 -0.10670651 -0.12612122 -0.19072069 0.12170313 -0.011935532 -0.013207048
-0.02557382 0.16652332 0.056561932 0.07361482 0.092195645 -0.114742205 -0.09398984 -0.104208894
0.11193515 -0.1068114 -0.012932196 -0.030545413 -0.011870995 -0.13611934 0.044554308 -0.09872183
-0.12918401 -0.0654203 0.012607142 -0.07688181 -0.09007816 0.13790898 -0.04813804 0.109271266
-0.14050752 0.12795141 0.07289976 0.1525195 0.032143284 0.11823898 0.15851603 -0.049335077
00000000: 9ee5 013e a6c3 33be f9b4 1fbd 6d19 0e3e
00000010: fef0 863d c79b f6bd 7892 25be 6a6c 9ebd
00000020: be83 e63b d8e7 333e cda7 b2bd 706b 243d
00000030: 2521 32be 62e9 20bd 5836 cfbd 8924 0d3e
00000040: 8ab0 2c3c a606 abbd fae0 94bd 954a 0ebe
00000050: 7eab c2bc a318 0b3e 73d9 53bc 0235 81bd
00000060: 4c98 253e 5de4 9f3d 90f1 e1bc 39b4 2a3d
00000070: dab8 d93a fb6f 313d 3876 e33d 914e fabd
00000080: 5546 09be 61f2 14be 20c6 22bc 1c34 1ebe
00000090: a39e 443e 9c5e 033c 5bb0 903d 3e68 363e
000000a0: 4412 f2bd d1e1 303c a9fe 043b 155a 243e
000000b0: dd74 c6bd b842 09be b8d8 eb3d 88c3 963d
000000c0: 3848 92bc bd0e b6bc dfb0 ba3d 3176 88bc
000000d0: 4c5d e5bc 99c3 ee3d ba12 693d 7e20 423e
000000e0: 3576 b13c 69ce c6bd 972c 17be 184b 2ebe
000000f0: 685a 923d 7b46 d03d 289b 73bd 2d47 bfbd
00000100: 8368 3a3e ce80 8cbd c0b3 e23d 3366 d4bd
00000110: 4f88 1cbe 6b3f 9abd 4478 4abd cd72 f73d
00000120: 483a 143e f6fa 183e ede6 99bd 8377 4a3d
00000130: e88f 05be a590 c5bd 7d34 b53d 97fe 23be
00000140: 4c5b aabc 59f2 3a3e c202 d53c 2ef0 e83d
00000150: 61e6 343e 2987 77bd db97 113e 0f9c 363e
00000160: 5712 133c 7439 883d 1e02 c33d b052 e63d
00000170: e064 883b 158e 44be ef99 3bbe 452f 1f3d
00000180: 7ee3 133e 2eca 243d 65e0 203c dc67 d03d
00000190: c498 773d 24ac 30be a12f 1e3d 8783 183d
000001a0: e81b b43d 65fb 94bd b6c0 ac3d b276 013e
000001b0: 85d4 c13d a60a b53d 2dd7 c2bd 78ec e9bc
000001c0: 756a 02be 81b0 2ebe 0db7 d1bd aa82 553e
000001d0: 5650 1abe d22c 933d 3da8 d63d acca 9fbc
000001e0: 04e2 0e3e 368d f7bb 96d9 0c3e d2e9 263e
000001f0: 4fc0 473d 1653 4abc 032f 023e 2194 b23d
00000200: 349d 2cbe 64d1 3bbd 4048 0d3e d5aa 10be
00000210: c71b 3abd 31ae 14bd d3ab 32be b67d d93d
00000220: f505 283e a2e2 c9bd 7ad1 403e aaf8 0fbe
00000230: 0a47 3fbd 73a5 09bc c2b6 373e 36df 30be
00000240: 8235 d4bd 2661 5cbc 2244 1a3d 868a df3c
00000250: 6846 293e 10ce 17be c86f a5bd f731 3abd
00000260: 7ddd 19be dcc5 e13d 8cd2 643c 3c08 1d3e
00000270: 7a89 0cbe bd55 dd3d 7de9 063e bb0f 11be
00000280: 6cb8 5b3d c6d9 e03d 124b c1bd f7ba 1abe
00000290: f67d 1dbe 33c1 b9bd 9189 71bd f9ef d73c
000002a0: 709b 8abd a8e6 18be 29b1 91bd 58e1 30be
000002b0: 9029 6ebc 533b 50bd 442e 193e 5077 803c
000002c0: e957 77bd 56a3 313e bfab c6bd a0ed 4d3e
000002d0: 89ef 8ebd 04b7 b6bc c061 c63c 229f c33d
000002e0: 2b78 4fbd e895 5a3e 7e0f e7bc f22a fcbd
000002f0: 9c54 053e b7f6 223e b76c 37bd c78c cebc
00000300: 1c33 89bd 6d43 0bbd 91f8 3ebd 9473 0d3e
00000310: b46c 99bd b7e5 10be 93fb c83c 696c de3d
00000320: fd54 c43d 9d13 64bd 9d4b d5bd 99d4 1c3e
00000330: ecfa afbd cdbb 19be 6a27 413e 44b9 c6bd
00000340: f323 173c 0d64 58bb e143 153e 8e3f b1bd
00000350: 60b6 7ebd d4e0 a23d e9b0 edbd 168b 04be
00000360: 48c8 463d 1a95 cabd f188 dabd ec25 01be
00000370: 494c 43be 7e3f f93d 408d 43bc 6062 58bc
00000380: 3080 d1bc 1785 2a3e 7cad 673d 5ec3 963d
00000390: 12d1 bc3d f6fd eabd bf7d c0bd 796b d5bd
000003a0: 423e e53d efbf dabd 90e1 53bc 603a fabc
000003b0: 907e 42bc de62 0bbe 947e 363d ac2e cabd
000003c0: d048 04be 14fb 85bd 308e 4e3c 3674 9dbd
000003d0: e67a b8bd 0338 0d3e 652c 45bd 9dc9 df3d
000003e0: 34e1 0fbe b205 033e 784c 953d 122e 1c3e
000003f0: ada8 033d 4727 f23d 0752 223e 9413 4abd

net.0.bias f4 [64]
0.14804469 0.020898497 0.12466475 0.07122577 -0.077002905 -0.10718984 0.08948301 0.12998116
-0.08720704 -0.15874262 -0.1490314 -0.034545094 0.09535903 0.14337324 0.10869236 -0.09023396
-0.07283993 -0.13836958 -0.10096985 0.10005829 -0.15201934 -0.1204921 0.11277771 -0.102875635
0.16238324 0.017435974 -0.0360909 0.10693647 -0.0042454046 0.15379314 0.09959009 0.13817857
0.007417472 -0.12964454 -0.014528774 0.067093365 -0.071385056 0.006192139 0.11037719 -0.119618945
0.1329211 -0.13149595 0.007164611 0.06466146 -0.012751725 0.1466956 0.10845841 -0.020412758
-0.030910317 0.18010145 0.16950823 -0.10674682 -0.0143718375 0.033208106 0.10083849 0.1364421
-0.14141287 -0.15407598 0.011345566 -0.074706525 -0.01255756 0.060994186 0.022227522 -0.11151352
00000000: 0799 173e 5333 ab3c 3c50 ff3d d1de 913d
00000010: b3b3 9dbd 5986 dbbd de42 b73d c819 053e
00000020: 9b99 b2bd 6d8d 22be b09b 18be 287f 0dbd
00000030: 984b c33d 6fd0 123e 1a9a de3d 95cc b8bd
00000040: 1a2d 95bd c1b0 0dbe 48c9 cebd 5ceb cc3d
00000050: f5aa 1bbe 90c4 f6bd 00f8 e63d 76b0 d2bd
00000060: cb47 263e e3d5 8e3c 0dd4 13bd 8201 db3d
00000070: 091d 8bbb f37b 1d3e e4f5 cb3d af7e 0d3e
00000080: 440e f33b 8ac1 04be 180a 6ebc 3f68 893d
00000090: 5432 92bd 6de7 ca3b 700d e23d c7fa f4bd
000000a0: 781c 083e e0a6 06be 1dc5 ea3b 3a6d 843d
000000b0: 9cec 50bc 5f37 163e 711f de3d a838 a7bc
000000c0: a237 fdbc 846c 383e 9193 2d3e 149e dabd
000000d0: db77 6bbc 3905 083d 6984 ce3d 7ab7 0b3e
000000e0: 89ce 10be 18c6 1dbe c1e2 393c bcff 98bd
000000f0: 39be 4dbc 0ad5 793d 7e16 b63c 3361 e4bd

net.2.weight f4 [64, 64, 3, 3]
0.0073591787 0.0051607178 -0.025315495 -0.046583455 -0.0059839436 0.011105517 -0.0009172651 0.010215731
-0.017069299 -0.013446652 -0.036487024 -0.034187127 -0.014469558 -0.016107036 -0.0077625634 -0.01419601
-0.041340165 0.03949249 -0.091966264 -0.0067384634 -0.056447487 -0.054249123 0.009123625 -0.005620872
-0.015010523 0.022014393 0.027860237 -0.040554408 0.019786047 0.0022206274 0.027217867 -0.039122064
0.015405201 0.024092646 0.005332306 0.014980796 -0.0068691643 0.07147869 -0.008364232 0.05247624
0.023633333 0.0063375975 0.0025989555 0.041706152 -0.02771214 -0.0024905938 -0.031173013 -0.032313317
-0.017768843 -0.025797568 -0.024823517 0.034899242 0.059088275 0.03412252 0.068392135 -0.013748997
-0.013331776 0.052158434 0.041118607 0.025248835 0.07096293 0.052636515 -0.0045797518 -0.036001083
-0.0027444258 0.0014444613 -0.0037417754 -0.06547497 -0.0048748753 0.014822083 0.012829071 0.020079467
-0.0007057227 -0.036669176 -0.020045172 -0.020548832 -0.0061103255 0.036274765 0.041377556 -0.007939685
0.0014004372 0.017595647 -0.004353473 -0.05795508 -0.024912909 -0.0318997 -0.01778172 -0.03609573
-0.03401729 0.011504894 -0.01281585 0.0071370793 -0.032378513 0.020911535 0.0391614 -0.034461632
0.024347808 0.04103802 0.025155256 -0.010741773 -0.01119522 0.013649867 0.05015871 0.020914251
0.019123824 0.051285665 0.031000039 -0.01946894 0.0045318278 0.0299614 -0.023035932 -0.031282894
-0.03871287 -0.026806211 0.032171663 0.038913235 -0.003950543 -0.027585689 -0.017940367 0.009943108
0.011895035 0.008219693 0.0028833328 -0.0407552 0.013784249 -0.0211283 0.02189364 -0.05552131
-0.01449938 -0.050672755 -0.02784873 -0.018808214 -0.009460584 -0.028095432 0.0036369527 0.019669851
-0.033157803 -0.028086424 -0.014617893 0.03728353 -0.02620931 0.030394286 -0.0016626529 0.0031250203
0.0237198 -0.04411416 -0.03685134 -0.031040376 0.008847917 -0.014649728 -0.008366987 -0.0073663155
0.039189376 0.013783485 0.027077507 0.028694484 -0.03241078 -0.0016434602 -0.03390549 -0.0241122
0.00030935928 0.024653751 0.020907471 0.037879482 -0.01238654 0.014956043 0.010009443 0.034361277
0.013216161 0.03206356 -0.020099198 -0.0061669517 -0.0053267013 -0.040710006 -0.024328316 -0.033540644
-0.04697162 0.036775894 -0.035972472 0.016453726 -0.012956259 -0.03951709 -0.038120475 -0.011364627
0.019727211 -0.007225565 0.018818084 -0.012035104 -0.0035010485 0.04485969 -0.0049528508 0.048654564
-0.016489405 0.058487512 -0.028198833 0.007684188 -0.015877295 0.0062594116 0.03832123 -0.012287612
0.0047680684 0.0049594375 -0.028503114 -0.009444557 -0.0023101289 0.002708147 -0.023266437 -0.03206893
0.018701565 0.0058127344 0.0012815692 -0.025602356 -0.034449376 0.01661423 0.016295051 0.008179625
-0.031522296 -0.034642626 -0.009367557 -0.031300597 0.010087529 0.009605768 -0.034781873 -0.02102615
-0.03100408 0.010747094 -0.035466127 0.03364877 0.013895467 -0.018238349 -0.0049644224 0.008720841
-0.04012064 -0.01949292 0.011808778 -0.023101976 0.017850384 0.023429776 0.0018405488 -0.014793327
-0.015682738 0.039343 0.04703134 -0.00041341802 -0.012676293 0.014792258 0.041478824 0.022047557
-0.018514298 -0.0028316546 0.024920749 -0.041362118 0.033045772 -0.026076106 -0.01548976 -0.011343491
00000000: 4425 f13b 3d1b a93b 7162 cfbc 4bce 3ebd
00000010: f514 c4bb eaf3 353c 9e74 70ba e25f 273c
00000020: ead4 8bbc 594f 5cbc 6b73 15bd cd07 0cbd
00000030: ba11 6dbc e7f2 83bc 1a5d febb 6296 68bc
00000040: 4e54 29bd e1c2 213d cf58 bcbd 54ce dcbb
00000050: 7b35 67bd 5434 5ebd 427b 153c 4b2f b8bb
00000060: b2ee 75bc 8757 b43c 273b e43c 611c 26bd
00000070: 5916 a23c f287 113b 01f8 de3c 753e 20bd
00000080: 1966 7c3c f15d c53c a0ba ae3b 0372 753c
00000090: ba16 e1bb 6b63 923d 220a 09bc 53f1 563d
000000a0: b19a c13c 9fab cf3b 3d53 2a3b 12d4 2a3d
000000b0: 9204 e3bc 3b39 23bb 8c5e ffbc f85a 04bd
000000c0: f78f 91bc 6c55 d3bc b05a cbbc 82f2 0e3d
000000d0: 8c06 723d 0ec4 0b3d 2d11 8c3d 7943 61bc
000000e0: 856d 5abc 15a4 553d fc6b 283d a5d6 ce3c
000000f0: 0355 913d 6399 573d be11 96bb df75 13bd
00000100: d3db 33bb 1454 bd3a 9338 75bb be17 86bd
00000110: 6bbd 9fbb 52d8 723c 0631 523c b27d a43c
00000120: 4000 39ba 6b32 16bd c635 a4bc 0656 a8bc
00000130: 2039 c8bb d994 143d 837b 293d 7415 02bc
00000140: e08e b73a bf24 903c 94a7 8ebb 4e62 6dbd
00000150: 2816 ccbc 43a9 02bd f8aa 91bc 1ed9 13bd
00000160: b755 0bbd 067f 3c3c 92f9 51bc 29de e93b
00000170: 559f 04bd ab4e ab3c b467 203d a427 0dbd
00000180: 0e75 c73c 7c17 283d 6512 ce3c 43fe 2fbc
00000190: 286c 37bc b1a3 5f3c 3873 4d3d 5d54 ab3c
000001a0: 91a9 9c3c eb10 523d cbf3 fd3c 547d 9fbc
000001b0: ba7f 943b 9c71 f53c dab5 bcbc 7e22 00bd
000001c0: 6391 1ebd b398 dbbc 6fc6 033d 7c63 1f3d
000001d0: 8e73 81bb 62fb e1bc adf7 92bc 6be8 223c
000001e0: 65e3 423c e4ab 063c 4cf6 3c3b edee 26bd
000001f0: 55d7 613c 4215 adbc 4a5a b33c 506a 63bd
00000200: cf8e 6dbc 3c8e 4fbd 0523 e4bc af13 9abc
00000210: 9100 1bbc 6428 e6bc f159 6e3b ab22 a13c
00000220: 7ad0 07bd 8015 e6bc e37f 6fbc 9db6 183d
00000230: e8b4 d6bc 70fd f83c 60ed d9ba 24cd 4c3b
00000240: 0750 c23c 0db1 34bd 6ef1 16bd 6348 febc
00000250: dbf6 103c 6a05 70bc b015 09bc 2261 f1bb
00000260: 0a85 203d 20d4 613c a6d1 dd3c b210 eb3c
00000270: 2bc1 04bd 6069 d7ba 7ce0 0abd f386 c5bc
00000280: 8031 a239 aaf6 c93c 2546 ab3c 8427 1b3d
00000290: eaf0 4abc 310a 753c a6fe 233c 69be 0c3d
000002a0: 9988 583c 1455 033d 13a7 a4bc 2414 cabb
000002b0: 9c8b aebb 89bf 26bd 2d4c c7bc ea61 09bd
000002c0: 5065 40bd 52a2 163d df57 13bd f7c9 863c
000002d0: 7d46 54bc acdc 21bd 3724 1cbd b332 3abc
000002e0: f69a a13c 6fc4 ecbb 6228 9a3c e32e 45bc
000002f0: d971 65bb cbbe 373d 864b a2bb 024a 473d
00000300: ca14 87bc 9a90 6f3d 3d01 e7bc a4cb fb3b
00000310: 1a11 82bc c01b cd3b b9f6 1c3d fb51 49bc
00000320: 753d 9c3b c782 a23b 5d7f e9bc 58bd 1abc
00000330: 8865 17bb 2b7b 313b 4199 bebc b65a 03bd
00000340: 0634 993c c078 be3b 54fa a73a 08bc d1bc
00000350: ca1a 0dbd 911a 883c 337d 853c d503 063c
00000360: 861d 01bd 6de5 0dbd 627a 19bc 0e35 00bd
00000370: 2a46 253c 8361 1d3c 7077 0ebd 083f acbc
00000380: 45fc fdbc 9414 303c ee44 11bd 4bd3 093d
00000390: d0a9 633c 9768 95bc 98ac a2bb dce1 0e3c
000003a0: 8a55 24bd 9eaf 9fbc 9b79 413c 5b40 bdbc
000003b0: f83a 923c cdef bf3c 923e f13a b65f 72bc
000003c0: 1679 80bc 2026 213d efa3 403d 07c0 d8b9
000003d0: 3ab0 4fbc 3a5b 723c b3e5 293d 149d b43c
000003e0: 4cab 97bc 4893 39bb 9926 cc3c 536b 29bd
000003f0: 015b 073d 8f9d d5bc c3c8 7dbc 0dda 39bc

net.2.bias f4 [64]
-0.02823637 -0.044497624 -0.027781172 -0.026039463 0.007797878 0.030952487 0.029165605 -0.02852544
0.0063628643 0.005446235 0.0040725097 0.0016750721 0.029761678 -0.033361465 0.0057051037 -0.015393008
-0.0002723371 0.02544348 -0.02453166 -0.034232117 -0.0007628347 0.019745074 -0.040156372 0.03870734
-0.012594223 -0.017400108 0.016261771 0.020500857 0.0354947 -0.020796891 0.035850003 -0.017984893
-0.0122431 -0.0049439417 0.002400238 0.005653103 -0.027851524 -0.0041275024 0.033229508 0.008440387
0.028379904 0.037570816 -0.03826191 -0.0010847613 -0.028966067 0.03463964 0.035766758 -0.032834258
0.034683578 -0.025157928 0.01632273 -0.017284602 0.026557468 -0.015949985 0.007297873 0.040034268
-0.02512657 0.019187586 0.036385622 0.030925464 -0.002307277 0.025109192 -0.04029715 -0.010343927
00000000: f64f e7bc 2443 36bd 5795 e3bc b650 d5bc
00000010: 5785 ff3b 1290 fd3c b5ec ee3c 2fae e9bc
00000020: 937f d03b 5576 b23b b072 853b 188e db3a
00000030: c3ce f33c 08a6 08bd e1f1 ba3b f432 7cbc
00000040: 78c8 8eb9 d86e d03c 9ff6 c8bc fa36 0cbd
00000050: f8f8 47ba 6cc0 a13c 027b 24bd 968b 1e3d
00000060: 0058 4ebc ac8a 8ebc 6837 853c 6af1 a73c
00000070: e462 113d 3e5e aabc 74d7 123d 0e55 93bc
00000080: 4997 48bc ca00 a2bb 504d 1d3b aa3d b93b
00000090: e128 e4bc 0040 87bb aa1b 083d 8d49 0a3c
000000a0: f97c e83c dbe3 193d 85b8 1cbd 8d2e 8eba
000000b0: 3f4a edbc 4ce2 0d3d 2a80 123d 377d 06bd
000000c0: 5e10 0e3d 0018 cebc 3fb7 853c 7098 8dbc
000000d0: 0c8f d93c 8ba9 82bc ff22 ef3b f9fa 233d
000000e0: 3dd6 cdbc 492f 9d3c 1709 153d 6657 fd3c
000000f0: af35 17bb cbb1 cd3c a00e 25bd 9379 29bc

net.4.weight f4 [64, 64, 3, 3]
0.007594268 0.03834383 0.012359002 0.014988214 0.018040493 -0.031246023 0.037448023 0.046109647
-0.031476863 -0.0024323203 -0.019192168 -0.013695289 0.0047468045 0.030476684 0.029787239 -0.0010381767
-0.019847114 -0.018076677 0.030147726 0.029014219 -0.020231731 0.0318149 -0.014079886 -0.0064219087
0.01913673 0.008721249 -0.01923549 0.029934537 -0.020748328 -0.010846879 -0.022796717 0.022399943
-0.03382958 -0.013314938 0.006974403 0.00082914904 0.027286049 0.008326984 0.004594066 0.03394238
-0.0384515 -0.011702154 0.0026039435 0.0385865 -0.007876954 0.013085731 -0.019887626 0.056756027
-0.030675314 0.0030671256 0.009539278 -0.019234901 -0.008675051 0.024975851 -0.005064485 0.022464652
-0.013398013 0.034280296 0.037747834 0.06493825 -4.5295918e-05 0.0033021034 0.04944975 0.035687484
0.064368345 0.05041738 0.024219407 0.08340748 0.029939491 0.076026894 0.05628743 0.053969797
0.0028743278 0.015074913 -0.0058909184 -0.04388357 0.019796357 0.030132724 0.024079446 0.024616735
-0.014445698 0.03978599 0.042718157 0.014812396 -0.002714603 0.04029914 0.046617765 -0.00920426
-0.03110624 0.021139903 0.054068517 0.045303635 0.020144014 -0.014083491 0.025513776 -0.002635653
0.016414851 -0.0018912206 0.023572335 0.004619731 0.021617869 -0.0079670735 -0.024714239 0.0058149574
0.03576452 -0.015389029 -0.014632187 -0.058993194 0.023055889 -0.026149252 0.02821469 0.023106735
-0.009199427 -0.029229345 0.023321621 -0.023593845 0.0056935395 0.021814164 -0.018222673 -0.015035185
-0.0027565192 -0.019076958 -0.034817718 -0.010886538 0.024149315 0.009366317 -0.021534272 -0.03185618
-0.0041589965 0.020533644 0.026861744 -0.02602269 -0.009039548 -0.004745078 -0.020744551 0.0067005837
0.011387203 -0.005207429 -0.011804253 0.001859625 0.023969172 -0.025900656 0.015276305 0.040229436
0.04668848 0.0494692 0.04716029 0.076740414 -0.0047056256 0.07225283 0.007110136 0.03293229
0.056208953 0.03312747 0.029101314 0.035029612 0.013437475 0.023640675 0.045611996 0.015569167
-0.011125244 0.026468841 -0.025682539 0.013875751 -0.019257728 0.009336478 0.0059244605 -0.0033700329
-0.00425571 -0.011212992 -0.020472422 -0.024352685 0.026630538 -0.030663928 0.03296545 -0.0346978
-0.02142033 0.00037973587 -0.02584794 0.031893067 -0.026905505 0.035929583 -0.035395253 0.051857937
0.092784286 0.014950741 0.032223653 0.08416239 0.036834072 0.007120149 0.038132124 0.05458156
-0.029131822 -0.03125622 0.047842115 -0.02669093 0.032747988 0.025267486 0.021288417 -0.02854345
-0.09289766 -0.039634775 -0.009039818 -0.025192942 -0.02141334 -0.00054036564 -0.015664449 0.021670505
0.020845918 0.025514595 0.02357503 0.018640662 -0.003093932 -0.0035239458 0.010822745 -0.02366079
-0.027309159 0.009448942 0.033376124 -0.019320622 0.034707975 0.017068489 0.028350905 0.012196224
0.010215938 -0.03888697 0.02837976 0.008398263 -0.035333153 -0.022691967 -0.010604186 -0.0058785146
-0.003465947 -0.013071722 -0.029307146 -0.034829643 -0.0004349563 0.023212403 0.021817824 -0.019413501
-0.020236487 -0.010008758 0.028774692 0.007983652 0.07596817 0.055010192 0.000942759 0.055043947
0.04472213 -0.03046737 0.03770866 0.012888512 -0.00018502392 0.01707993 -0.017636292 -0.03133809
00000000: 56d9 f83b 6b0e 1d3d 697d 4a3c 2091 753c
00000010: a8c9 933c a9f7 ffbc 1963 193d 78dd 3c3d
00000020: e2ed 00bd 9067 1fbb e538 9dbc 3562 60bc
00000030: 158b 9b3b 3daa f93c 5e04 f43c 6e13 88ba
00000040: 6a96 a2bc 8a15 94bc 5df8 f63c 3aaf ed3c
00000050: 04bd a5bc 5750 023d 52af 66bc e06e d2bb
00000060: a2c4 9c3c 92e3 0e3c bf93 9dbc 4639 f53c
00000070: 66f8 a9bc 1cb7 31bc 2ec0 babc 1680 b73c
00000080: e390 0abd e626 5abc 8889 e43b 405b 593a
00000090: fe86 df3c e76d 083c d289 963b 2a07 0b3d
000000a0: 527f 1dbd 64ba 3fbc eca6 2a3b e10c 1e3d
000000b0: 570e 01bc 8965 563c 60eb a2bc 0279 683d
000000c0: cc4a fbbc d401 493b a24a 1c3c 8392 9dbc
000000d0: cd21 0ebc 289a cc3c fbf3 a5bb ca07 b83c
000000e0: 5783 5bbc 7f69 0c3d 799d 1a3d 58fe 843d
000000f0: 1ffc 3db8 1a68 583b d28b 4a3d 0a2d 123d
00000100: 8dd3 833d 7482 4e3d c767 c63c 8ad1 aa3d
00000110: aa43 f53c fdb3 9b3d a68d 663d 6f0f 5d3d
00000120: 385f 3c3b c5fc 763c 9b08 c1bb 42bf 33bd
00000130: f82b a23c e7d8 f63c 4242 c53c 09a9 c93c
00000140: a6ad 6cbc a2f6 223d 3cf9 2e3d b1af 723c
00000150: 7be7 31bb b610 253d 45f2 3e3d 77cd 16bc
00000160: 83d2 febc 972d ad3c f376 5d3d 4e90 393d
00000170: 0f05 a53c 71be 66bc 4402 d13c ebba 2cbb
00000180: 7078 863c d5e2 f7ba c51a c13c 1d61 973b
00000190: f517 b13c 5488 02bc 8475 cabc 668b be3b
000001a0: d17d 123d 4422 7cbc d7bb 6fbc d9a2 71bd
000001b0: b4df bc3c f536 d6bc 7e22 e73c 564a bd3c
000001c0: 32b9 16bc 6172 efbc fc0c bf3c e147 c1bc
000001d0: df90 ba3b 9eb3 b23c b747 95bc 2356 76bc
000001e0: b8a6 34bb 4847 9cbc 069d 0ebd 735d 32bc
000001f0: c9d4 c53c 2e75 193c a468 b0bc a07b 02bd
00000200: 3148 88bb 2c36 a83c 290d dc3c 892d d5bc
00000210: 9d1a 14bc 997c 9bbb 7af0 a9bc 9290 db3b
00000220: 6491 3a3c 15a3 aabb a066 41bc a9be f33a
00000230: ff5a c43c 9d2d d4bc 7849 7a3c 9fc7 243d
00000240: 6b3c 3f3d 37a0 4a3d 262b 413d 142a 9d3d
00000250: a631 9abb 4bf9 933d 25fc e83b 02e4 063d
00000260: 5c3b 663d acb0 073d e165 ee3c 367b 0f3d
00000270: db28 5c3c 17aa c13c a5d3 3a3d d215 7f3c
00000280: a846 36bc 2fd5 d83c 3064 d2bc 1e57 633c
00000290: 62c2 9dbc 07f8 183c fa21 c23b c5db 5cbb
000002a0: 7c73 8bbb b2b6 37bc c8b5 a7bc 487f c7bc
000002b0: 4928 da3c eb32 fbbc c806 073d 481f 0ebd
000002c0: b079 afbc 4917 c739 0fbf d3bc 4ea2 023d
000002d0: ef68 dcbc e62a 133d 9dfa 10bd fd68 543d
000002e0: b005 be3d f4f3 743c f3fc 033d 555d ac3d
000002f0: 53df 163d 2450 e93b 6e30 1c3d ea90 5f3d
00000300: dca5 eebc 8606 00bd 18f6 433d f0a6 dabc
00000310: c122 063d c2fd ce3c 0c65 ae3c f4d3 e9bc
00000320: 2141 bebd 1358 22bd bf1b 14bc 6e61 cebc
00000330: 076b afbc 53a7 0dba bb52 80bc 5886 b13c
00000340: 0fc5 aa3c fc03 d13c 6c20 c13c 4db4 983c
00000350: 91c3 4abb 00f2 66bb e251 313c 46d4 c1bc
00000360: 75b7 dfbc bccf 1a3c 67b5 083d 4846 9ebc
00000370: f329 0e3d 37d3 8b3c 2840 e83c acd2 473c
00000380: c060 273c f247 1fbd ac7c e83c de98 093c
00000390: 7fb9 10bd 81e4 b9bc 2ebd 2dbc 8ea0 c0bb
000003a0: f124 63bb c72a 56bc 8a15 f0bc 87a9 0ebd
000003b0: d90a e4b9 f027 be3c 4bbb b23c 1009 9fbc
000003c0: fdc6 a5bc c6fb 23bc e7b8 eb3c ddcd 023c
000003d0: 3395 9b3d 5e52 613d 7c23 773a c375 613d
000003e0: 8d2e 373d b596 f9bc 6574 1a3d 562a 533c
000003f0: fb02 42b9 36eb 8b3c fc79 90bc 5e5c 00bd

net.4.bias f4 [64]
-0.012915599 -0.01947448 -0.02892609 -0.01599048 0.017929038 -0.017009605 -0.01200048 0.042473864
0.018992078 -0.0362047 -0.03607086 -0.00422336 -0.010975073 -0.030273462 0.01737628 0.035002373
0.02918034 -0.02604698 0.033043668 0.039973795 0.018997895 -0.02730489 0.035546172 0.031118987
-0.035482902 -0.02707107 -0.04119797 -0.032911357 0.0026526356 0.0060613477 -0.00043008244 -0.03838857
0.0120734675 -0.03693504 0.027976707 0.006904372 -0.023948468 0.025213532 -0.012908982 0.03685458
-0.024216484 -0.022672007 -0.0050664605 -0.027328698 -0.0046272976 0.022059929 -0.043725543 -0.041860074
0.012594632 0.024876947 0.028007394 -0.01402981 -0.02244098 -0.032006796 0.020284794 0.031399317
-0.0038721757 0.016850295 0.026468953 0.016958944 0.0071874596 0.038578555 -0.029339304 0.020006651
00000000: f39b 53bc f288 9fbc 68f6 ecbc 78fe 82bc
00000010: ebdf 923c ba57 8bbc a99d 44bc 13f9 2d3d
00000020: 4695 9b3c 614b 14bd 0abf 13bd 1d64 8abb
00000030: cbd0 33bc 0d00 f8bc b358 8e3c a65e 0f3d
00000040: 9c0b ef3c 7a60 d5bc cc58 073d 90bb 233d
00000050: 79a1 9b3c 81ae dfbc dd98 113d 3fed fe3c
00000060: 8556 11bd 26c4 ddbc 34bf 28bd 0fce 06bd
00000070: d7d7 2d3b 459e c63b b07c e1b9 553d 1dbd
00000080: cbcf 453c 3249 17bd 682f e53c 123e e23b
00000090: 942f c4bc 9c8c ce3c 3280 53bc d4f4 163d
000000a0: a661 c6bc a5ba b9bc 8d04 a6bb 6fe0 dfbc
000000b0: 96a0 97bb 06b7 b43c 8e19 33bd 7875 2bbd
000000c0: b759 4e3c bdca cb3c c36f e53c 4add 65bc
000000d0: 25d6 b7bc 8f19 03bd 4c2c a63c 929c 003d
000000e0: 54c4 7dbb a109 8a3c 6bd5 d83c 7ced 8a3c
000000f0: c884 eb3b 8c04 1e3d fb58 f0bc fde4 a33c

net.6.weight f4 [32, 64, 3, 3]
0.016940229 -0.004804494 0.02980098 -0.023049984 -0.019205008 0.006415911 -0.052220248 -0.025339171
-0.022031823 -0.00057534483 0.008515946 -0.068111025 0.0077091977 0.0070617627 -0.025666278 -0.0045753303
-0.0041406285 -0.03238727 -0.014946503 -0.013048652 -0.07981874 0.014369633 0.03752435 -0.061315224
-0.0028282925 -0.024406115 -0.09280211 -0.031573128 -0.012099788 -0.023687473 0.018570391 -0.008957987
-0.03968882 -0.013322308 -0.007653801 0.005172064 -0.005955709 0.047719788 0.08573609 0.052783478
0.059032865 0.1089582 0.07558564 0.10788287 0.08914582 0.051433824 0.021474084 -0.045311257
-0.0040542344 -0.012075081 -0.05508982 -0.0048545273 0.033842694 -0.077692635 -0.0065526334 0.008646964
0.060039803 -0.009842275 0.050001293 0.0717925 -0.030910326 0.03293402 0.0411106 0.005613822
0.011305754 -0.04038463 0.023381576 -0.0051164404 -0.03977174 0.019425184 -0.029728992 -0.03853376
0.036337424 -0.0115539115 -0.048541483 0.0130112525 -0.0033383875 -0.0041839113 0.08142861 -2.3011487e-05
-0.017902844 0.06088132 0.07024383 -0.0010118679 0.04389126 0.04881256 -0.025863977 0.008575228
0.01712444 -0.033813402 0.059347667 0.04959344 -0.038825117 0.011709051 0.06971662 -0.047570456
0.0748433 0.06418616 -0.020606088 0.048851825 0.009951834 -0.0206248 0.008195541 -0.0059445165
-0.03378016 0.020197298 -0.010350287 -0.08377798 0.035505217 0.058465935 -0.019758504 0.069018446
0.049923047 -0.030705154 0.010070986 0.041096278 0.021188503 0.072381474 -0.031120125 -0.039033156
-0.0032306104 0.019883163 -0.085016355 0.064064115 0.0011947879 -0.07594794 0.057796996 0.04004769
-0.01769518 0.05489152 0.04153637 -0.0093782805 0.025255192 -0.010319988 -0.009892919 -0.0070713623
0.024626179 -0.048795443 0.040554598 0.009180051 -0.020544568 -0.014066463 -0.01709544 -0.01596669
0.015373172 -0.013987335 -0.04005121 -0.011554527 -0.0035327978 -0.07148653 0.033398103 0.044426113
-0.07454867 0.038934816 -0.017265506 -0.024690095 -0.0011599116 -0.016189527 -0.09111206 0.008266615
-0.06626979 -0.07181698 0.054250948 -0.011519475 -0.009581514 -0.01091134 -0.015612713 -0.07711631
0.036530633 0.050069142 -0.055110615 0.039572507 -0.013010535 -0.063858725 -0.025628962 -0.024959413
-0.04853606 0.05030622 0.028920075 -0.07695663 0.026586233 -0.013443405 -0.076239094 -0.0057547847
-0.01003923 -0.035590306 0.011455224 0.03936325 -0.018690687 -0.0139818145 0.01721941 0.027584476
0.05653514 0.04269307 0.0608091 0.025180018 0.010755438 0.027328605 0.019520551 0.016997311
-0.0021013657 0.03958445 0.0114184255 -0.0038373321 0.051819555 0.0008618113 -0.053686284 0.02534746
0.07395324 -0.057113413 0.024142513 0.06328761 -0.011782283 0.07371216 0.050593752 -0.028714756
-0.005982776 0.09739845 0.025101207 0.051788993 0.052086048 0.002600189 0.02810677 0.030510431
0.004831385 0.04416927 -0.0032895948 -0.020286838 0.042727776 0.04465072 -0.067154594 -0.025201537
0.038027287 -0.068397835 0.017527035 0.04205374 -0.05109664 0.05864803 -0.019171406 -0.04065402
-0.008174596 0.0049899262 -0.05369639 0.030973246 0.012962385 -0.058503196 0.0014743974 0.009361757
-0.03345036 0.045409966 0.0019764593 -0.017294139 -0.013858039 -0.011548563 -0.06254611 -0.025818707
00000000: 3cc6 8a3c 046f 9dbb 2f21 f43c 52d3 bcbc
00000010: d253 9dbc 903c d23b e6e4 55bd 1894 cfbc
00000020: 157c b4bc bdd2 16ba 7786 0b3c cb7d 8bbd
00000030: 709d fc3b 5c66 e73b 1642 d2bc a7ec 95bb
00000040: 1cae 87bb 84a8 04bd 2de2 74bc 03ca 55bc
00000050: 0278 a3bd 9c6e 6b3c 22b3 193d ac25 7bbd
00000060: e05a 39bb 55ef c7bc 080f bebd d352 01bd
00000070: 303e 46bc 3b0c c2bc ef20 983c 85c4 12bc
00000080: be90 22bd cf45 5abc bccc fabb 6b7a a93b
00000090: 1c28 c3bb d375 433d 6796 af3d 7d33 583d
000000a0: 72cc 713d 7a25 df3d a5cc 9a3d b2f1 dc3d
000000b0: 1592 b63d 46ac 523d 6bea af3c 4c98 39bd
000000c0: 62d9 84bb 8fd6 45bc dda5 61bd ba12 9fbb
000000d0: a39e 0a3d 511d 9fbd 79b7 d6bb ffab 0d3c
000000e0: 4cec 753d 7e41 21bc 28ce 4c3d f207 933d
000000f0: a737 fdbc d3e5 063d 9763 283d 27f4 b73b
00000100: c53b 393c 5b6a 25bd b88a bf3c d0a7 a7bb
00000110: b1e7 22bd 9021 9f3c 378a f3bc 93d5 1dbd
00000120: 8dd6 143d 9e4c 3dbc 6fd3 46bd 262d 553c
00000130: d9c8 5abb 3119 89bb 0bc4 a63d cb08 c1b7
00000140: fca8 92bc b15e 793d ffdb 8f3d a7a0 84ba
00000150: 52c7 333d aeef 473d b1e0 d3bc 1d7f 0c3c
00000160: 8e48 8c3c ec7f 0abd 8a16 733d 7e22 4b3d
00000170: 1607 1fbd 52d7 3f3c 96c7 8e3d 3dd9 42bd
00000180: 7247 993d 0974 833d 19ce a8bc da18 483d
00000190: 040d 233c 57f5 a8bc 9746 063c 38ca c2bb
000001a0: 115d 0abd ce74 a53c 4094 29bc ca93 abbd
000001b0: eb6d 113d fa79 6f3d 96dc a1bc 8b59 8d3d
000001c0: 1c7c 4c3d 6089 fbbc c700 253c 9254 283d
000001d0: 8393 ad3c bd3c 943d a2ef febc 3be1 1fbd
000001e0: a6b8 53bb 04e2 a23c 0e1d aebd 0c34 833d
000001f0: 6e9a 9c3a 988a 9bbd 8bbc 6c3d 0c09 243d
00000200: 7bf5 90bc eed5 603d 0a22 2a3d 5ca7 19bc
00000210: fae3 ce3c 2b15 29bc e915 22bc e3b6 e7bb
00000220: d7bc c93c bbdd 47bd 941c 263d ed67 163c
00000230: 154d a8bc 0677 66bc bc0b 8cbc 93cc 82bc
00000240: c2df 7b3c 232b 65bc bd0c 24bd 334f 3dbc
00000250: 8386 67bb 8867 92bd 73cc 083d 28f8 353d
00000260: f9ac 98bd 1d7a 1f3d 6470 8dbc e242 cabc
00000270: 2d08 98ba e69f 84bc f698 babd b270 073c
00000280: 75b8 87bd c814 93bd 3e36 5e3d 2ebc 3cbc
00000290: c8fb 1cbc 7ac5 32bc 77cc 7fbc 28ef 9dbd
000002a0: 25a1 153d 4d15 4d3d abbb 61bd c816 223d
000002b0: 242a 55bc 5dc8 82bd d4f3 d1bc af77 ccbc
000002c0: bfcd 46bd e50d 4e3d cbe9 ec3c 709b 9dbd
000002d0: 5fcb d93c ba41 5cbc 3e23 9cbd a292 bcbb
000002e0: 957b 24bc 24c7 11bd b1ae 3b3c 5c3b 213d
000002f0: 361d 99bc fb13 65bc b80f 8d3c d7f8 e13c
00000300: 6491 673d eede 2e3d f612 793d 5346 ce3c
00000310: 9437 303c 3de0 df3c 90e9 9f3c f23d 8b3c
00000320: 11b7 09bb 4e23 223d 5914 3b3c c07b 7bbb
00000330: be40 543d 2deb 613a 26e6 5bbd 7aa5 cf3c
00000340: cc74 973d c1ef 69bd 85c6 c53c ef9c 813d
00000350: 7a0a 41bc 67f6 963d 653b 4f3d 353b ebbc
00000360: 2a0b c4bb d778 c73d 0ca1 cd3c b220 543d
00000370: 2e58 553d ef67 2a3b 2b40 e63c 03f1 f93c
00000380: 9850 9e3b d6ea 343d 3e96 57bb 9530 a6bc
00000390: 5203 2f3d ace3 363d 5988 89bd 7473 cebc
000003a0: 80c2 1b3d 2a14 8cbd db94 8f3c 8b40 2c3d
000003b0: b64a 51bd eb38 703d 5a0d 9dbc d484 26bd
000003c0: beee 05bc 8982 a33b bff0 5bbd 9bbb fd3c
000003d0: 2f60 543c 0ca1 6fbd 9140 c13a 0e62 193c
000003e0: 3f03 09bd cdff 393d 7c87 013b 70ac 8dbc
000003f0: d40c 63bc 2f36 3dbc 2d18 80bd c181 d3bc

net.6.bias f4 [32]
-0.0012648347 0.006373731 0.020053905 -0.025739703 -0.0019658913 -0.020576276 -0.023911867 0.032644838
0.023948556 0.033524286 -0.028414741 0.026393566 0.02959522 0.029395048 0.036666166 -0.00012766162
-0.008718435 0.0049040997 0.015950834 0.041871574 -0.01270684 0.007140671 -0.005631218 0.011612982
0.021174556 -0.030777568 0.03399417 0.030390603 0.03385599 -0.033310983 0.04053348 -0.036065254
00000000: cfc8 a5ba bbda d03b 1648 a43c 12dc d2bc
00000010: 2fd6 00bb 948f a8bc d2e2 c3bc 98b6 053d
00000020: c32f c43c c350 093d 08c6 e8bc 5237 d83c
00000030: ad71 f23c e2cd f03c 432f 163d e8dc 05b9
00000040: c4d7 0ebc 92b2 a03b 53ab 823c 8781 2b3d
00000050: 5a30 50bc 4afc e93b 1586 b8bb 6044 3e3c
00000060: 4376 ad3c 3d21 fcbc 793d 0b3d b7f5 f83c
00000070: 94ac 0a3d 1971 08bd 6f06 263d 29b9 13bd

net.8.weight f4 [3, 32, 3, 3]
-0.08993387 0.00083373126 -0.06380841 -0.069670394 0.058643762 -0.06161068 -0.12455779 0.04827333
-0.058278136 -0.05605242 -0.016091675 -0.052040488 0.004970538 0.036305334 -0.02193364 0.04093299
0.07278864 -0.009635949 -0.0094131855 0.026439318 -0.011235038 0.04093276 0.06216323 -0.038870376
0.033305086 0.025135364 -0.042006474 -0.05600237 -0.013514606 -0.038310573 -0.09443606 0.015567212
0.010563076 -0.091532744 -0.024541674 0.054067265 0.030816672 0.05958517 -0.057108812 0.05926483
0.0024658598 -0.023990812 0.02198882 -0.0374869 -0.061820302 -0.051015783 -0.046651375 0.035029985
-0.018184867 -0.038571727 0.020418763 -0.0077987635 0.030644866 -0.0017099394 -0.0400248 0.0204671
0.0073680636 -0.0029117155 -0.04153885 -0.041678373 0.05401255 0.03726327 0.018461566 0.02772064
0.011447157 0.017474707 -0.030259607 0.019188454 -0.050288588 -0.049549695 -0.047721103 -0.009166169
0.034255404 0.015797684 -0.023801979 -0.002311723 0.030671764 0.03531879 -0.026733108 -0.04213587
-0.052624606 -0.0684765 -0.05622363 -0.054735996 -0.02847809 0.040467024 -0.008693032 -0.04614327
-0.021731386 -0.0031301333 0.01704966 0.05360417 -0.016233496 0.071464196 0.070710346 -0.01945622
0.045291744 0.0069690277 0.01966912 0.0138193965 0.028669164 0.0014857558 0.031026116 0.007409437
0.029921116 -0.04354273 0.05970095 0.023608137 -0.059168275 -0.030488165 0.070128135 -0.023202967
-0.009724596 -0.01619702 0.03439032 0.06857819 0.04160168 0.057519473 -0.023480216 -0.019759523
0.07186511 -0.03420092 0.025820492 -0.010326057 -0.009353896 0.050900545 0.02271364 -0.04939326
0.018914241 -0.007226959 0.04318713 0.015057193 -0.02484537 -0.048436947 0.048011612 0.022240113
-0.036155324 0.040186286 0.036545955 0.014000171 0.02953799 0.007851973 0.01516656 -0.0016101466
0.027686335 -0.011097433 0.06515787 -0.05022007 -0.040181417 0.024957232 0.017859893 -0.041260973
0.04386124 -0.058372106 -0.05455968 -0.019035665 0.03456457 -0.015528655 0.03784873 -0.002091685
-0.0062035625 0.06407818 0.055141345 0.022965502 -0.014230716 0.034588154 -0.0053402856 0.013528211
0.032194633 0.06520787 0.059875254 -0.041951012 0.038781732 -0.051854033 -0.016912611 0.0025013997
0.009394024 0.031624854 0.04683039 -0.018214429 -0.005145391 -0.0029021506 0.037713833 0.026068186
0.005062096 -0.054197967 0.003721106 0.07027659 -0.048081532 0.057903096 0.034604482 0.012883813
0.0016043872 -0.022993516 0.0069328477 0.012723286 0.04555758 0.024876595 -0.063192725 -0.020990156
-0.001251519 0.035499584 0.031412117 -0.031300526 -0.048687663 0.022033932 -0.026994307 -0.01642749
0.042495538 -0.023970364 0.011882279 -0.039357513 -0.05595837 0.04444263 0.0385788 -0.0038838754
-0.024401177 0.0002464239 0.068866506 -0.035266418 -0.01203599 0.022744995 -0.009512879 -0.06274439
0.003187856 0.054156147 0.05399436 0.0017743772 -0.0271884 -0.023059456 -0.010027495 -0.0043216
-0.03840585 -0.043405216 -0.030349309 -0.04932277 0.052604016 -0.005989051 0.05744381 0.046885274
0.017950393 0.042885583 0.06631605 -0.06506257 0.027272362 -0.04439188 -0.02663473 -0.024897985
-0.019442016 -0.03233777 -0.034206357 0.017805744 -0.011396118 0.07274953 -0.005796589 -0.023554223
00000000: 402f b8bd c28e 5a3a fcad 82bd 5aaf 8ebd
00000010: 7134 703d 7b5b 7cbd 2818 ffbd 41ba 453d
00000020: 0eb5 6ebd 3997 65bd b0d2 83bc 6828 55bd
00000030: e5df a23b e7b4 143d 2dae b3bc 5aa9 273d
00000040: 3612 953d 19e0 1dbc c339 1abc 4597 d83c
00000050: 2a13 38bc 1ca9 273d df9e 7e3d 8b36 1fbd
00000060: ea6a 083d aee8 cd3c fb0e 2cbd be62 65bd
00000070: 5e6c 5dbc 8ceb 1cbd b167 c1bd 9f0d 7f3c
00000080: c010 2d3c 8575 bbbd 9f0b c9bc a375 5d3d
00000090: 3f73 fc3c 940f 743d eeea 69bd aebf 723d
000000a0: 439a 213b 6188 c4bc e621 b43c dd8b 19bd
000000b0: 4937 7dbd edf5 50bd 8315 3fbd 9a7b 0f3d
000000c0: 6ef8 94bc 63fd 1dbd 4045 a73c c58c ffbb
000000d0: f10a fb3c 0c20 e0ba 0bf1 23bd 9faa a73c
000000e0: cc6f f13b 7bd2 3ebb a424 2abd f1b6 2abd
000000f0: 433c 5d3d 5fa1 183d b63c 973c 6516 e33c
00000100: db8c 3b3c 1e27 8f3c ffe2 f7bc 1b31 9d3c
00000110: 68fb 4dbd 9ff4 4abd 3477 43bd b32d 16bc
00000120: 654f 0c3d 256a 813c 5efc c2bc 4780 17bb
00000130: 5a43 fb3c 6faa 103d 64ff dabc a996 2cbd
00000140: e68c 57bd 683d 8cbd c04a 66bd da32 60bd
00000150: e24a e9bc c0c0 253d 386d 0ebc ba00 3dbd
00000160: 0506 b2bc ec22 4dbb bbab 8b3c 0c90 5b3d
00000170: 1cfc 84bc d25b 923d 96d0 903d a762 9fbc
00000180: d683 393d 715c e43b 2221 a13c c06a 623c
00000190: 98db ea3c b1bd c23a 7b2a fe3c ddca f23b
000001a0: 211d f53c dd59 32bd fc88 743d da65 c13c
000001b0: 6f5a 72bd 51c2 f9bc 579f 8f3d 2614 bebc
000001c0: e953 1fbc 9daf 84bc dddc 0c3d b972 8c3d
000001d0: 8666 2a3d 8a99 6b3d 9559 c0bc b9de a1bc
000001e0: 042e 933d 4416 0cbd 7f85 d33c 9f2e 29bc
000001f0: 1541 19bc 177d 503d f511 ba3c 9650 4abd
00000200: 0af2 9a3c 20d0 ecbb fde4 303d 72b2 763c
00000210: 8488 cbbc d265 46bd d3a7 443d e630 b63c
00000220: 9b17 14bd 609a 243d 36b1 153d f960 653c
00000230: a8f9 f13c 90a5 003c 2a7d 783c 8e0b d3ba
00000240: 74ce e23c 02d2 35bc 7d71 853d 8fb3 4dbd
00000250: 4595 24bd 1c73 cc3c e94e 923c 4401 29bd
00000260: d8a7 333d 9717 6fbd f979 5fbd aff0 9bbc
00000270: 9493 0d3d e66b 7ebc 4507 1b3d a714 09bb
00000280: 4147 cbbb 6c3b 833d e4db 613d 2622 bc3c
00000290: f327 69bc 4fac 0d3d 90fd aebb 6ea5 5d3c
000002a0: 85de 033d b48b 853d c13f 753d d3d4 2bbd
000002b0: 98d9 1e3d e564 54bd 518c 8abc 86ee 233b
000002c0: 64e9 193c 1089 013d 39d1 3f3d 6d36 95bc
000002d0: ab9a a8bb 0232 3ebb d279 1a3d f38c d53c
000002e0: f0df a53b b0fe 5dbd cddd 733b 2ced 8f3d
000002f0: 24f1 44bd cc2b 6d3d 6ebd 0d3d a116 533c
00000300: 4d4a d23a e65c bcbc f12c e33b 5475 503c
00000310: 969a 3a3d 00ca cb3c 306b 81bd 8cf3 abbc
00000320: 020a a4ba 0368 113d fea9 003d fb34 00bd
00000330: b76c 47bd 8180 b43c 2a23 ddbc f292 86bc
00000340: cd0f 2e3d 7f5d c4bc e4ad 423c 5835 21bd
00000350: 9b34 65bd 7a09 363d ce04 1e3d 9e88 7ebb
00000360: fae4 c7bc 7532 8139 e209 8d3d 8573 10bd
00000370: 9a32 45bc b653 ba3c e8db 1bbc 2180 80bd
00000380: 59eb 503b d6d2 5d3d 3129 5d3d 3892 e83a
00000390: 35ba debc 2fe7 bcbc 5d4a 24bc 359c 8dbb
000003a0: 744f 1dbd abc9 31bd 1d9f f8bc ac06 4abd
000003b0: 4f77 573d cd3f c4bb 334a 6b3d c60a 403d
000003c0: b40c 933c cba8 2f3d b6d0 873d 863f 85bd
000003d0: 4a6a df3c 43d4 35bd 1431 dabc dcf6 cbbc
000003e0: dd44 9fbc 9c74 04bd f71b 0cbd 5add 913c
000003f0: c9b6 3abc b5fd 943d 50f1 bdbb c9f4 c0bc

net.8.bias f4 [3]
0.006557096 0.03170613 0.036808543
00000000: e8dc d63b 49de 013d 8ec4 163d
