epoch_10.pth (torch, 384277 bytes, 10 tensors)

net.0.weight f4 [64, 3, 3, 3]
00000000: a4a3 013e 78d3 31be 7c92 10bd e5e6 0c3e
00000010: 8fcd 893d bd30 efbd aebf 27be c106 9ebd
00000020: bbfc 193c 5a7a 323e 9db2 b2bd 182e 2a3d
00000030: 773b 34be eb00 22bd d3f3 cbbd 4c99 0a3e
00000040: b843 1d3c 074a a9bd 00f9 95bd 7969 0ebe
00000050: 561a bcbc 5d35 0a3e eb26 55bc aa72 7dbd
00000060: 61fa 243e b2df 9f3d d5ea d7bc bf48 193d
00000070: 938a 36bb afb6 213d 9b95 dc3d c9f5 ffbd
00000080: 7327 0bbe 7675 16be c2ec 32bc fdc8 1ebe
00000090: b2a1 3f3e 3e93 3f3b b1e7 873d 477a 323e
000000a0: 07d5 f8bd d968 0c3c 9c6a 1739 b3c4 223e
000000b0: caa7 c8bd 6525 08be 9a86 ec3d 66eb 973d
000000c0: 1f81 87bc 2138 acbc 7f0c be3d 2cc2 6dbc
000000d0: 37f9 d6bc ca00 f23d 9113 5b3d 098a 3f3e
000000e0: ccb5 a43c 482e cbbd bece 17be 6b98 2dbe
000000f0: a3cf 8e3d ae48 cf3d 0080 71bd c962 c6bd
00000100: 842a 383e 715b 8ebd d49b de3d ada2 d4bd
00000110: f50a 1bbe 7786 9dbd d2ce 4abd bbb2 f93d
00000120: a471 113e 9ee6 163e ed46 9cbd 9926 423d
00000130: 3d60 06be f7dc c4bd fad6 b03d 9a43 25be
00000140: f61b aebc 67d8 3c3e a7b4 ec3c 55fa f13d
00000150: 1c88 353e ea9c 74bd b16d 133e c5b9 383e
00000160: bf5b 2b3c 5d79 8c3d df31 cc3d 486d f03d
00000170: b719 1f3c 9b44 41be fcf0 38be d252 2a3d
00000180: ed25 183e 5e49 303d 5c50 483c 0c07 d63d
00000190: d505 823d 0410 2dbe 82b4 273d 8b3a 1f3d
000001a0: 4682 b73d 53f2 8dbd 8d00 b13d cb1b 033e
000001b0: 288a b93d dd3c af3d 0f06 c2bd 66c4 08bd
000001c0: 3b29 06be fccb 2ebe 683f ddbd f138 513e
000001d0: 48c1 1abe 12cf 8c3d 1323 d33d 33fd 93bc
000001e0: 33f1 0a3e 7952 24bc 3bd1 0d3e 75fd 213e
000001f0: 70b7 3a3d 2be1 43bc fba6 f53d 498b a63d
00000200: ab59 30be 66bb 5bbd feb8 063e 079f 14be
00000210: 5cd3 5fbd cf5e 33bd 4992 37be 3752 d63d
00000220: a492 263e 42d1 cbbd eb28 3f3e c4a1 11be
00000230: 4881 43bd 4eee 21bc da1f 363e d4ed 31be
00000240: 8f38 d5bd d159 64bc 8e12 193d 6fdb d93c
00000250: 0c74 283e 8240 18be b6bd a6bd 1d58 3dbd
00000260: 0e51 1abe f902 e13d ac63 603c b9d5 1c3e
00000270: e204 0dbe 635a dc3d 4ba8 063e 7b67 11be
00000280: 2b39 5a3d 2d7b e03d 6033 b3bd 7482 15be
00000290: fcac 1abe f486 adbd c2c1 60bd ffa7 e63c
000002a0: dbfa 7fbd fc59 15be 42c9 8ebd c2a3 2fbe
000002b0: c339 80bc 8f97 5cbd c0a8 173e 6500 413c
000002c0: 0368 87bd 3f5a 2f3e 72cd cfbd a8c7 473e
000002d0: 5485 90bd 3a09 cbbc 5f44 aa3c f3af bb3d
000002e0: 4dcc 66bd 50d3 533e e838 05bd 9a40 04be
000002f0: 9bd8 fc3d 61bf 253e 0365 27bd 37a9 bcbc
00000300: e0fc 80bd e9ba e3bc 2015 2bbd 8381 123e
00000310: 8d3c 8abd 4974 0abe af4d a03c b236 d73d
00000320: 461d ba3d fe54 71bd b1dc d6bd 4def 1a3e
00000330: 46ce b3bd 75d9 18be 7623 413e 25bd d0bd
00000340: 3cb3 ac3b e161 14bc ca9d 113e a189 b4bd
00000350: 8c8f 85bd e323 9d3d 9ad7 eebd b757 06be
00000360: 48c8 463d 1a95 cabd f188 dabd ec25 01be
00000370: 494c 43be 7e3f f93d 408d 43bc 6062 58bc
00000380: 3080 d1bc 1785 2a3e 7cad 673d 5ec3 963d
00000390: 12d1 bc3d f6fd eabd bf7d c0bd 796b d5bd
000003a0: 423e e53d efbf dabd 90e1 53bc 603a fabc
000003b0: 907e 42bc de62 0bbe 947e 363d ac2e cabd
000003c0: d048 04be 14fb 85bd 308e 4e3c 50f5 9cbd
000003d0: d6ce b9bd 8544 0c3e fd63 44bd 4f53 de3d
000003e0: 91f1 10be 2334 033e 35b5 933d 35fb 1a3e
000003f0: 6a43 053d 1869 f13d 5cc8 213e fe77 49bd
0.1266008 -0.17365825 -0.03529595 0.13759954 0.0672866 -0.11679218 -0.16381714 -0.07716132
0.009398635 0.17429486 -0.08725474 0.041547865 -0.17600809 -0.039551657 -0.09958615 0.1353504
0.009598665 -0.08266073 -0.073228836 -0.13907422 -0.022961777 0.13496919 -0.013009767 -0.06187693
0.16111137 0.07806338 -0.026357094 0.03742289 -0.0027853593 0.03948086 0.107707225 -0.12498052
-0.13589267 -0.14693245 -0.010920705 -0.15506358 0.18714026 0.002923205 0.066359885 0.17429458
-0.12150007 0.0085699195 0.00014440197 0.15895347 -0.09797628 -0.13295515 0.11549111 0.074179456
-0.016541062 -0.021022858 0.09279727 -0.014511626 -0.026241882 0.11816557 0.053485457 0.18705
0.020106219 -0.09920937 -0.1482496 -0.16952674 0.06973197 0.101212844 -0.05895996 -0.096868105
0.17984968 -0.06951035 0.108695656 -0.103825904 -0.15140899 -0.07691663 -0.049513645 0.12192293
0.14203507 0.14736411 -0.076307155 0.04740009 -0.1312265 -0.09612458 0.086347535 -0.16139069
-0.021253567 0.18441926 0.028894736 0.11815325 0.17727703 -0.059719957 0.14397313 0.18039615
0.010458886 0.06859086 0.0997045 0.11739594 0.009710721 -0.18873827 -0.18060678 0.04158289
0.14858218 0.04303872 0.01222619 0.10450563 0.063487686 -0.1690064 0.04094363 0.03887419
0.089603946 -0.06930985 0.08642683 0.12803571 0.09059554 0.085565306 -0.09473812 -0.033390425
-0.13101666 -0.17070001 -0.108031094 0.20431878 -0.15112793 0.06875433 0.10309424 -0.01806507
0.13568573 -0.010029429 0.13849346 0.15819342 0.045585096 -0.01195554 0.119947396 0.08132035
-0.17221706 -0.053645514 0.13156506 -0.14513789 -0.054644927 -0.04379159 -0.17926897 0.104649
0.16266876 -0.09952022 0.18667953 -0.14221865 -0.047730714 -0.009883476 0.17785588 -0.1737588
-0.10411178 -0.0139374295 0.03737121 0.026593892 0.16450518 -0.14868358 -0.08141653 -0.04622661
-0.15069982 0.10986895 0.013695639 0.15315904 -0.13771394 0.107594274 0.13150136 -0.14199631
0.053277176 0.10960994 -0.087500334 -0.14600545 -0.15105051 -0.08473006 -0.05487228 0.028156279
-0.062495094 -0.14585108 -0.06971981 -0.17152312 -0.015652543 -0.053855475 0.14810467 0.011779879
-0.066116355 0.1712427 -0.101466075 0.19509757 -0.0705668 -0.024784673 0.020784555 0.09164419
-0.05634718 0.20686078 -0.032524973 -0.12915269 0.12346002 0.16186287 -0.040867817 -0.023029907
-0.06298232 -0.027799087 -0.041768193 0.14307217 -0.067498304 -0.13520922 0.019568292 0.10508479
0.09087615 -0.058918945 -0.10491312 0.15130349 -0.08779578 -0.14926703 0.18861184 -0.101923265
0.00527039 -0.009056539 0.14220348 -0.08815313 -0.0652152 0.076728605 -0.116622165 -0.13119398
0.048530847 -0.0989172 -0.10670651 -0.12612122 -0.19072069 0.12170313 -0.011935532 -0.013207048
-0.02557382 0.16652332 0.056561932 0.07361482 0.092195645 -0.114742205 -0.09398984 -0.104208894
0.11193515 -0.1068114 -0.012932196 -0.030545413 -0.011870995 -0.13611934 0.044554308 -0.09872183
-0.12918401 -0.0654203 0.012607142 -0.07663977 -0.09072654 0.13698013 -0.04794692 0.108557336
-0.1415465 0.12812857 0.07212297 0.1513489 0.032534994 0.11787623 0.15799087 -0.0491867

net.0.bias f4 [64]
00000000: 49ae 163e 4979 8d3c 8e32 fb3d 72ff 973d
00000010: a788 a2bd 2530 e2bd e266 b53d 8d35 063e
00000020: 9b99 b2bd e3af 1fbe d1ad 18be 9156 2fbd
00000030: 10e2 c73d 8f60 153e 51e5 e13d 563b b5bd
00000040: 0c78 9ebd c1b0 0dbe 8e5c d6bd 08d2 c63d
00000050: 99c5 21be 46fe fdbd 3d85 e43d a4f7 e0bd
00000060: b482 2c3e cb69 883c ab08 16bd 1d60 cb3d
00000070: 853a 9abb 8bbe 1d3e 2442 ce3d f661 0f3e
00000080: f5b1 abba c69c 05be 84c8 81bc 3a5a 883d
00000090: 16a3 94bd bb62 073c d9ec e03d 19a6 fabd
000000a0: e72d 043e dcf2 07be 0457 013c 7e1c 8c3d
000000b0: 951a 90bc 38d9 143e 14fe e73d ecda c8bc
000000c0: cc57 12bd e014 3b3e b727 313e 79be dcbd
000000d0: cb31 b1bc 2e4f 0b3d 3f37 d43d 7180 0e3e
000000e0: 8fe1 10be d9f5 22be 384d 273c 6e86 a1bd
000000f0: 9b28 7cbc ae80 823d 04bb d63c d705 e1bd
0.14714922 0.017269747 0.12265502 0.07421769 -0.079362206 -0.11044339 0.08857514 0.13106366
-0.08720704 -0.15594439 -0.14910056 -0.042807166 0.09759915 0.14587615 0.11030067 -0.08849208
-0.07737741 -0.13836958 -0.10466872 0.09708029 -0.15798034 -0.124020144 0.11158226 -0.10984734
0.16846734 0.016652009 -0.03662936 0.099304415 -0.004706683 0.15404718 0.10071209 0.14002213
-0.00130993 -0.13048086 -0.015842684 0.06657834 -0.07257669 0.008263285 0.10982675 -0.12238712
0.12908135 -0.13276237 0.007894281 0.06841372 -0.0175908 0.14535987 0.113277584 -0.024518453
-0.03572826 0.18269682 0.17300306 -0.10778517 -0.021630188 0.03401106 0.103621 0.13916184
-0.14148544 -0.15914096 0.0102112815 -0.078869686 -0.0153905405 0.063722 0.026212223 -0.10987442

net.2.weight f4 [64, 64, 3, 3]
00000000: b0f6 093b 0710 0bbb c99b 00bd 76d1 3bbd
00000010: f9f6 08bc c84f 0e3c 10a3 3aba 9b15 f43b
00000020: 988d a0bc 7f7d 02bc 8564 02bd 427a f9bc
00000030: 0940 43bc f30b 6fbc 55be d6bb e025 6fbc
00000040: a2b1 2dbd d12f 203d 372b 93bd 6090 df3b
00000050: 3b37 46bd 8e46 11bd 317e 9d3c 4108 89ba
00000060: b7da f1bb 4705 b93c e9c2 dc3c 21db 20bd
00000070: b390 b13c 91a7 833b 48bf e43c 523e 1bbd
00000080: a1f5 873c 44a3 c93c 13a2 ce3b 6f6b 813c
00000090: 29a3 48bc 6265 843d 68f8 87bb 5b73 263d
000000a0: 4f78 4a3c 607d 0c3c 6393 82bc ff1a dd3c
000000b0: 70c5 dabc 5a92 3c3b f917 edbc 17a3 e1bc
000000c0: adcb 7bbc 1599 d7bc c05f afbc f84e 093d
000000d0: c086 623d ece3 0f3d 07b9 613d 80b7 cdbc
000000e0: 8008 bbbc 63a7 263d 356a 023d be62 933c
000000f0: 4b3f 5b3d bcc7 1b3d 087a 8bbc 9f12 c7bc
00000100: 200d 0f3c 276b be3b 46b0 b93b 2d46 67bd
00000110: 6550 08bb 4f7c 7e3c d90b 623c 8ea4 8d3c
00000120: 4000 39ba 6b32 16bd c635 a4bc 0656 a8bc
00000130: 2039 c8bb d994 143d 837b 293d 7415 02bc
00000140: e08e b73a 1997 ae3c 700b 5ab9 e86d 5ebd
00000150: 97f9 aebc 3211 e9bc e09a 7cbc a2e5 04bd
00000160: 5917 ffbc 6991 523c 0cb5 34bc 8301 263c
00000170: 47e4 e7bc 68f9 a73c 1c75 243d 38ed 02bd
00000180: 148b be3c 24be 283d 397d d93c 0f80 08bc
00000190: b48a 02bc 1cb7 953c c07e 4d3d 2fba b33c
000001a0: ef2d b53c 5c1b 4e3d cdbf fa3c e857 94bc
000001b0: e857 e03b 7386 043d 2c0a aebc 63cf f2bc
000001c0: a225 1abd 8b84 dabc be7d 073d 36a5 203d
000001d0: f204 95bb 3140 d3bc 7eef 70bc a4ad 4c3c
000001e0: 3375 4d3c b8e7 273c 8eb3 8f3b adba 29bd
000001f0: 8ba8 6d3c 84de a9bc ad13 a13c f3eb 65bd
00000200: 0521 78bc 8bb3 4dbd 5b3c d8bc c0c1 94bc
00000210: c86a 11bc 93ba e8bc 1874 a83a c57d b43c
00000220: 0388 fbbc 7eaf d0bc fe6d 6abc 3eb5 1a3d
00000230: 3c9c cdbc 2605 f33c 7312 0ebb dc2b 5c3b
00000240: 7ef4 fb3c 9b0d 1cbd 3e86 03bd 24f9 e3bc
00000250: 08d3 393c ba85 4abc eb4a 0cbc fbf9 fcbb
00000260: 202b 223d 20d4 613c a6d1 dd3c b210 eb3c
00000270: 2bc1 04bd 6069 d7ba 7ce0 0abd f386 c5bc
00000280: 8031 a239 aaf6 c93c b714 b93c 3a9f 1b3d
00000290: c558 6bbc d51e 6f3c fd43 113c 45dc 023d
000002a0: f2da 4d3c 5617 023d ecdb abbc b5c1 cebb
000002b0: 51c4 c5bb 5542 26bd 9b4c d0bc 1fc4 0ebd
000002c0: 73a0 40bd 0c9c 123d f676 17bd af44 883c
000002d0: 64d8 0e3b 309d e6bc 4c43 d5bc f378 44bc
000002e0: 2ab0 6a3c 9d56 69bc 2a74 003b 0715 e7bc
000002f0: 6220 85bc 4f8a 223d 0a21 31bc 604a 383d
00000300: 6639 abbc 3252 593d 4c92 04bd dc96 aa3b
00000310: c3f9 9fbc bcd8 143b 1caf 213d 181b 8ebc
00000320: f9db 743b 4b3a c43b f6d0 0bbd 74a3 2cbc
00000330: f94e 95ba 8f44 53bb 6aea c1bc b65a 03bd
00000340: 0634 993c c078 be3b 54fa a73a 08bc d1bc
00000350: ca1a 0dbd 911a 883c 337d 853c d503 063c
00000360: e5cd e7bc bd62 00bd a5af c7bb ac22 ecbc
00000370: b218 4f3c 431d 4b3c 6acf 08bd e239 9fbc
00000380: e656 edbc 6a6e 2e3c ddf0 11bd 2565 073d
00000390: 372a 663c 7366 a2bc ec0a 09bc 1af6 183c
000003a0: 28ef 2cbd 2012 c7bc ef1e 913c 8f0f 95bc
000003b0: 0be4 9b3c af2a d43c e6ff 123b 052f 8bbc
000003c0: 0eee 9dbc 48c9 073d 7db0 223d 6916 0dbc
000003d0: 0424 acbc 9324 e23b fcfe 0f3d 0800 813c
000003e0: 04cf c7bc 76c4 8fbb 9a29 c13c 7711 2cbd
000003f0: bf01 103d 4088 c6bc 04b8 62bc 0d5a 43bc
0.0021051578 -0.002121927 -0.03139857 -0.045854054 -0.008359664 0.0086860135 -0.0007119635 0.0074488646
-0.019598767 -0.007964491 -0.031834144 -0.030453805 -0.011917123 -0.014590251 -0.006553451 -0.014596432
-0.042405732 0.0391081 -0.07185977 0.0068226308 -0.048392516 -0.035467677 0.019225212 -0.001045473
-0.007380809 0.022585524 0.02694841 -0.039271478 0.021675443 0.004017778 0.027923241 -0.03790123
0.016596617 0.024613984 0.006305942 0.015798299 -0.012245932 0.0646465 -0.0041494854 0.040637355
0.012357785 0.008574814 -0.01593942 0.026990412 -0.026705474 0.0028773756 -0.028942095 -0.027543588
-0.015368384 -0.026318112 -0.021407962 0.033522576 0.05530429 0.035129473 0.055108096 -0.025111914
-0.022831202 0.040686976 0.03183957 0.01799142 0.053527158 0.03803228 -0.017025962 -0.024300871
0.008731157 0.0058111134 0.0056667654 -0.05646341 -0.0020799872 0.015532567 0.01379677 0.01729038
-0.0007057227 -0.036669176 -0.020045172 -0.020548832 -0.0061103255 0.036274765 0.041377556 -0.007939685
0.0014004372 0.021312283 -0.00020794361 -0.054304034 -0.021359248 -0.028450582 -0.015417784 -0.032445557
-0.031139063 0.012852051 -0.011029493 0.010132196 -0.028307093 0.020504668 0.040150747 -0.03196451
0.023259677 0.041196957 0.026548969 -0.008331313 -0.00796764 0.01827579 0.050169706 0.021939365
0.02211663 0.05031906 0.030609036 -0.018108323 0.0068464167 0.032354783 -0.021245085 -0.029639905
-0.037633546 -0.02667453 0.0330789 0.039220057 -0.0045477087 -0.025787445 -0.014705537 0.012492571
0.0125401495 0.010248117 0.0043854183 -0.041437794 0.014505516 -0.020735987 0.019662702 -0.05613322
-0.015144591 -0.050220054 -0.026395967 -0.018158793 -0.008875556 -0.028409278 0.0012851981 0.022032628
-0.030704504 -0.025474306 -0.014308451 0.037770502 -0.025098912 0.02966554 -0.0021678477 0.0033595478
0.030756231 -0.038098913 -0.032110445 -0.02782876 0.011341818 -0.012360984 -0.008562784 -0.0077202297
0.03959191 0.013783485 0.027077507 0.028694484 -0.03241078 -0.0016434602 -0.03390549 -0.0241122
0.00030935928 0.024653751 0.022592885 0.037993647 -0.014364426 0.014594753 0.008866307 0.031948347
0.012564408 0.031760536 -0.02097889 -0.006309713 -0.0060353656 -0.040590603 -0.025427153 -0.034855004
-0.047028016 0.03579335 -0.036978684 0.016634313 0.002179646 -0.028151125 -0.026033066 -0.011991727
0.014324227 -0.014241842 0.001960049 -0.028208269 -0.016250793 0.039682683 -0.0108111 0.044992805
-0.020901393 0.053056903 -0.032366082 0.005205972 -0.019528275 0.0022712192 0.039473638 -0.017346904
0.003736256 0.0059883944 -0.034134828 -0.010537017 -0.0011391334 -0.003223691 -0.023671348 -0.03206893
0.018701565 0.0058127344 0.0012815692 -0.025602356 -0.034449376 0.01661423 0.016295051 0.008179625
-0.02829642 -0.031344164 -0.0060939365 -0.028825127 0.012640165 0.012397113 -0.03340093 -0.01943678
-0.0289721 0.010646442 -0.035630096 0.033055443 0.014048151 -0.019824242 -0.00836442 0.009336019
-0.042220265 -0.024300635 0.017714946 -0.018195895 0.019029638 0.02589926 0.002243036 -0.016990194
-0.019278552 0.03315094 0.039719094 -0.0086113 -0.021013267 0.0069013326 0.03515528 0.015747085
-0.024390705 -0.0043874336 0.023579407 -0.042008843 0.035157915 -0.024234891 -0.013837818 -0.011923325

net.2.bias f4 [64]
00000000: 71b4 dabc a6c6 30bd fc9b debc b650 d5bc
00000010: 6e69 fe3b 0c88 fe3c f9a6 f23c a3b9 e8bc
00000020: f73d bf3b 42c6 d03b 9ab2 363b c46b 583b
00000030: 1337 dc3c 0431 07bd 1836 c13b 8bd3 7bbc
00000040: 071b c4ba 2bd6 d73c d003 c3bc dc39 0abd
00000050: f48b 14bc 561e a93c 0f87 26bd 984d 1f3d
00000060: c3d1 55bc 1928 90bc 6502 8a3c 390b 943c
00000070: 91f5 103d 13a7 a8bc f2aa 163d 2b98 88bc
00000080: 5e29 60bc 41a8 9fbb a3f3 413a e552 bf3b
00000090: 86b3 efbc 2f0b 3dbb a258 0b3d 1a80 133c
000000a0: d0f0 e03c 87a0 1a3d d3ca 1cbd 5dcf 23ba
000000b0: 7529 e2bc 0374 0b3d 58d6 0b3d 6bb9 0dbd
000000c0: 3a45 0e3d 6a40 debc c31d 803c 12db 86bc
000000d0: 4610 de3c 6d22 87bc d879 053c 835a 253d
000000e0: adce cbbc 2e36 9b3c 832a 133d 0fd6 f83c
000000f0: c228 35bb f92c c63c 17e9 20bd 1bf7 27bc
-0.02669737 -0.043158196 -0.027173989 -0.026039463 0.007764033 0.031070732 0.029620634 -0.028408831
0.005836244 0.0063712904 0.002787745 0.0033023218 0.02688173 -0.03300573 0.005896341 -0.01537026
-0.0014961668 0.02634724 -0.023805529 -0.033746585 -0.009066571 0.020644348 -0.040656146 0.03889236
-0.013050499 -0.017597245 0.016846845 0.018071758 0.03539044 -0.02058748 0.03678412 -0.016674122
-0.013681738 -0.0048723524 0.00073986704 0.005838739 -0.029260408 -0.0028845777 0.034020074 0.00900271
0.027458578 0.037750747 -0.038279366 -0.0006248856 -0.027607659 0.034046184 0.03413996 -0.034600656
0.03473399 -0.027130324 0.015639191 -0.016461883 0.02710737 -0.016495908 0.008146726 0.04036952
-0.024878824 0.018946733 0.035929214 0.030375509 -0.0027642702 0.024191367 -0.03928479 -0.010251786

net.4.weight f4 [64, 64, 3, 3]
00000000: a7e3 fc3b 79d0 173d 0d31 1e3c be49 803c
00000010: 7539 893c c095 0fbd 689c 1b3d 4bf8 373d
00000020: 3203 0fbd 4637 a3ba 88ff 94bc 0e3e 4dbc
00000030: 1a84 df3b 2efd 043d b31d 003d 3b09 5a3a
00000040: 620a 8fbc 2760 83bc e490 fe3c e668 fa3c
00000050: 0cac 90bc 4346 073d 81c2 59bc 80af c6bb
00000060: 0c78 a53c ce4a 113c 9dfa a7bc 4639 f53c
00000070: 66f8 a9bc 1cb7 31bc 2ec0 babc 1680 b73c
00000080: e390 0abd e626 5abc 8889 e43b 405b 593a
00000090: bd85 dd3c ca86 093c c573 943b 4334 063d
000000a0: 49f6 20bd 8777 4fbc 1d08 263b 3436 1f3d
000000b0: ca8d fabb 7716 293c 304f cebc ccdc 473d
000000c0: c2f5 f6bc c8b8 ddb6 91c7 b93a 69d1 8bbc
000000d0: b631 1abc 818c 9a3c ea0f 76bb 7a20 bf3c
000000e0: c907 12bc 2b83 1a3d 32bf 143d 9c2a 803d
000000f0: c7f2 ff3b 6dea 9a3b 2f5a 3e3d 509d 153d
00000100: 755f 853d 2077 6c3d 9e10 d93c 544d a53d
00000110: 71bd f43c 0bef a33d a743 5d3d 183d 553d
00000120: fd35 673b eb0a 833c a13c 55bb 2434 32bd
00000130: 5b5e a23c 7b94 003d 9816 c13c 43ac c23c
00000140: edce 68bc c469 243d 2fb5 2c3d 8c30 563c
00000150: 1e60 1dbb 7494 213d 1277 333d bf84 20bc
00000160: f52b 05bd e9f1 923c 8d03 633d d829 473d
00000170: 4137 e83c cfbf 45bc d9f1 d43c 4fe9 0db9
00000180: 10ae a03c 6fdf d1ba 4abd c33c b719 2f3c
00000190: 58ee ec3c a546 653b b323 a5bc 1770 073c
000001a0: 1b17 1e3d dc92 a7bb a3a6 0dbc 77b5 67bd
000001b0: bf93 583c b285 0fbd b663 b93c 54e6 3e3c
000001c0: 57f8 a6bc 541b 1abd db87 3f3c bc83 0fbd
000001d0: de6f 4cbb be8c d23c de41 65bc 070e 2abc
000001e0: 71f1 503a a95a 7dbc d44f 00bd 3395 08bc
000001f0: 736a da3c bca6 3c3c 6694 afbc ae17 03bd
00000200: bc2a 8cbb 82e5 a83c 555a db3c fda7 d5bc
00000210: a98a 15bc 70d8 9fbb fdf9 aabc 9290 db3b
00000220: f18a 3a3c bcbb aabb a066 41bc 04e2 f33a
00000230: 4e56 c43c 9d2d d4bc 7849 7a3c 9fc7 243d
00000240: 96df 1e3d e008 313d d6be 363d f556 8e3d
00000250: 446f 73bc a2ad 803d 7ca4 4a3b feb2 bd3c
00000260: c019 343d 6177 043d e55b d43c 920c 053d
00000270: 8232 653c 9c34 ab3c 969c 2e3d 9ff5 9a3c
00000280: 240a 31bc 29ab d63c 68ff c3bc 151f 783c
00000290: ef75 97bc 549d 3a3c f958 df3b b99c 85bb
000002a0: b34d 11bb 8ed2 2bbc 1f10 b3bc 1d92 bbbc
000002b0: d113 f23c 1168 c4bc 38e6 0b3d aebf 05bd
000002c0: 9a9f 85bc f80c 273b 47f4 bdbc 9fe6 163d
000002d0: 08b1 043d 26d9 8b3d 237f 153c 221b 5f3d
000002e0: 76a9 b23d 1bbc 323c ece7 e93c 7190 963d
000002f0: bd5f d43c 4364 ed3b 6f25 153d a0d9 4e3d
00000300: da32 dfbc df98 01bd cb97 313d a774 c1bc
00000310: 1cbf 0b3d f96d b63c 94c5 733c 7a03 c0bc
00000320: 98ee 90bd e8e8 50bd a3c7 8fbc 0aba b6bc
00000330: f9d0 0ebd 13fa 74bc f742 a7bc 2a7f 923c
00000340: d5b7 7d3c 91dd af3c 941a cc3c 2580 6d3c
00000350: 1a48 27bc 71ce a13b 7584 533c 8402 debc
00000360: afae 02bd 82de ef39 9df0 9e3c 7613 a0bc
00000370: a54f f33c 84d7 ab3b 8864 ef3c 03ef 1d3c
00000380: a3da b73a 3231 12bd 0821 fd3c 19c6 1d3c
00000390: 4e49 febc eac9 9ebc 940c 1dbc 020e edba
000003a0: f3f7 dfb9 bf09 4bbc 971c d8bc ffe7 01bd
000003b0: 3eee 743b d663 d33c 43ee c83c 08b2 81bc
000003c0: b3fa 91bc 54e8 f1bb 1f75 043d d894 343c
000003d0: 5ee2 943d d299 3b3d 577b 9d3b f853 5a3d
000003e0: 7797 163d 994c e2bc 9ea0 1b3d 58df 2d3c
000003f0: 7e79 f13a 871a aa3c ed1c 38bc ce9d 00bd
0.007717568 0.03706405 0.009655249 0.015660163 0.01675103 -0.035054922 0.037990957 0.044914525
-0.034915157 -0.0012452386 -0.018188253 -0.012527002 0.0068211677 0.032468013 0.031278323 0.00083174155
-0.017461006 -0.01603706 0.031074949 0.030567598 -0.017660163 0.03302599 -0.013291002 -0.0060634017
0.020198844 0.0088679325 -0.020505244 0.029934537 -0.020748328 -0.010846879 -0.022796717 0.022399943
-0.03382958 -0.013314938 0.006974403 0.00082914904 0.02704131 0.008393953 0.0045304024 0.032764684
-0.039297376 -0.012662775 0.0025334426 0.03887005 -0.007646297 0.010320297 -0.025184244 0.048794553
-0.030146483 -6.6078246e-06 0.0014173855 -0.017067628 -0.009411266 0.018865826 -0.0037546107 0.023330916
-0.008912989 0.037722748 0.03631515 0.06258127 0.0078109237 0.0047276528 0.046472725 0.036526978
0.065123476 0.057730794 0.026497182 0.0807139 0.029875489 0.08004578 0.054019596 0.052060217
0.0035279982 0.015996417 -0.0032537358 -0.043506756 0.019820383 0.031391602 0.023570344 0.023763781
-0.014209491 0.04013993 0.042164978 0.013073098 -0.002401359 0.039448217 0.043814726 -0.009797274
-0.032512624 0.017937617 0.05542331 0.04862389 0.02834666 -0.0120696565 0.025994228 -0.00013533722
0.01961425 -0.0016012023 0.023893971 0.010687283 0.028922245 0.0034984734 -0.020158624 0.00826647
0.038596254 -0.0051139425 -0.008645686 -0.056569543 0.013218819 -0.03503961 0.022630554 0.011651594
-0.02038209 -0.03762372 0.011690105 -0.03503774 -0.0031194608 0.025701877 -0.013992755 -0.010379321
0.0007970548 -0.01546351 -0.03132613 -0.008336353 0.026662087 0.011514362 -0.021433067 -0.032005005
-0.0042775553 0.02061725 0.026776472 -0.02608108 -0.009127297 -0.0048780963 -0.020871157 0.0067005837
0.011385665 -0.005210368 -0.011804253 0.0018606787 0.023966935 -0.025900656 0.015276305 0.040229436
0.038787447 0.043221354 0.04461559 0.069501795 -0.014858071 0.06283118 0.0030920794 0.02315664
0.04396987 0.03234041 0.025922725 0.03248269 0.013989093 0.02089911 0.0426298 0.01891595
-0.01080564 0.026204662 -0.023925498 0.015144129 -0.018488852 0.011390049 0.0068160263 -0.0040775207
-0.0022171556 -0.010487212 -0.021858273 -0.02289682 0.029550465 -0.023975404 0.0341551 -0.032653503
-0.016311456 0.0025489908 -0.02318777 0.03684103 0.032395393 0.06828527 0.00912455 0.054469235
0.08723728 0.010909106 0.028552972 0.07351769 0.025924558 0.007244618 0.036412653 0.050500512
-0.027245928 -0.03163993 0.04335765 -0.023615194 0.034117803 0.022269236 0.014878649 -0.023439158
-0.07076758 -0.051003367 -0.017551249 -0.022305507 -0.03486726 -0.0149522 -0.020417674 0.017882902
0.0154857235 0.021467956 0.024915017 0.014495884 -0.010210061 0.00493794 0.012909998 -0.027100809
-0.031904873 0.00045751414 0.019401843 -0.01954053 0.029701063 0.0052441973 0.029222742 0.009639504
0.0014026951 -0.035691448 0.03089954 0.00962975 -0.031040814 -0.01938339 -0.009585518 -0.001808584
-0.0004271861 -0.01239246 -0.02638082 -0.03171539 0.0037373449 0.025804441 0.024527675 -0.015831962
-0.017819738 -0.007382432 0.032338258 0.011021815 0.072697386 0.04580099 0.004805963 0.053302735
0.036765542 -0.027624415 0.037994973 0.010612331 0.0018423048 0.020764602 -0.011237365 -0.031400494

net.4.bias f4 [64]
00000000: 4a97 5fbc b605 a0bc 3cbb e1bc a4f3 82bc
00000010: b8c1 963c 5afe 96bc e7dc 34bc 6d75 263d
00000020: 96df 843c 93fe 10bd 15b4 0abd 3c80 f9ba
00000030: cc07 38bc 87dd febc e17f 883c a709 103d
00000040: 9677 f43c f1eb cfbc 784e 083d ee1b 213d
00000050: d5d7 a03c b9a1 bbbc 5eb0 113d 1d93 ff3c
00000060: 7d62 08bd abec dbbc 2271 24bd 61dc 01bd
00000070: d53b 973b cc8b c73b 930f f83a 553d 1dbd
00000080: afb7 5a3c a8d0 0cbd 6ecd e63c d54f 123c
00000090: 6073 c9bc f639 c93c b910 52bc 0ca1 1b3d
000000a0: 0651 ccbc ccc8 c0bc 7a09 cfbb 1dc2 eabc
000000b0: 4c9f 6fbb c407 b43c 5952 2ebd ba4b 23bd
000000c0: a2c8 593c e291 c13c abcd d63c d607 5fbc
000000d0: ea5b b2bc 2307 01bd 28ae ac3c 9000 033d
000000e0: 8649 3dbb 0351 7d3c c6d6 e33c 16d6 8b3c
000000f0: fb19 0c3c fbbb 173d fb58 f0bc 06f2 aa3c
-0.01364691 -0.019533973 -0.0275551 -0.015985318 0.01840292 -0.018431831 -0.011038995 0.04063933
0.016219895 -0.03539903 -0.033863146 -0.0019035409 -0.011232328 -0.031111492 0.01666254 0.035165455
0.02984218 -0.02538106 0.03327796 0.039333276 0.019634167 -0.022904264 0.035568587 0.031198079
-0.03329705 -0.02684625 -0.040146954 -0.03170431 0.004615287 0.006089663 0.001892554 -0.03838857
0.013349458 -0.034378678 0.028174128 0.008930166 -0.024591148 0.02456377 -0.01282137 0.037995383
-0.024940979 -0.023533247 -0.0063182684 -0.028657014 -0.0036563454 0.02197636 -0.042559 -0.03986714
0.0132924635 0.023629133 0.026221117 -0.013612708 -0.021772344 -0.031500947 0.021079138 0.03198296
-0.0028882935 0.015461209 0.027812373 0.017069858 0.008551116 0.037044507 -0.029339304 0.020867359

net.6.weight f4 [32, 64, 3, 3]
00000000: c8af fa3c 9c04 0cbb d8bd d93c 7d35 8cbb
00000010: e763 57bc 106a bf3b fb67 ccbc e72d 26bc
00000020: 436a 3abc b1c7 23bb 277e 883b d57d 93bd
00000030: 8ed0 353c d9e9 0f3c 9d0a babc d680 aa3b
00000040: 1caf 913b b8f0 b3bc 3473 a2bb 3fe0 7cbb
00000050: 5d09 8ebd 1278 c03c 6cd2 403d 9508 47bd
00000060: 49cf 713b c19e 8ebc 2fde a8bd d352 01bd
00000070: 303e 46bc 3b0c c2bc 9044 973c 32ae 13bc
00000080: fe5c 22bd bde2 5abc 9e99 fcbb bbd5 a73b
00000090: e7d6 31bc 97ec 2f3d 4537 a93d 10cb 443d
000000a0: 3937 5f3d 6d62 d93d 9e5d 963d 7493 d93d
000000b0: aed1 b63d 79c5 6f3d 1bae d43c ab1a 28bd
000000c0: 3df5 603b 59ac cebb 410b 43bd e45b ca3b
000000d0: af4a 333d e37e 83bd 9525 33bb c5ec 123c
000000e0: 1226 763d a16a ffbb 9972 4b3d 391e 933d
000000f0: 670c 96bc 4de0 333d 1197 563d 723e 913b
00000100: 4eba 143c 4c16 32bd 96cf b63c ccda ddbb
00000110: 5d9c 2abd 0433 9d3c 16e9 f7bc 6a3e 1fbd
00000120: 37c1 be3c 9fd3 babc d7cb 6dbd ba4b 913a
00000130: 4603 5cbc b9ac 4cbc 886a 8f3d 9843 19bc
00000140: a71d cfbc 39fb 7b3d a2b4 903d 58cc 51bb
00000150: b4a7 2b3d 2ba1 3f3d d037 f8bc 4abc 9f3b
00000160: 090a 5c3c ee9c 23bd 7664 793d 9d7e 4b3d
00000170: 2c46 21bd 326d 3f3c 6bd4 8b3d ad82 49bd
00000180: 712b 973d de9b 7b3d 91ab c1bc 70d9 4d3d
00000190: 92f4 2a3c bb2f a7bc cae1 293c f092 86bb
000001a0: d9b5 00bd 68b3 ca3c 9225 babb a3bf 9fbd
000001b0: ecd0 0f3d 22a4 693d 6325 a6bc 8fda 883d
000001c0: b3fb 403d 07f9 01bd bfb7 1a3c dfd5 233d
000001d0: 1e33 b83c 9541 8b3d 5b58 10bd 4667 2ebd
000001e0: ea33 f8bb 7286 853c 292a b3bd 120d 773d
000001f0: 904f c2ba 9e12 9ebd 1390 733d b943 203d
00000200: 4e4d 9ebc 9ba4 5d3d 9a78 1f3d 4be3 39bc
00000210: 2f7d cf3c 893f 3fbc 0f1e 1dbc 72e7 29bb
00000220: 50a3 c73c 1982 4abd 70c0 403d 28a9 3f3c
00000230: 4193 8dbc c392 3fbb 0edd 17bc 0078 cbbb
00000240: 3ea0 ff3c 87f1 3cba 421e c3bc b1d3 d43b
00000250: 98fd 3b3c 4a28 5bbd 9c9e 533d 8694 6c3d
00000260: 0aba 71bd 09bd 4d3d 7eef d5bb 5725 6bbc
00000270: cffb ce3b 88d3 05bc 83d9 a6bd 868c 853c
00000280: db60 67bd 831a 6ebd 9e35 653d 5ec9 38bc
00000290: 5d7a 01bc 5a8f 06bc 9497 60bc 268e 94bd
000002a0: a298 253d b484 5b3d 79dd 45bd cb98 3e3d
000002b0: 2cfc 32bc 59c8 7ebd 091d 9ebc 6088 bcbc
000002c0: e3cd 3bbd 84cb 653d 70d9 f83c 9c4e 97bd
000002d0: a894 e93c e170 49bc c3a5 99bd b769 debb
000002e0: d448 3dbc 613e 14bd a507 173c b53d 163d
000002f0: 5d5a a4bc 33df e339 e452 2b3d 4c51 273d
00000300: 0029 1a3d 986a e73c 9be5 2f3d f47f ed3c
00000310: 813c aa3c 1cfd e53c 41c4 b63c 19fc 983c
00000320: fda4 02ba 1aa8 293d 4202 4e3c 7d3d 0abb
00000330: 36d5 623d dd1c 893b 9aa5 49bd 7b7b a03c
00000340: 854e 8b3d 79b8 7cbd c05b 9d3c c26b 713d
00000350: 836e 5cbc 0620 933d 3bef 4c3d e5a5 d0bc
00000360: e1ee 383b 62c7 cc3d 9115 f93c 4572 5a3d
00000370: 3135 4a3d 3366 183a 68af ee3c ded9 df3c
00000380: 5c95 db3a 6aaa 283d b425 01bc 8707 c2bc
00000390: 196d 2b3d 62f3 303d bf1a 88bd 5b07 a9bc
000003a0: 09e9 2e3d 5eb8 78bd abdc b13c 8d4b 3d3d
000003b0: 360b 34bd 9d75 743d a5ad 84bc ec53 03bd
000003c0: 862c 21bc b2df bf3b 7d84 3fbd 0e06 323d
000003d0: 6801 b93c 1175 4ebd 9546 293c 71d4 833c
000003e0: 7c07 debc 2e79 523d 6d8d c43b 4975 53bc
000003f0: 3375 55bb ecf3 02bb 2542 5bbd bfe0 9fbc
0.030601397 -0.0021365052 0.026579782 -0.0042788372 -0.013146377 0.005841501 -0.024951926 -0.01014278
-0.011377874 -0.0024990852 0.004165429 -0.07201735 0.011097087 0.008783781 -0.022710139 0.0052033467
0.0044459235 -0.02196537 -0.004957581 -0.003858581 -0.0693538 0.023494754 0.047075674 -0.04859217
0.0036897233 -0.017409684 -0.08245503 -0.031573128 -0.012099788 -0.023687473 0.01846531 -0.009013699
-0.039639466 -0.013359723 -0.0077087423 0.005121914 -0.010854459 0.04295024 0.08262495 0.048045218
0.054496024 0.10614476 0.07342075 0.106238276 0.08926712 0.058537934 0.025961926 -0.041041058
0.003432586 -0.0063071665 -0.047618154 0.006175505 0.043772396 -0.06420686 -0.0027335633 0.008967583
0.0600949 -0.0077946936 0.049669836 0.07183499 -0.01831646 0.04391508 0.052390162 0.004432493
0.009077622 -0.043478295 0.022315782 -0.0067704674 -0.041653026 0.019189365 -0.030262511 -0.038877882
0.023285491 -0.022805987 -0.058055725 0.001108519 -0.013428515 -0.012492352 0.07002741 -0.0093544945
-0.025282694 0.06151888 0.07065703 -0.0032012668 0.04190798 0.04678456 -0.030300051 0.0048747407
0.013430127 -0.03994458 0.060886823 0.049681295 -0.03937356 0.011683749 0.06827625 -0.049196888
0.07381333 0.061427943 -0.02364138 0.050256193 0.010434287 -0.020408502 0.010368774 -0.004106872
-0.031423423 0.02474375 -0.0056807483 -0.07800224 0.035111353 0.057041295 -0.0202815 0.06682312
0.04711504 -0.03173163 0.009443223 0.039998885 0.022485312 0.06799618 -0.035240512 -0.042578958
-0.007574548 0.01629946 -0.08748276 0.0603152 -0.0014824737 -0.07718395 0.05946357 0.039127085
-0.019323971 0.054112058 0.038933374 -0.011345695 0.025328247 -0.011672863 -0.009589686 -0.0025925306
0.024369866 -0.049440477 0.047058523 0.011698045 -0.01728213 -0.0029231764 -0.009269012 -0.0062093735
0.03120434 -0.0007207621 -0.023818139 0.006494962 0.011474036 -0.05350522 0.051664934 0.05775883
-0.05901531 0.050229106 -0.006528794 -0.014352164 0.006316639 -0.008168109 -0.08146956 0.016302358
-0.056488853 -0.058130752 0.055959336 -0.011278478 -0.007902709 -0.008212889 -0.013708014 -0.07253675
0.040428765 0.053593352 -0.048306916 0.046532433 -0.01092438 -0.062202785 -0.019300954 -0.023014247
-0.045850646 0.05610229 0.03037712 -0.073880404 0.028513268 -0.012294979 -0.0750232 -0.0067875045
-0.011553008 -0.0361923 0.009218131 0.036679942 -0.02006262 0.0004346311 0.041827098 0.040849015
0.037636757 0.02824907 0.04294358 0.028991677 0.020780804 0.028074794 0.022310378 0.018674897
-0.00049836916 0.04142008 0.0125737805 -0.0021093779 0.055379115 0.004184349 -0.049230196 0.01959013
0.06802086 -0.061699364 0.019208789 0.058940656 -0.013454082 0.07183842 0.050032835 -0.02546973
0.0028218555 0.09998967 0.030405791 0.053331632 0.049367134 0.0005813569 0.029136375 0.027325567
0.0016752887 0.041178145 -0.007882524 -0.02368523 0.04185209 0.043200858 -0.066457264 -0.02063339
0.04270271 -0.0607227 0.021711668 0.04621463 -0.043956004 0.059682477 -0.016196081 -0.032062456
-0.009837275 0.005855524 -0.04675721 0.043462805 0.022583678 -0.050404612 0.0103317695 0.01609251
-0.027103178 0.051385097 0.0059983046 -0.012906381 -0.0032571077 -0.0019981815 -0.053529877 -0.019516347

net.6.bias f4 [32]
00000000: a5df 8abb d705 453b c710 a03c a5ef eebc
00000010: 75ec e43a 948f a8bc d2e2 c3bc d89a 123d
00000020: 94f4 c43c f6fc 0c3d 6c43 00bd 15a3 d13c
00000030: 8940 ee3c d868 e03c 50fc 193d 8c23 3bba
00000040: 730e 11bc 85a7 993b 203b 953c 6f11 2f3d
00000050: 5535 37bc f8d2 033c babd f0bb 5828 833c
00000060: ab45 8b3c e7c5 14bd c112 093d 76e4 e63c
00000070: 3ade 103d 4b8c 10bd da5e 263d e748 11bd
-0.0042380863 0.0030063295 0.01953925 -0.029167006 0.0017465489 -0.020576276 -0.023911867 0.0357922
0.024042405 0.03442093 -0.0313143 0.025590459 0.029083507 0.027393743 0.03759414 -0.0007138781
-0.008853543 0.0046891593 0.01821667 0.042741235 -0.011182149 0.008045904 -0.007346836 0.016010448
0.017000994 -0.036321547 0.03346515 0.02818511 0.03536818 -0.035290044 0.0406178 -0.035469916

net.8.weight f4 [3, 32, 3, 3]
00000000: 3e01 a5bd 6cbb 323c d63a 6dbd 2357 4bbd
00000010: b34a 983d 377b 60bd a79a cdbd f898 823d
00000020: 0991 63bd faea 57bd 97c8 5cbc 0c66 3abd
00000030: e410 f63a e1d3 043d bc75 a9bc 6e14 113d
00000040: 98f0 893d af55 13bc e783 07bc 5ede d43c
00000050: e713 16bc 6a73 2c3d 3972 7d3d d031 17bd
00000060: d35a 1f3d f456 f63c 01e9 10bd 826a 37bd
00000070: 9f5a b2ba 831d 16bd dbbb a0bd 8e22 fb3c
00000080: 9fa9 3f3c 8faf acbd ae45 a4bc 04bf 383d
00000090: af16 f43c 1308 713d dfb0 53bd e675 703d
000000a0: 6b52 473b 0b60 89bc 40d2 f03c e88a edbc
000000b0: 2629 47bd edf5 50bd 8315 3fbd 9a7b 0f3d
000000c0: 6ef8 94bc 63fd 1dbd 4045 a73c c58c ffbb
000000d0: f10a fb3c 0c20 e0ba 0bf1 23bd 9faa a73c
000000e0: cc6f f13b 7bd2 3ebb a424 2abd f1b6 2abd
000000f0: 433c 5d3d 5fa1 183d b63c 973c 5e02 da3c
00000100: c0af 213c 46ba 7d3c 8cd3 eebc 814d a03c
00000110: b135 51bd df55 44bd 7c14 3fbd 2f55 1cbc
00000120: 31f5 0b3d f022 813c b59f c3bc 8b38 1abb
00000130: 794e fb3c ab84 103d a065 dbbc b69b 2cbd
00000140: a7ba 57bd 8ff1 8abd 180d 63bd 496b 65bd
00000150: 61d8 febc dada 1c3d bb74 45bc 6f36 55bd
00000160: 912e e2bc 7734 1fbc 5e17 943c 6a13 5d3d
00000170: 1f32 4bbc 2cf4 903d 65ba 8d3d c2bf 8ebc
00000180: eaac 423d c988 063c 644f c03c ae88 733c
00000190: f3d7 ec3c 2f7c 8e3b 7a33 023d 5820 e33b
000001a0: 8018 033d fd44 2abd 234b 753d 317d d03c
000001b0: 9ce9 59bd 4d47 01bd 2f10 823d 5337 9cbc
000001c0: 2d73 78bc 3235 eabc afa9 0a3d fe0d 6f3d
000001d0: e99d cb3c 2d66 6b3d a63b c3bc d557 8bbc
000001e0: 73eb 923d f0ee 0dbd ccff e73c c177 cbbb
000001f0: 0fce bdbb a3fd 653d 4bb4 c23c 5d52 48bd
00000200: 696c a33c 2aab d0bb 979d 2f3d ccc5 743c
00000210: 7e30 bebc 9abb 46bd 18a3 413d 3124 c03c
00000220: 6a38 1bbd 4d9f 2a3d cc89 113d b9fa 133c
00000230: b102 e43c bb6d 093c 545f 533c 6f20 a4b9
00000240: 30af e03c e3cb 59bc 5921 813d d7df 4abd
00000250: 0529 2bbd a9c1 bc3c 90e1 a13c dd60 24bd
00000260: f3b1 3a3d 1508 66bd f070 5cbd f66f acbc
00000270: 8f33 153d 78ef 7dbc 3d70 0d3d b5fb 31bb
00000280: 9b34 eabb ecb9 7b3d f4c7 643d d916 b03c
00000290: fcc0 67bc 9d3e 183d 644d d0bb b4de 563c
000002a0: 3c96 1b3d 5cc7 833d 2276 673d 35c6 2abd
000002b0: 2d81 1b3d ae8f 52bd 4d5f 88bc d6b8 b03a
000002c0: 9869 193c f70d 073d 327e 403d 0e7e 8dbc
000002d0: 912d 1dbc b6d6 debb 7122 383d ddc8 bf3c
000002e0: de2f 693b d931 37bd a2d9 023b cfa9 913d
000002f0: fda3 18bd 92da 773d faef 0a3d 96d3 583c
00000300: d6e0 613b d9ef ccbc 8168 ba3b 95dd 813c
00000310: 295f 3d3d 7301 dd3c 34c0 96bd 81e0 ddbc
00000320: 5bc0 66bc f5bb b03c 1b9e a93c 1c18 4dbd
00000330: 2690 67bd a2f0 863c a8d6 27bd 61d3 78bc
00000340: 85d4 343d 5c69 8ebc 39c7 363c e990 22bd
00000350: 07c4 4ebd e869 393d fa7f 203d b1a5 b83a
00000360: 1c53 99bc 4b2d fc3a 5806 6b3d 1dc2 e4bc
00000370: 3870 81bb 123f a23c b3f7 7fbb da7c 5dbd
00000380: b5fd 593b a504 563d 1fac 4f3d c4a6 d239
00000390: 68fe dbbc e0b2 c5bc 25c2 1fbc 5b3e 97ba
000003a0: e23b 15bd 9ff4 28bd 22c7 dabc 5525 48bd
000003b0: b691 5b3d e649 84bb d7ad 613d 7890 363d
000003c0: 360f af3c d5f4 2f3d 26db 883d 3aaf 5fbd
000003d0: 2f9b 1a3d f52b 25bd 6705 3ebc 1f7f 35bc
000003e0: 65d4 70bc 2984 c3bc 86e7 eabc 81eb 683c
000003f0: 9038 4ebc a368 853d 116b c2bb 0385 ffbc
-0.080568776 0.010908943 -0.05791744 -0.049643647 0.07436123 -0.054805007 -0.10039263 0.06376833
-0.05555824 -0.052714325 -0.013475559 -0.045507476 0.0018773344 0.032428626 -0.020686023 0.035419874
0.06735343 -0.0089925965 -0.008271194 0.02598494 -0.0091600185 0.042102255 0.06187651 -0.03691274
0.038904976 0.03007076 -0.03537846 -0.04477931 -0.001360733 -0.03664924 -0.078483306 0.030656125
0.011698156 -0.08431923 -0.020052757 0.04510404 0.029795973 0.05884559 -0.05168235 0.058706187
0.0030414115 -0.01676943 0.02939713 -0.0289969 -0.048623227 -0.051015783 -0.046651375 0.035029985
-0.018184867 -0.038571727 0.020418763 -0.0077987635 0.030644866 -0.0017099394 -0.0400248 0.0204671
0.0073680636 -0.0029117155 -0.04153885 -0.041678373 0.05401255 0.03726327 0.018461566 0.026612457
0.009868562 0.015486306 -0.029153608 0.019568207 -0.051076595 -0.047933456 -0.046650395 -0.009541794
0.03416938 0.01576373 -0.023879865 -0.0023532237 0.030677067 0.035282772 -0.026781857 -0.042140685
-0.05266824 -0.06784355 -0.05543241 -0.05601052 -0.031109037 0.03829465 -0.0120517565 -0.052053865
-0.027610095 -0.009717098 0.018077549 0.053973593 -0.0124020865 0.07077822 0.069203176 -0.017425422
0.047528185 0.008211323 0.023475356 0.01486413 0.028911566 0.0043483 0.031787373 0.006931346
0.032005787 -0.0415697 0.05988611 0.02545032 -0.053201303 -0.03156214 0.06350743 -0.01906935
-0.015164179 -0.028589819 0.03385323 0.058362953 0.02485557 0.05747049 -0.023832154 -0.017009655
0.071738146 -0.034651697 0.028320216 -0.006209344 -0.0057923864 0.05615009 0.023767611 -0.048906673
0.019949155 -0.0063680606 0.0428749 0.014939737 -0.023216482 -0.048518755 0.04727468 0.023454757
-0.037895598 0.041655827 0.035531804 0.009031945 0.027833315 0.008387978 0.012901146 -0.00031304682
0.027427286 -0.013293239 0.06305189 -0.049529877 -0.041787166 0.023041563 0.019760877 -0.04013144
0.04557986 -0.05616005 -0.053818643 -0.02104948 0.036426123 -0.015498988 0.034530867 -0.0027158086
-0.0071473843 0.061456606 0.055854753 0.02149527 -0.014145132 0.037169088 -0.006356882 0.01311462
0.03798507 0.06434509 0.056509145 -0.04169293 0.03796499 -0.051406555 -0.016647005 0.001348282
0.009363554 0.032972302 0.04699535 -0.017272022 -0.009593383 -0.006800498 0.04495472 0.023411209
0.003558151 -0.044725273 0.0019966145 0.071124665 -0.037265766 0.06051118 0.033920266 0.01323404
0.0034466288 -0.025016712 0.0056887274 0.015852729 0.04623333 0.02697823 -0.073608786 -0.02708459
-0.014083947 0.021574 0.020705273 -0.05007182 -0.056533955 0.016472165 -0.040976197 -0.015187115
0.044147987 -0.017384224 0.011155897 -0.03968898 -0.050479915 0.045267016 0.039184548 0.0014087466
-0.018716387 0.0019239573 0.057379097 -0.027924592 -0.003950145 0.019805465 -0.0039057552 -0.054074146
0.0033262793 0.052250523 0.050701257 0.0004017857 -0.026854709 -0.024133146 -0.0097508775 -0.0011538969
-0.03643406 -0.041248914 -0.026706282 -0.048863728 0.053605758 -0.0040371297 0.055097427 0.04457137
0.021369558 0.0429581 0.06682424 -0.05461047 0.03774565 -0.040325124 -0.011597968 -0.011077671
-0.014699076 -0.02386673 -0.028674852 0.014216305 -0.012586728 0.065140985 -0.0059331735 -0.031191355

net.8.bias f4 [3]
00000000: cb87 af3b 56e2 f93c 9575 1f3d
0.005356764 0.030503433 0.038930494
